model/model.pth (torch, 16799 bytes, 4 tensors)

linear1.weight f4 [256, 11]
00000000: 9fa6 b43e 1eb3 05bf 6cd9 38be 56ab aa3d
00000010: c4c0 5dbe 24f3 823e 2fdc 553e 5f69 17bd
00000020: b708 843d 6d40 4ebe eac9 94bd 149e 31be
00000030: e306 f43d 2c76 a73e 028a b73e fe0c 99be
00000040: 72de a1be 8003 913d e3a2 ddbe 547a aa3e
00000050: d811 15be ce9a 80bc 49bc a63e d3a6 a7be
00000060: 6d7b 1f3e c4e2 93bd 4472 4c3e 189a 51be
00000070: a1c4 9fbe f4fb 5abd 9eb8 50be ed61 48bd
00000080: 490e 113e dfbd 73be f142 f9bd 68d1 673d
00000090: 8d1f 35be b861 6ebe 7201 223e f825 fe3e
000000a0: 3197 a4be 175b 9ebd 3ba3 9f3e dd19 e73e
000000b0: ac55 1abd a5a6 1fbe 075d da3e 396d 893d
000000c0: 56f8 85be 39de cd3e 7fe4 a1be 0fb6 b3be
000000d0: 3d87 3ebe e22b a33e 963c 90be 61fd 4c3c
000000e0: 1dd2 a73c 9cce f23d 5132 74be 4d1e bd3d
000000f0: efd4 183e ff34 ff3d 915a f63c 84ac 1fbe
00000100: e4e3 70bc 5298 c03d 8d47 8b3d 59a8 d5be
00000110: afeb f7bd ceea d2be 408f 8f3e 35ea 5ebe
00000120: 10ea 58bd 9d75 a33e 3e6d 2bbe 5831 b2be
00000130: dcfb ab3d 3c01 8dbe efcd c33c 0aa5 463c
00000140: 2dd8 8dbe acdd 4cbe b58a 83bd 22fa e53e
00000150: ff1c 01be 7c27 d5be c15f a5be 348c 633e
00000160: f3e3 99bd 8981 15be 788b 70be aebe 9a3e
00000170: f926 debd f59c 4ebe 54c6 d4be 5de3 76be
00000180: 67b6 65bd 3abe 9fbe 84b2 f53e 9de6 6bbd
00000190: 06a0 1d3f 15b7 00bf c13d df3e a99a 8ebe
000001a0: 6229 023e b86b 9cbe 3ab2 a9be ff3b 77bd
000001b0: b14c 94bd 5e22 d33e 8ba4 0dbe 64af ea3e
000001c0: c331 313e a2a0 9b3e 497e 0f3e 9d5c 3d3e
000001d0: 9083 9d3d a263 203d 0496 763d b5c6 cf3e
000001e0: 1699 d03e 1e39 fdbe ea38 a63e 0b4d 503d
000001f0: 5ea8 023e 6ff8 cebd 6764 f0bd d6ac 03bd
00000200: eaa5 843e 2f82 7c3d 27af b53e 5be4 653e
00000210: 8810 bcbb e962 4fbd ecc7 fb3d 1442 92be
00000220: 045b 53be 1bec 5abe 52a9 963e 9473 7ebe
00000230: c468 873e f86d abbe 13e0 8bbe 03ad 093e
00000240: a7b9 bebd 7062 1cbf 1e36 543e e68d 633e
00000250: be0b 583e eab1 b43e 034d a1be 1093 57be
00000260: d2fc c7be 7480 dfbe a891 0ebe 7f75 983c
00000270: 012c 6cbe cd04 043e 470f 82be 78df 8dbe
00000280: 2469 9bbe a419 153e 23f3 7cbe bac1 cebe
00000290: dd48 8dbe 6fe6 923d 2326 423b feaf 873e
000002a0: dcb7 c3be 2924 8f3e 272c ca3d 2f8e 983e
000002b0: 2557 013b 0c99 71be 0263 9dbe ca70 363d
000002c0: f35e d33d 6d8b 0bbe d20c c53d 568e 8e3d
000002d0: 5fdb 85be be1a ad3d 4cd1 91be 7ead b2bd
000002e0: ae4a a9be 0fde 77be e463 bcbd dd8b 85bb
000002f0: c196 b63d 1b30 723b a432 033e 4bd6 9cbd
00000300: 66ab 9e3c 993a 063e b470 89be 7eb1 9ebe
00000310: daff 08be 7e3e 13be cabc 08be 6156 03bf
00000320: 96c4 fe3e 0cf4 e5bc a73c 2b3e 26cb c1be
00000330: 1bc6 a13d 0805 613c 3f1a dd3c d878 d5be
00000340: cef9 81bc 03b7 1fbf 8884 acbd 69a4 0d3f
00000350: f056 40be ba0e 243e ce9b 973e 14df 433e
00000360: c725 ffbd 01b0 513e 32a5 4e3e fdef c63e
00000370: b32b 63be cd0f 1a3f 2f58 be3c 09a4 123d
00000380: d9b4 a5be ebf3 8dbe 2cb3 113e 91e7 923d
00000390: 7ba0 22be c217 8bbe b6ed d33d ae9f 373e
000003a0: 636c cfbd 4dfe 1b3f 6224 1fbe 2bb8 b9be
000003b0: e304 753e 6083 a0be 7df0 9fbd 3552 a83e
000003c0: 9e6e ef3e 9987 e6bd 2e10 0fbe 4310 10bf
000003d0: 6710 123f a025 743e a70c 98be bc3f 9d3d
000003e0: dd63 9fbe ddfc 28bd 3cd6 cb3e c87b c33e
000003f0: 520e 57be 1839 14bd b2ee 2b3e 4971 84be
0.35283372 -0.52226436 -0.1805169 0.08333461 -0.21655566 0.25576127 0.20884775 -0.036965724
0.06446975 -0.20141764 -0.072650746 -0.17345458 0.11915376 0.32707345 0.3584748 -0.29892725
-0.31615025 0.07080746 -0.43288335 0.33296454 -0.14557588 -0.015698817 0.32565525 -0.32744464
0.15574427 -0.072209865 0.19965464 -0.20468938 -0.31204703 -0.053462937 -0.20382926 -0.048921514
0.14165606 -0.23802899 -0.12170971 0.05659619 -0.17687817 -0.23279464 0.15820864 0.49638343
-0.321466 -0.07732218 0.31179222 0.4513692 -0.03767936 -0.15590914 0.426491 0.06710286
-0.26166028 0.40208605 -0.3161964 -0.35099837 -0.18606277 0.31869417 -0.28171223 0.012511582
0.020485932 0.11855814 -0.23847319 0.09234295 0.14924978 0.1246128 0.030072482 -0.15593153
-0.014702771 0.09404053 0.068007566 -0.41730002 -0.121055 -0.41194767 0.2803898 -0.2176903
-0.052957594 0.3192567 -0.16740891 -0.3480327 0.08397648 -0.27540004 0.023901908 0.012124309
-0.27703992 -0.20006436 -0.06422941 0.449174 -0.12608717 -0.41631687 -0.32299617 0.22221452
-0.07514181 -0.14600195 -0.23490703 0.30223602 -0.10847277 -0.20177062 -0.41557562 -0.2411017
-0.056082156 -0.3119982 0.4798776 -0.057592977 0.615723 -0.5027936 0.43601802 -0.2785237
0.12711099 -0.30550933 -0.3314379 -0.06035995 -0.0724119 0.41237158 -0.138323 0.45836937
0.17304139 0.3039599 0.14013018 0.1849236 0.07691109 0.039157517 0.06020166 0.4058129
0.40741795 -0.4945764 0.32465297 0.050854724 0.1275954 -0.10105979 -0.117379 -0.03214725
0.25907832 0.06164759 0.35485193 0.22450392 -0.0057392754 -0.050631437 0.122939914 -0.2856604
-0.20640188 -0.2137913 0.29426056 -0.24848777 0.26447117 -0.33482337 -0.27319393 0.13444905
-0.09312754 -0.61087704 0.20723769 0.22222099 0.2109823 0.35291988 -0.31504068 -0.21052194
-0.39060074 -0.4365269 -0.13922751 0.018610714 -0.23063661 0.12892456 -0.2540228 -0.27709556
-0.30353653 0.14560562 -0.24702124 -0.40382177 -0.27594653 0.07172858 0.0029624782 0.2650146
-0.3822621 0.27957276 0.09871703 0.29795977 0.001973578 -0.23593539 -0.307396 0.044541158
0.103208445 -0.13627405 0.09621586 0.06960742 -0.2614393 0.08452366 -0.28479993 -0.08724497
-0.3306479 -0.24205802 -0.0919874 -0.004075511 0.08915473 0.0036954943 0.12812287 -0.07658061
0.019368839 0.1310829 -0.26843798 -0.3099479 -0.1337885 -0.14379308 -0.13353267 -0.5130368
0.49759358 -0.028070472 0.16722356 -0.37850302 0.07899114 0.01373411 0.026990054 -0.4169376
-0.015866186 -0.6238863 -0.08423716 0.55328995 -0.18783164 0.16021243 0.29611057 0.19128066
-0.12458377 0.20477296 0.20180205 0.38854972 -0.22184639 0.6018036 0.023235409 0.035800967
-0.32364538 -0.27725157 0.14228505 0.07173074 -0.15881531 -0.27166563 0.10348074 0.17932007
-0.10128095 0.6093491 -0.15541223 -0.36273322 0.23927645 -0.3135023 -0.078095414 0.3287522
0.46764082 -0.11256332 -0.13971016 -0.56274813 0.5705628 0.23842478 -0.29697153 0.07678172
-0.31130877 -0.041256774 0.39811885 0.38180375 -0.21001557 -0.03618726 0.16790274 -0.2586768

linear1.bias f4 [256]
00000000: 2aae 47be 0d1e debd 9d7f a1bd f25e 70be
00000010: 1d7a 0c3e c574 d5be fb29 b2bd c03d 70bd
00000020: 1d33 5dbd 41e2 3ebe 470b 33be 1e0c 823d
00000030: 61e2 73bd d4ef 253f 1c2b ce3d 64e0 aebd
00000040: 9b88 5bbe 366c f8bd 93a7 803e fe8b adbd
00000050: 0238 6c3e 6e73 a7bd d356 c2bd df2b 65be
00000060: 08b3 98bd 09bf a8bd 9735 a9be 0a32 0fbd
00000070: 8a47 f43d 73f0 73bd 04ff a0be 8c4f f63d
00000080: 9e7f b0be abfb 8cbe 9754 433d 8af1 31be
00000090: e5d1 95bc b8b5 2dbd 4275 afbd 3ce4 14be
000000a0: 151d cbbd a9e1 603e 8a3e e9bd 87fc 903e
000000b0: 9c85 db3d 94de 37bd 1800 7d3e dc83 cebd
000000c0: d200 383e ad1d f0bc 72b7 0ebe 851a c13e
000000d0: e6d5 cd3d bdb3 05bd d190 d2bd b503 0f3e
000000e0: 9b7e a5be a9e2 653e 0289 373e e2ca acbd
000000f0: fd88 57bd 7784 4d3e 11d6 a43c d22f 29be
00000100: ca3d cd3d 5771 12be 2e02 bb3e 2098 9f3c
00000110: 9d0d 93be d75c 24be 4f29 13be 3c07 863d
00000120: ae5c 1bbe 408c 68bc 02dd b33d 9080 a9bd
00000130: 2c79 17bd a52b e9bd 83f8 ebbc 1a87 3fbe
00000140: acb3 b8be e195 8dbd ab4d 96be 925a edbd
00000150: 2bc4 003e 9687 4c3d ea58 d13d 2f40 16be
00000160: b63f 2cbe 9e5f 37bd 79e6 54bd 7f70 0abd
00000170: c1f3 e2bd 9999 bfbd a56c 823d 97f2 903e
00000180: 6ead 023e 168e 8cbe 0305 ab3e a373 e73c
00000190: db8b 103e 58dc 413d 7f7d c6bd 8370 82be
000001a0: f610 06be 1964 46be 367f 6fbe e221 c93e
000001b0: 3783 84be fc93 05be 5af6 92be 6d98 a13c
000001c0: 4c06 50bb 3cbe ce3e dac2 243e 98ed 3a3e
000001d0: 2f01 7bbd f18f 86bd b398 85be 32af 94be
000001e0: 0250 a03c 977b 973d 8311 80be 016f 09bd
000001f0: 168e 8e3b 49a7 643e 5ad9 c0bd 7380 e8bd
00000200: bbd4 c2be 97ed 303d 54e5 a3be e341 6fba
00000210: 1898 5f3e fde2 18be 00b6 f1bd ba7b 73be
00000220: 4950 25be 1312 46be cfc2 a53e a311 2abd
00000230: 9e55 96bd 8516 83bd a214 9b3e 1859 0ebe
00000240: 35db 5abe 1501 adbe 4e5a 8d3e 721d 5fbe
00000250: b211 45bc a8ff d53d 6c5a 65be 5347 8cbe
00000260: 3c0e edbd 1ee7 c4bc 4932 e43d 0b51 87bd
00000270: 3ad4 a63d c537 53bd 4384 27bd f9df cc3c
00000280: 576d c03d 50f7 debb 4de0 13be 38e0 423d
00000290: b2cb 083e 7af5 a5be ae40 433e 4a49 473e
000002a0: 2811 7dbe 222f ef3d 1012 0c3c b059 393c
000002b0: b35e 17bc a675 80be 1e62 ab3b c410 34be
000002c0: bda6 91bd 631e 243e c013 14bd d738 82be
000002d0: 5cfa 71bd b1f9 8fbe 488a 96bd ae50 a43e
000002e0: 2f0b 3b3d 6a6d 133d 6afe 663e 6464 433d
000002f0: 35b4 f3bd 5e44 2b3e 1b8f da3c 7ef0 b6bd
00000300: db59 2fbe 7f12 343e 4d76 95be 9a82 173e
00000310: ab8c 113c 074a 41bd 545b ed3d 7b7f 9cbe
00000320: df1e 1fbd 1f7b 823d f1b8 fe3b dbe4 f13e
00000330: 9137 3cbe cdec 93bc 1110 bfbe e818 c7be
00000340: 6933 803e b0bd 953d 8964 56be 5e18 84be
00000350: c237 46be 0c86 c7be 0c13 d7be 84a0 4f3e
00000360: 9fbc bfbd cbe7 7fbd 1c30 813d df1b 16be
00000370: 42ca ac3e 5fb3 6fbe 917f 4bbe 1cc9 45be
00000380: 603e d9bd c05d 283e b4d1 8ebc 5ded 98be
00000390: 84a9 213e 42a5 b13d 6ca6 c53e aedb dabd
000003a0: a154 263a da3c 0bbd 55e3 babe d335 5d3d
000003b0: 7eb1 09be cb80 9ebd 2046 103e 73c4 55be
000003c0: ad27 923b 3ec6 24bd 1ec1 84be 6b8d 3f3e
000003d0: 8ced 89be 22d8 97be 15bd ca3d 7db9 f03d
000003e0: c676 0abd 85ef 093e 7bdb bbbe 7504 88be
000003f0: 0479 293d 6a14 e43e 1089 62bd f1de bdbc
-0.19500032 -0.108455755 -0.078856684 -0.23473719 0.13718458 -0.4169065 -0.086994134 -0.05865264
-0.054003824 -0.18640997 -0.1748477 0.063499674 -0.059542064 0.64819074 0.10066816 -0.08538893
-0.2143883 -0.121300146 0.2512785 -0.08473967 0.2306824 -0.08176313 -0.09489217 -0.22380017
-0.074560225 -0.08239562 -0.33048698 -0.03495983 0.119277075 -0.059555482 -0.3144456 0.12026891
-0.34472364 -0.27535757 0.047688093 -0.17377296 -0.018288562 -0.04240963 -0.08567287 -0.1454019
-0.09917656 0.21961083 -0.113888815 0.28317663 0.10718843 -0.04489 0.24707067 -0.10083744
0.17969063 -0.029311026 -0.13937166 0.37715545 0.100505635 -0.032642115 -0.10281528 0.13966258
-0.32323155 0.22449745 0.17923358 -0.08437134 -0.052620877 0.20070063 0.020121606 -0.16522148
0.10021551 -0.14301048 0.365251 0.019481719 -0.28721324 -0.1605104 -0.14371227 0.065443486
-0.15172073 -0.014193594 0.08782388 -0.082764745 -0.036980793 -0.11385278 -0.028805023 -0.18703881
-0.3607458 -0.06913353 -0.2935613 -0.115895405 0.12574832 0.049933992 0.10222037 -0.14672922
-0.16821179 -0.044768922 -0.05197761 -0.03379869 -0.110816486 -0.09355468 0.063683785 0.2831008
0.1276147 -0.27452153 0.3340226 0.028253382 0.1411585 0.047329277 -0.09691905 -0.25476465
-0.13092408 -0.19374122 -0.23388371 0.39283663 -0.2588136 -0.13044733 -0.28703576 0.019726003
-0.0031742034 0.40379512 0.16089955 0.18254697 -0.061280426 -0.065704234 -0.26093063 -0.29039913
0.0195694 0.0739662 -0.2501336 -0.033553127 0.004350434 0.22329439 -0.094164565 -0.11352625
-0.38052925 0.043195333 -0.320109 -0.00091269444 0.21835363 -0.14930339 -0.11802292 -0.23777667
-0.16143908 -0.19342832 0.3237519 -0.041520726 -0.07340549 -0.0640078 0.3028918 -0.13901174
-0.21372683 -0.33789888 0.2760796 -0.21788576 -0.012028145 0.10449153 -0.22397774 -0.27398166
-0.115749806 -0.024035987 0.11142404 -0.066072546 0.08145948 -0.051566858 -0.04089762 0.025009142
0.09395855 -0.0068043843 -0.14441033 0.047577113 0.13358954 -0.32413846 0.19067642 0.19461551
-0.24713576 0.11678912 0.008549228 0.011312887 -0.009238887 -0.2508976 0.0052302023 -0.1758452
-0.07111881 0.16027217 -0.036151648 -0.2543399 -0.059076652 -0.28120187 -0.07350594 0.32092804
0.045664962 0.035993017 0.22557989 0.04770316 -0.11899606 0.16725299 0.026679566 -0.08932589
-0.17124121 0.1758518 -0.2919182 0.14795914 0.0088836355 -0.04718974 0.11589685 -0.3056601
-0.0388478 0.0637114 0.0077735116 0.47244915 -0.18380572 -0.018057251 -0.37316945 -0.3888619
0.25039223 0.07311571 -0.20936789 -0.2579984 -0.19357207 -0.38969457 -0.4200672 0.20276076
-0.093621485 -0.062476914 0.06308004 -0.1465907 0.3374806 -0.23408268 -0.19872881 -0.19314998
-0.106076 0.16442013 -0.017433979 -0.29868594 0.15787321 0.086740986 0.38603532 -0.10686432
0.0006345008 -0.03399358 -0.36501566 0.05400641 -0.13446614 -0.07739409 0.1408925 -0.2087572
0.004460296 -0.04022812 -0.25928587 0.1870629 -0.26939046 -0.29657084 0.09899346 0.11754129
-0.033804677 0.13470276 -0.36690888 -0.265659 0.041375175 0.44546825 -0.055306494 -0.023177596

linear2.weight f4 [3, 256]
00000000: 2464 44bc 0099 54be 5fee bebd 24a5 b73e
00000010: 419d db3e 45b4 8fbc b8e0 3cbe bd0f ba3e
00000020: 543a a8be 8c73 83be 5ae3 d8bd b94f 82bd
00000030: a917 b8bd 36ba ea3e fabd 923e 828b fb3c
00000040: c512 08bc 6b10 6f3c dc63 853e c018 303e
00000050: 4c75 973e 084f 243e 80f7 cebd 74a2 6bbd
00000060: e3f1 fcbd 0cff cb3e ecc7 173b 25df c5be
00000070: 5746 e0bd aa11 ad3e 236c 35bd 8f7b 1c3d
00000080: d8c0 bc3c a348 04be f099 02bf 4fdc bebb
00000090: 538c a7be 2a2d 413c bd69 43bd 1b7f 903e
000000a0: df7c 65bd 3f0a 243e b9ce 6d3b 0bd8 0a3f
000000b0: 5710 323e 7e37 9c3e 679a 333e 5e72 f23b
000000c0: 1feb 9d3e c5bb 1dbe 2491 c5be c4ed 893e
000000d0: 96e8 c6be f265 b6be 9601 c1be eabc e23e
000000e0: 49b4 99be 7fa1 9e3e de36 cd3e a5f0 b5be
000000f0: 8c19 833e 74b4 873d 29d1 c23d 5e51 6fbe
00000100: f89d 07bb e665 c4be 92f3 a63e 40d1 c33e
00000110: 1475 333d ec81 49be b0cb 1bba 20cd 86be
00000120: 1f2e 39be db4b 76be e615 063f a740 30bd
00000130: 7e35 33be bc8d 97be 9ba6 4dbd 2a11 003e
00000140: 90de e4be 3a82 693e aa6f 5dbc da2d a0be
00000150: d2c4 a23d ce5a 37bd 7a94 473e c1f7 b7bd
00000160: dddc d9bd 16e1 ea3d b66c 9bbd 37b7 273b
00000170: dc3b 66be fc5a 8dbe 2b2e 083c 6d4c 513e
00000180: 9a72 703e 806c dc3c 4ee0 513e 0727 5c3e
00000190: 980d ad3e 89fa 853e 8802 fabd c34a b03d
000001a0: 0cb1 9bbd 3254 e13a 36d8 18be 49df 583e
000001b0: e542 28b9 673d 09be 2c61 82bc 381c cc3e
000001c0: 7687 60bd 1c38 003e 7826 883e e559 b5be
000001d0: 3c43 19be 7038 58bd c09d 41bd 1198 203e
000001e0: 9961 4bbe 706c 0b3d 7e69 cdbc 2495 24be
000001f0: cf19 1bbe b4ba a6bd a094 1ebe 0fb7 0abe
00000200: f438 633d 7a5b 34be 00dc 143d d450 cf3d
00000210: f56b 603e b990 8dbe 47c2 a33e cbfb 79be
00000220: b7e1 54be b5c6 3ebd 2b58 d13e 8bc7 78be
00000230: bc55 09be 4188 6d3e 523b 543e 7490 653e
00000240: 507c 3abe ee2b ce3c 8d47 6e3e 2737 2ebe
00000250: dd43 e4bb 0e3f 20bd 489d d3bd 19db c5bc
00000260: 6537 143d eb50 8a3e e1a7 593e b7df 19bd
00000270: 7f75 c33e 4c54 3a3d 5865 b9bd 33ed 5ebc
00000280: 1d0c 433d 44e6 eebd 0f2f 513e df07 bcbd
00000290: b472 83be 4898 49bd 9651 063e b2f3 963e
000002a0: 1fe8 2d3c 0f31 a6be 367a 3c3d ace1 edbd
000002b0: 4ace 37be 607c 66be 2901 3ebe 0acf 17bf
000002c0: 049c 27be 837f 543e 4d72 1abe 7189 5fbe
000002d0: f3d0 61be 2e7c 88bc b4b0 93be 5c78 b83e
000002e0: 8d51 6e3e fcf6 d6be be7b 263d ef0b 1d3e
000002f0: 844d babd 83bc b63e 418f f6be 59a3 60be
00000300: 7984 24be 9d50 10be 5c6c d7bd 2481 4f3e
00000310: 65df 1abe 25a7 91be 1f5f 5ebd fb23 debc
00000320: fef9 ebbd 4edf 963e 32bd 27be 2773 993e
00000330: 4ffc 0ebe 0678 aabc 5af0 323e 51e4 09bc
00000340: 7213 6f3e 2e86 833e 42a1 64bd 7164 91be
00000350: d373 20bd 6827 95bc f0bd dbbc 184f f33d
00000360: e14b c13e a4ba afbe 69a6 073d 4127 5d3d
00000370: df79 323e 0032 fdb9 63b3 a7be 20fd 343b
00000380: 487f 2bbf b92d d93d 0c48 e33e 849b d63c
00000390: 5971 b03e ada7 8c3c 0d5a 963e cee8 28be
000003a0: f05a 8f3e 360f b1be 059e 093d 9d62 23bd
000003b0: e1ef 84bd fa15 103d 29a8 7dbe 0951 93bc
000003c0: 5091 d0bc bd62 203e a9db 9d3d 3aeb 6d3e
000003d0: 1e3b 033d ab37 98bc 0cce 30be 2560 d13e
000003e0: e26e e9bd 4d3e 1ebe 0450 94bb 1071 fabc
000003f0: 3c4b 363e c747 8d3e ee4b cb3d da00 6cbe
-0.011986766 -0.2076149 -0.093228094 0.3586818 0.42893413 -0.017542014 -0.18445098 0.36340132
-0.32857 -0.25674093 -0.10590239 -0.06362862 -0.08988888 0.45845193 0.28660566 0.030706171
-0.008305256 0.014591317 0.2605275 0.17196941 0.29581678 0.16045773 -0.10105801 -0.057527974
-0.12350824 0.39843023 0.0023159934 -0.38646808 -0.10950916 0.3380254 -0.04429258 0.038203772
0.023041174 -0.12918334 -0.5101614 -0.0058246027 -0.32724246 0.011790553 -0.04770826 0.28221974
-0.05602729 0.16019534 0.0036286546 0.54235905 0.17389046 0.30511087 0.17539369 0.0073988875
0.30843446 -0.1540366 -0.38587296 0.26939213 -0.38849324 -0.35624653 -0.37696522 0.44284755
-0.3002036 0.30982587 0.40080923 -0.3553516 0.25605428 0.066262156 0.095125504 -0.23370883
-0.0020693522 -0.38358992 0.32607704 0.38245583 0.043812826 -0.19678468 -0.00059431326 -0.26328373
-0.18084 -0.24052374 0.52377164 -0.043030407 -0.17500874 -0.29600322 -0.050207715 0.12506548
-0.44701052 0.22803584 -0.013515392 -0.31284982 0.07947697 -0.044764332 0.19490233 -0.08982802
-0.106378295 0.11468713 -0.07589094 0.0025591382 -0.22483772 -0.27608478 0.008311789 0.2043931
0.23481217 0.026907206 0.20495722 0.21499263 0.33799434 0.26167706 -0.12207514 0.0860801
-0.076021284 0.001719123 -0.14926228 0.21178927 -0.00016046649 -0.1340233 -0.015915476 0.3986528
-0.054816686 0.12521404 0.2659185 -0.35420147 -0.14967054 -0.052788198 -0.047269583 0.15683009
-0.1986145 0.03403896 -0.025074717 -0.16072518 -0.15146564 -0.081410795 -0.15486383 -0.13546394
0.055474237 -0.1761302 0.03634262 0.101228386 0.21916182 -0.27649477 0.3198416 -0.24412458
-0.20789228 -0.04657622 0.4088758 -0.2429487 -0.13411611 0.23196508 0.20725754 0.22418386
-0.18211484 0.025167432 0.23269482 -0.17013226 -0.0069660977 -0.039122634 -0.103327334 -0.024152325
0.03618564 0.2701486 0.21255447 -0.037566867 0.3817558 0.045490548 -0.09052533 -0.013606357
0.047618974 -0.116650134 0.20428108 -0.09181189 -0.2567345 -0.049217492 0.1311706 0.294828
0.010614424 -0.32459304 0.046014987 -0.11615309 -0.17949787 -0.22508383 -0.1855513 -0.5930029
-0.16368109 0.20751767 -0.15082665 -0.21829773 -0.22052364 -0.016660776 -0.2884575 0.36029327
0.23273297 -0.4198531 0.040645353 0.15336584 -0.09096816 0.35690698 -0.4815617 -0.21937312
-0.1606616 -0.14093252 -0.10518715 0.20264107 -0.15124281 -0.28447834 -0.054289933 -0.027116766
-0.115222916 0.29467243 -0.16380766 0.29970667 -0.13963436 -0.020809185 0.174745 -0.008416251
0.23347262 0.25688308 -0.05581785 -0.28396943 -0.03917296 -0.018207267 -0.026823968 0.1188032
0.37753204 -0.34322083 0.033117685 0.053992514 0.17429303 -0.00048293173 -0.3275405 0.0027616695
-0.6699109 0.10604424 0.44390905 0.026197203 0.34461477 0.017169798 0.29365578 -0.16495058
0.27999067 -0.34581918 0.033597965 -0.039888967 -0.06491066 0.03517721 -0.2477118 -0.017982977
-0.025459915 0.15662666 0.077079125 0.23234263 0.0320388 -0.018581232 -0.172661 0.40893665
-0.11398102 -0.15453453 -0.00452614 -0.03057149 0.17802137 0.27593824 0.09926592 -0.230472

linear2.bias f4 [3]
00000000: 27e6 2e3e 3917 1dbe d297 bfbd
0.17079984 -0.1534089 -0.09355129
