model/model.pth (torch, 16799 bytes, 4 tensors)

linear1.weight f4 [256, 11]
000000 43 f0 36 3d f4 09 90 3e a3 48 03 be 98 49 bf 37
       0.044662725 0.28132594 -0.12820677 2.2803244e-05
000010 32 3e eb bd 9c 90 9c bd 25 d0 64 3e 60 bc 5e 3d
       -0.11486472 -0.076447695 0.22345026 0.054378867
000020 d8 f6 73 be e7 84 28 3e db 23 81 3e 4e d4 82 be
       -0.23824632 0.16456948 0.25222668 -0.255526
000030 94 17 85 bd 57 af 04 3e 07 21 57 be c4 88 e3 bd
       -0.06498638 0.12957512 -0.21008693 -0.1111007
000040 d0 b1 96 3c 10 fc 08 be 5e 4a 95 3d 59 1e 3e 3e
       0.018395334 -0.13377404 0.07289575 0.18566264
000050 8a 6b e5 3d 9c b2 77 be 97 6b 91 3e ea c6 a6 bd
       0.11202152 -0.24189228 0.28402397 -0.081434086
000060 66 ae d9 bd 55 f1 96 be de 26 4a 3e 16 23 12 3e
       -0.10628967 -0.29480997 0.19741389 0.14271197
000070 23 64 92 3e 5b d0 8a be 7e a6 05 be db a6 5b bd
       0.28592023 -0.27112088 -0.13051793 -0.053625923
000080 02 ae d9 bd bf a3 72 be 98 7c 97 3e ca ae fe bd
       -0.106288925 -0.23695277 0.29587245 -0.12435682
000090 46 bd 36 3e b6 67 58 3e 3f 70 94 be ac 24 90 3e
       0.1784564 0.21133313 -0.28991887 0.28152978
0000a0 28 58 c4 3d 2c cb 5e 3e 2d 7d 90 3c d6 5e 2b 3d
       0.09587127 0.21757191 0.017637813 0.04183849
0000b0 ee ec 4b be 2c ab 8c be ae ee 01 be 25 ac 5b 3e
       -0.199146 -0.27474344 -0.12688705 0.21452387
0000c0 70 f5 1c be d5 85 6d 3e 28 33 ba 3d 64 d0 33 bb
       -0.15328002 0.23195584 0.090917885 -0.0027437443
0000d0 4e 3a 0a bb 75 97 51 3d 92 fd cc be c4 84 93 bb
       -0.0021091881 0.05116983 -0.4003721 -0.004501911
0000e0 94 b2 76 3e 02 0c 3d 3d 00 dc 85 be 2e c2 3b be
       0.2409156 0.04615403 -0.2614441 -0.18335792
0000f0 ec 05 37 3d e2 32 2a 3e ba b8 01 be 80 e3 18 3e
       0.044683382 0.16620973 -0.12668124 0.14930534
000100 bb d1 6e 3e 99 e0 1d 3e 33 85 c6 bd 6f 19 fd bd
       0.23322193 0.15417708 -0.096933745 -0.12358367
000110 52 0c e1 3c 6c ad e1 bc b9 40 27 3e ce 66 c9 3d
       0.027471695 -0.027548514 0.16333283 0.098340616
000120 ba 7e 9e 3d 5e ab 80 be 82 37 33 3e 70 75 85 bd
       0.07739015 -0.25130743 0.17501643 -0.0651654
000130 f4 32 37 be b0 86 26 be cc af e1 3e 9f 2f c7 bd
       -0.17890531 -0.16262317 0.44079435 -0.0972588
000140 dc 53 08 be 0a e8 34 3e eb 96 1c 3e 2a e9 11 3e
       -0.1331324 0.17666641 0.15291946 0.14249101
000150 aa a7 55 3e bf bd db bd e9 85 27 be f5 15 38 be
       0.2086474 -0.107295506 -0.16359676 -0.17977126
000160 21 02 67 bd a8 0f f9 3e b1 39 6d be a8 6d a8 bd
       -0.056398515 0.48644757 -0.23166539 -0.0822404
000170 53 0b f5 bd 0d 85 85 bd 5c 21 c4 3d 99 01 8b 3e
       -0.119650505 -0.06519518 0.09576675 0.27149656
000180 3d 85 b4 bd 5e 14 83 bd 17 cd b2 bd b8 5e 0f bd
       -0.08814476 -0.06400369 -0.08730524 -0.03500244
000190 50 73 b2 3c a2 2a 5a be 68 0f 55 3d 20 72 5b bd
       0.0217835 -0.21305326 0.052016646 -0.053575635
0001a0 96 51 dc 3d c0 f4 56 3d 5c d2 57 be 20 b4 33 bd
       0.10757749 0.052479506 -0.2107634 -0.043872952
0001b0 da cb 80 bd 41 b7 1d be 6a ed 80 3e 96 8c 8d 3e
       -0.062888816 -0.15401937 0.25181133 0.2764632
0001c0 41 b4 19 3e 4c ec 1c bc 3c ff f0 bd 03 25 41 3e
       0.15010168 -0.009577822 -0.11767432 0.18861775
0001d0 66 69 ca 3d 96 20 82 be 12 20 07 3e 0c 8c 6c 3c
       0.098833844 -0.25415486 0.13195828 0.014437687
0001e0 42 12 84 3e ff 25 ea 3c 85 fb 21 be 40 ef 4c bc
       0.2579518 0.028582571 -0.15818603 -0.0125082135
0001f0 10 82 bf 3d 12 fb 13 bd 07 67 7d 3e 5c 99 36 3e
       0.09350979 -0.03612811 0.24746333 0.1783194
000200 e6 30 a3 bc 89 e4 92 be 14 72 a2 3d 16 7d 82 be
       -0.019920778 -0.28689983 0.07931915 -0.25486058
000210 84 20 21 3e d8 7f a0 3d e0 af e7 3d a1 01 83 be
       0.1573506 0.07836884 0.11312842 -0.2558718
000220 f4 65 5b 3e 66 ff c6 bd c4 b7 e5 3d 0c e2 3b be
       0.21425611 -0.09716682 0.11216691 -0.18347949
000230 08 d6 d9 bd bd b5 80 bd fe 89 85 be 6b 0b ac bb
       -0.10636526 -0.06284664 -0.26081842 -0.0052503846
000240 f1 b6 66 be 02 89 7d 3d b9 9e 58 3e 28 a1 43 be
       -0.22530724 0.06189824 0.21154298 -0.19104445
000250 2e 63 8a be ee d2 40 3e 3a b1 77 3e de e0 20 3e
       -0.27028793 0.18830463 0.241887 0.1571078
000260 ff 43 17 3c 1c 00 0d be 28 1d 0a 3e c3 8e ad 3e
       0.00923252 -0.13769573 0.13487685 0.3389798
000270 60 ba 1c bc 18 a2 30 3e 48 2c 83 be 16 f8 66 bd
       -0.00956592 0.17249334 -0.2561972 -0.056388937
000280 c4 6d 63 be ca 68 f3 bd 60 6c 41 be 44 b5 86 be
       -0.22209841 -0.11885221 -0.18888998 -0.2631017
000290 fe 21 2d be 01 ca 4d be 19 23 9e 3d 8f 45 bb 3e
       -0.16907498 -0.2009659 0.07721538 0.36576506
0002a0 40 f4 ad 3d fa ef 29 be ef 4a 88 bc 3f 2f bf bd
       0.084938526 -0.1659545 -0.016637294 -0.09335183
0002b0 76 cd 8f 3c 6a fd 7e bd f8 88 b1 3d 65 4e 03 3e
       0.017554026 -0.062253393 0.08668703 0.12822874
0002c0 92 f8 fb 3d 83 ce 7c be 8c 4c c9 bd 7e 30 9a 3d
       0.123032704 -0.24688153 -0.09829053 0.075287804
0002d0 4c 90 26 3e f1 bc ae bd d5 49 c3 3d e0 ea 9d 3e
       0.16265982 -0.085321315 0.09535567 0.30843258
0002e0 12 1c 28 be 5f ae 09 3c 02 08 04 3c bc b8 da 3c
       -0.16416958 0.00840339 0.00805855 0.026699416
0002f0 25 c5 b7 3e d6 63 8f 3e 86 78 60 3e 9c 56 27 3e
       0.35892597 0.28005856 0.21920976 0.16341633
000300 b4 32 99 be eb ae 2c 3e d7 a0 98 be a0 7a f3 3d
       -0.29921496 0.16863601 -0.2981021 0.11888623
000310 81 de 43 be 48 fb 64 3e f3 b3 f7 3d 2b b4 c5 bc
       -0.19127847 0.22361481 0.120948695 -0.024133762
000320 41 e7 70 be e5 0c 31 bc a7 da 28 bd 3a 4f 20 be
       -0.23525716 -0.010806297 -0.041224148 -0.15655223
000330 9d 53 62 be 4e e4 06 be 8c 35 77 be 66 42 03 3e
       -0.22102208 -0.13173029 -0.2414152 0.12818298
000340 f7 4e f0 bd e7 12 b0 bc 21 2c 81 3c 9d dd bb 3b
       -0.11733811 -0.021493388 0.015768113 0.0057332055
000350 81 40 c3 3d 62 c1 ea 3d 13 ee 29 be 88 88 89 be
       0.095337875 0.11462666 -0.16594724 -0.26861978
000360 90 3e b0 3d b1 98 0b be 82 c2 92 bc b2 e1 9e be
       0.08605683 -0.13632466 -0.017915014 -0.31031567
000370 b5 44 a7 3e 98 36 2f 3e b7 68 ac 3d 51 74 fd 3d
       0.32669607 0.1711067 0.0841841 0.12375701
000380 f8 b9 32 3e 75 e5 44 3e ee 17 74 bd b6 9f 72 3e
       0.17453754 0.19228156 -0.059593134 0.23693737
000390 1c b9 76 3d 55 e4 4c 3e d1 4a e8 3d 1e 95 3b be
       0.060235128 0.20008977 0.11342395 -0.18318602
0003a0 2f db 48 3e 5c 7e 5e 3e 84 07 0e 3e 50 09 13 3d
       0.19614862 0.2172789 0.13870054 0.035897553
0003b0 99 a0 62 3c 8c 8c 96 be 98 0e 97 3d e8 ad 81 3d
       0.013832235 -0.29404104 0.073758304 0.06331998
0003c0 03 c5 81 be 3c 65 8d be ff c2 c3 3e 3d 5c a0 3e
       -0.2534562 -0.27616298 0.38234708 0.31320372
0003d0 b1 23 26 bd e2 67 d0 bc 93 ff 06 3d f4 6f e9 3d
       -0.04056138 -0.02544016 0.03295858 0.113983065
0003e0 80 02 44 be 29 de 83 3e d1 e9 2d 3e 34 9a d2 3c
       -0.19141579 0.25755432 0.16983725 0.025708295
0003f0 18 8b e9 3d 28 24 08 3d 86 3a 6e 3d 76 77 7b be
       0.11403483 0.033237606 0.05816128 -0.2455729

linear1.bias f4 [256]
000000 73 db 05 be f3 9d 84 3e 47 21 8a be 4c d7 a9 bd
       -0.13071994 0.25901756 -0.26978514 -0.08293018
000010 3c f0 a5 bc a2 a4 8f 3e ba c5 71 3e 52 3e 1b 3e
       -0.020256154 0.28055292 0.23610583 0.15160492
000020 14 a4 70 3e 90 b6 aa bd ff 1e 85 3e b0 8e 92 be
       0.23500091 -0.08335602 0.2600021 -0.28624487
000030 d6 d7 7d be 7e c9 b3 bd 41 05 19 3e a9 f7 45 3e
       -0.24789366 -0.08778666 0.1494341 0.19332756
000040 7a 4c 18 be 26 62 b6 bd d2 dd 2b 3c 29 50 f3 3c
       -0.14872923 -0.08905439 0.010489898 0.02970131
000050 98 c6 a5 bd c8 18 92 be ff 35 9a bd 2e de 1a be
       -0.080945194 -0.28534532 -0.0752983 -0.15123817
000060 ab 1e 07 3e 0b 19 5f 3e f8 ba d7 3d f2 47 0b 3e
       0.13195293 0.21786897 0.10533708 0.13601664
000070 21 44 75 be 58 70 a6 3e 5b e0 5b 3e 85 7b bc be
       -0.2395177 0.32507586 0.21472304 -0.36812988
000080 2e 0d 51 bb b7 d2 35 3e a0 61 58 3e 51 42 85 be
       -0.0031898725 0.17756163 0.21130991 -0.26027158
000090 64 de 8a bd 03 62 8c 3e 2e 89 60 bd 1c 61 37 3e
       -0.06780699 0.27418527 -0.054818325 0.17908138
0000a0 05 93 bf bd 32 be 06 bc bc b0 2a 3e ff 82 b1 3e
       -0.093542136 -0.008224057 0.16668981 0.34670255
0000b0 0b f6 d2 bd 9f 4d c6 3e 8f 65 06 3b f6 de 84 3e
       -0.10300835 0.38731095 0.002050731 0.25951356
0000c0 a3 c7 66 be d5 9b 91 3e 4e a6 88 3d b3 d0 05 3d
       -0.22537093 0.28439203 0.06672345 0.032669734
0000d0 0d e0 69 be d2 a5 9a 3e b7 57 cc 3d e0 1d 9f 3d
       -0.22839375 0.30204636 0.09977668 0.0776937
0000e0 7c f9 82 3e fb 01 4f 3e 4b e9 85 bd 46 81 64 bc
       0.25580966 0.20215599 -0.06538638 -0.013946837
0000f0 38 66 f9 3d e3 18 b2 3e f1 76 73 bd e3 f9 90 3e
       0.121777 0.34784612 -0.059439603 0.28315648
000100 fc bc 37 3e 5f 4c 63 3e 25 e4 c4 3e b8 9a 92 bd
       0.17943186 0.22197102 0.3845531 -0.071584165
000110 29 50 58 be f2 ac de bd fd ba a0 be eb de 7f 3c
       -0.21124329 -0.108728305 -0.3139266 0.015617113
000120 9b 49 ec bd e9 4d 80 be 8f 0c fe 3d 36 72 66 be
       -0.11537477 -0.2505944 0.12404739 -0.22504506
000130 ba 7a 4e bd 2d 99 c5 3e 9f c3 93 be a6 25 88 3e
       -0.05041001 0.38593426 -0.28860185 0.26591223
000140 e0 f3 28 3e d8 84 3d 3e 1d 45 aa be 0a 70 89 3e
       0.16499281 0.18507707 -0.33255854 0.26843292
000150 27 c3 cc bd 78 74 14 3e 58 6c fd bd 13 22 23 3c
       -0.0999816 0.14497554 -0.123741806 0.009956854
000160 c6 9b d9 3d 5b 31 90 3d 39 42 a0 be ad 68 d5 3d
       0.106254146 0.07040664 -0.31300524 0.10420356
000170 0a 42 89 3e 8a b6 17 be 13 1b 36 3e 80 d4 9a 3d
       0.26808196 -0.14815727 0.17783765 0.075600624
000180 e6 1b 09 be 3e 55 78 bd 22 fe 1a 3e a3 57 42 be
       -0.13389549 -0.06062817 0.15136006 -0.18978743
000190 af bd 33 be ef 86 24 3d 0b 08 45 3e da 7b f7 3d
       -0.17552827 0.040167745 0.1924135 0.1208417
0001a0 6e cb ef bd 3e e6 68 3d e9 8e 29 3e 3a f8 b0 3e
       -0.11708723 0.0568602 0.16558422 0.34564382
0001b0 ef 40 a8 be 28 87 0f 3e 8f 1d 18 3e 51 49 d9 bd
       -0.3286204 0.14016402 0.14855026 -0.10609687
0001c0 d4 8e 30 bd f1 34 e7 bd 87 70 81 3e 24 85 4c 3e
       -0.04310496 -0.11289395 0.25281164 0.19972664
0001d0 17 ab 19 be 7a c2 19 bc 45 76 88 bc bf 38 f4 bd
       -0.15006672 -0.009384746 -0.016657958 -0.11924886
0001e0 a9 05 af bd 96 0b 39 3e 80 58 95 be a8 06 95 3e
       -0.085460015 0.18070826 -0.29169083 0.2910664
0001f0 f0 aa ab be df 78 75 be d4 b7 33 3e 69 17 29 be
       -0.33528852 -0.2397189 0.17550594 -0.16512837
000200 1c 28 9f 3e f4 f6 b2 3e 83 eb 32 be 33 5b 99 3e
       0.3108529 0.34954035 -0.17472653 0.29952392
000210 9d 7a 7e bc f6 d8 6b be b6 b1 b3 bd d1 2a 9e 3e
       -0.015532163 -0.23031983 -0.0877413 0.3089204
000220 43 9f b1 be 27 c4 8b 3e b6 9f a8 3e 9a 8b 36 3e
       -0.3469182 0.2729809 0.3293435 0.17826691
000230 45 31 84 be 3f 90 23 bd 2d b1 48 be 5b 59 c6 3b
       -0.2581884 -0.039932486 -0.19598837 0.0060531325
000240 0d 21 78 3e 20 63 b1 be 51 42 fc bd e9 2b e6 3d
       0.24231358 -0.3464594 -0.12317336 0.11238844
000250 4b 4f f4 3d 71 5e ab bc 1b e8 27 bd 38 38 28 be
       0.119291864 -0.020919057 -0.040992837 -0.16427696
000260 5a 9b 73 be 32 61 5e 3e f8 da 50 3e c9 a2 88 3e
       -0.2378973 0.21716765 0.2039603 0.26686695
000270 31 31 d0 bc 92 95 78 3d 61 8a 16 be 24 c3 ed 3c
       -0.025414081 0.060689516 -0.14701225 0.029023714
000280 a3 d1 d8 3d b1 f6 7e 3e 17 cb b5 be cc bd 94 3d
       0.1058686 0.24898793 -0.35506508 0.072627634
000290 bc f3 cd 3d 3b 3c 96 3e db 9b f9 3d c1 61 54 bd
       0.10056254 0.29342827 0.1218793 -0.051851038
0002a0 50 52 2c bd f6 87 92 3d 29 85 bd 3d 3a df 9b be
       -0.042070687 0.07154839 0.09253914 -0.30443746
0002b0 36 94 36 3e cd a5 49 be 40 69 4d 3e 18 8f 27 be
       0.17829975 -0.19692154 0.20059681 -0.1636318
0002c0 21 53 40 3e da 6d 8e be 83 bc 90 3d 75 d7 17 3e
       0.18781711 -0.27818185 0.07067206 0.14828284
0002d0 5e 53 42 3c 6f 49 22 bd fd e9 10 3e 20 18 17 3c
       0.011860697 -0.039620813 0.1415176 0.00922206
0002e0 e0 6a b2 be b6 38 c9 bd 23 af cb bd de 74 a2 3e
       -0.34847164 -0.0982527 -0.09945514 0.31729788
0002f0 22 3a c9 3a 11 47 1a bc 56 24 9e be a7 fd 79 3e
       0.0015352408 -0.009416358 -0.30887097 0.24413167
000300 ff de 1b 3e e4 b1 8a 3d af 7c 66 be 63 ad ab 3d
       0.15221785 0.06772211 -0.225085 0.0838268
000310 63 51 5d 3e bf 39 0c 3e f8 f4 91 3e 44 10 69 3c
       0.21613078 0.13693903 0.2850721 0.014225069
000320 99 51 28 be 3e 92 44 3e c5 0c 8e 3e 08 cd 98 3e
       -0.16437377 0.19196412 0.27744117 0.29843926
000330 e7 76 89 be 83 b9 88 be c1 f2 9d bd 2f 5e b1 bd
       -0.26848528 -0.26704034 -0.07712317 -0.08660542
000340 80 fe 86 3e da 35 a4 3e 1e 6d 6c 3e 19 26 28 be
       0.26366043 0.32072335 0.230885 -0.16420783
000350 85 5b 62 3e 86 f9 27 3d 08 8d 38 3e cc 6c 55 be
       0.22105224 0.04100945 0.18022549 -0.20842284
000360 d2 98 95 3d ea 47 9b 3d dc ab d2 3d a8 1b 87 3e
       0.07304539 0.07582076 0.10286686 0.26388288
000370 58 c6 30 bd f8 bc 0c 3e 47 aa 7b be 2a 36 f4 bd
       -0.043157905 0.13743961 -0.24576674 -0.119243935
000380 9c 19 e0 3d f6 19 99 be ab 15 6e be fb fa 2d 3e
       0.109423846 -0.2990262 -0.23250453 0.16990273
000390 f5 38 2f 3e c2 7e 8f be c5 c5 2e 3e fd d4 17 3e
       0.17111571 -0.28026396 0.1706763 0.14827342
0003a0 ff 81 30 3e a3 df 0b be 39 2a 97 be 45 d1 94 3d
       0.1723709 -0.1365953 -0.295244 0.072664775
0003b0 df a7 8b 3e 50 94 b2 3e 24 cc a2 bc 0a 85 f9 bd
       0.27276513 0.34878778 -0.019872732 -0.12183578
0003c0 12 ee 84 be 11 59 59 be d3 38 c7 bd 39 78 3f be
       -0.25962883 -0.21225382 -0.09727635 -0.18698205
0003d0 d8 8d f6 3d 69 bc 5b 3e 8d 73 35 3e 61 aa 3c bd
       0.12038773 0.21458592 0.1771986 -0.046060923
0003e0 f4 0a 15 be ce b8 7c 3e 76 66 89 bd 7c fc 8c be
       -0.1455496 0.24679872 -0.06708996 -0.2753638
0003f0 27 de 7e 3e 00 fb f6 bd 9d e1 9d 3e 6e 63 9c be
       0.24889432 -0.12059593 0.30836192 -0.3054461

linear2.weight f4 [3, 256]
000000 96 d1 a3 bc 13 29 fe bb 2b a5 2a 3e a7 ba 62 bc
       -0.0199974 -0.0077563613 0.16664569 -0.013838447
000010 56 9a a0 bb f6 62 a9 bb 51 41 ea 3c 03 7b 9f bd
       -0.004901211 -0.0051692678 0.028595598 -0.077871345
000020 95 e6 35 bd cc 15 6a bd 46 f4 b5 bd 66 22 4d bc
       -0.044409353 -0.057149693 -0.08884482 -0.012520408
000030 7c d5 84 3c 06 1b 09 bd 01 5d 03 bd b0 42 2b 3c
       0.016215079 -0.033473037 -0.032071117 0.010452911
000040 27 7b 22 bd ca 56 fe 3c d4 a4 c8 39 58 a8 28 3e
       -0.03966823 0.031047244 0.0003826978 0.16470468
000050 21 3f 19 be d8 d3 8c bc f4 54 08 be 7c df 3c 3d
       -0.14965488 -0.017190859 -0.13313657 0.04611157
000060 3c 8c 23 bd 1c f7 73 bd 58 9e bf bd ce dc 4b bd
       -0.03992866 -0.059561834 -0.093563735 -0.049771123
000070 c3 43 64 3b 92 d7 42 3d 1c 15 bd bb 90 4f 02 b9
       0.0034830428 0.047568865 -0.0057703387 -0.00012427405
000080 96 b4 23 bc 27 1a 47 3d de 1f c0 3b 7d a3 07 bd
       -0.0099917855 0.048608925 0.005863174 -0.0331149
000090 64 3d a9 bd 96 40 a8 bd 02 19 c4 bd e4 cc b9 bd
       -0.082636625 -0.08215444 -0.09575082 -0.09072283
0000a0 c9 56 06 be d2 9b 9a bc da b6 ad bc 79 e7 9b bd
       -0.13119043 -0.018873129 -0.021205354 -0.07612509
0000b0 c4 8d c2 3c 12 7f a4 bd b1 87 17 bd e5 28 67 bd
       0.02374924 -0.08032049 -0.03699464 -0.056435484
0000c0 29 aa 9e 3c e3 bf bf bc d6 fd 13 3d 98 69 02 3e
       0.019368248 -0.023406928 0.03613075 0.12735593
0000d0 d0 10 fd 3c a9 bf 04 bd 28 4f 7e bd a8 dd 71 3c
       0.030891806 -0.032409344 -0.062087208 0.01476232
0000e0 2d 30 c5 bd 69 a5 ae bc f4 f4 4d bc c9 e2 08 be
       -0.096283294 -0.021319108 -0.012570608 -0.13367762
0000f0 28 84 d4 bc 47 b9 f2 bc 2f 25 9b bd 29 bd 16 bd
       -0.025941923 -0.029629363 -0.075754516 -0.03680149
000100 83 52 df bd cf 03 37 bc 82 b2 51 bd 10 98 ef bc
       -0.1090441 -0.011170342 -0.05119563 -0.029247314
000110 15 42 13 3d 51 f4 23 bd ea 95 e1 bb 08 3f 34 3d
       0.035951693 -0.04002792 -0.006884326 0.044005424
000120 5e cc b7 3d 4c ef 9f bc 58 d4 f5 bc 32 3d cd 3d
       0.08974527 -0.019523285 -0.03000848 0.10021438
000130 64 60 91 3c e4 c5 63 bd d7 48 b8 3c d4 9f 9d bd
       0.017746158 -0.055608645 0.02249567 -0.076965004
000140 43 d5 21 3d 63 5b 07 3d ee 9a 42 bc cb 4a 00 be
       0.039510023 0.033046138 -0.011877758 -0.12528531
000150 82 29 7c bc 47 bc 2e bd fd 60 2d 3c 8c f5 12 3c
       -0.015390756 -0.042660024 0.010582206 0.008969676
000160 5e 76 6d bd ec 67 86 bd b5 05 1e 3d 7a e9 31 bd
       -0.057974212 -0.0656279 0.03857966 -0.04343555
000170 9b 1e d3 bd 40 95 17 3d 87 ce 32 bd 38 b6 72 3c
       -0.10308572 0.03700757 -0.04365399 0.014813952
000180 a8 9f 79 bc 7d 45 27 3c a5 36 f7 bb 04 ca 31 3d
       -0.015235819 0.010209438 -0.007544356 0.043405548
000190 c3 4d c8 bd 4e eb 89 bd a3 4e c6 bd 74 1b 05 bb
       -0.09780457 -0.06734334 -0.096829675 -0.0020310553
0001a0 a8 d1 36 3d 36 cf 7c bd 31 df 1a bd fc 95 f7 bd
       0.044633538 -0.06172105 -0.03781051 -0.12089154
0001b0 35 25 72 bc f1 54 81 bd 6a 27 ec bd af 8d 7c bd
       -0.014779379 -0.063150294 -0.11530955 -0.061658558
0001c0 08 fd dc bd 26 9b 53 3a 43 15 a0 3c 4a 41 b7 bd
       -0.107904494 0.000807213 0.019541388 -0.08948
0001d0 f4 74 eb bc a6 f6 4d bd f4 dd 2c 3c ce f3 1c 3d
       -0.028742291 -0.05028405 0.010550965 0.038318448
0001e0 13 11 cd bd 63 72 05 3d 58 56 d8 bd ae 34 de bd
       -0.10013022 0.03257979 -0.10563344 -0.108498916
0001f0 df 27 0a bb d0 6b 61 bd 47 35 6f bd c8 9b 05 bc
       -0.0021080894 -0.05503446 -0.05840042 -0.008154817
000200 11 50 ff bc bd 79 19 bd 5c 1f a3 3c b7 ea 21 bd
       -0.031166108 -0.037469614 0.019912414 -0.039530482
000210 1f 87 38 bd ad b6 da bd e6 50 72 bd ac d5 ce bd
       -0.045050737 -0.10679374 -0.059159182 -0.100993484
000220 d4 4b df ba 08 d0 8b bd 18 1b c7 bd c4 5f 94 bc
       -0.0017036148 -0.06826788 -0.097219646 -0.01811207
000230 b9 c7 8d bd 13 72 37 bb 28 37 f9 3c da de d9 bc
       -0.0692286 -0.0027991578 0.030421808 -0.026595522
000240 09 5a cf 3d 2f 59 77 bc 0d 29 6f 3c 4b 5b 4e bd
       0.10124595 -0.015096947 0.01459719 -0.050380033
000250 fb 31 07 bd 0a 6b 19 3c 1b 32 29 bd 09 b6 14 be
       -0.03300665 0.009363899 -0.04130755 -0.14522566
000260 bc e1 b1 bb bc 53 f3 bd b4 75 56 bb 6c 0b 0b be
       -0.005428521 -0.118812054 -0.0032723965 -0.13578576
000270 86 1b 80 bc 27 8b 15 3c 4d 8c ed bd 65 7f 26 3c
       -0.015638124 0.009127415 -0.11599026 0.010162209
000280 94 21 e8 3c 29 e0 a1 bb e5 7d e7 3c 67 66 33 bc
       0.028336324 -0.004940052 0.028258273 -0.010949708
000290 57 99 04 bd d4 a9 48 3d 5d e3 96 bd 63 0d e9 3c
       -0.0323728 0.048990086 -0.07367585 0.028448766
0002a0 52 9c c8 bc 83 af 34 bc 07 95 bc bc 95 07 c9 3c
       -0.024488602 -0.011028173 -0.02302028 0.024539748
0002b0 13 0e 66 bd 48 c8 a4 bc d1 be 92 bd ed ae d8 bc
       -0.056165766 -0.020115033 -0.071653016 -0.026450599
0002c0 38 0c a3 bd 0c 3f 2b 3d f6 6c af bd 48 a8 d6 bc
       -0.07961315 0.041808173 -0.085657045 -0.02620329
0002d0 21 86 7e bd d3 f4 c1 bd ba ee 48 3c 02 67 36 bd
       -0.062139634 -0.09470525 0.012263948 -0.04453183
0002e0 04 c5 dc 3c 61 53 88 3e 66 bf 04 be e0 3a 8b bd
       0.026949413 0.26626113 -0.12963638 -0.06798339
0002f0 8e 29 34 be b0 5b ee 3c 3b f4 b6 bc 46 c4 35 bd
       -0.17593977 0.029096454 -0.022333255 -0.044376634
000300 ef 3b dc bd 19 fe f1 3c da 86 85 bd d7 b5 92 bd
       -0.10753619 0.029540109 -0.065198615 -0.071635894
000310 fb 99 ac 3c 35 4f 96 bd 41 dd 02 be ca 71 a3 bc
       0.021069517 -0.07339326 -0.12779714 -0.01995172
000320 fb f9 c2 bb 37 c9 62 3d eb 4a 15 be 8b 01 ac bd
       -0.00595021 0.055367675 -0.1457936 -0.08398732
000330 a9 6c 01 3d e4 62 40 bc 02 e8 a4 bd 5d 5a fb bc
       0.031597767 -0.011742327 -0.080520645 -0.030682737
000340 88 19 83 bd 42 b5 cb bb 0b d9 14 bd 35 a1 d1 bd
       -0.06401354 -0.006216676 -0.0363398 -0.10235826
000350 00 59 eb bd af 9f c1 bd 54 01 d6 bd c8 0e d7 3d
       -0.11491585 -0.09454285 -0.10449472 0.10500866
000360 10 17 3a bd ac cc f1 bd 14 25 40 3d fc a9 0a 3d
       -0.04543215 -0.11806616 0.04691036 0.033853516
000370 10 88 e0 bc 8a 1b b5 bd 60 d6 ab bc 49 0f 87 bd
       -0.02740863 -0.08843143 -0.020976245 -0.06594712
000380 b0 ad 13 3d 20 8e 95 bb dc 48 c3 bc 8a 85 27 3d
       0.036054313 -0.0045640618 -0.023838453 0.040898837
000390 68 cc b4 bc 74 c3 ea bc 87 ee 36 bd f5 77 09 3e
       -0.022070125 -0.028657652 -0.04466107 0.13424666
0003a0 d9 73 0e bd c0 ab 7d bd 14 26 33 3c 3b a2 07 3c
       -0.03477845 -0.06193137 0.0109343715 0.008278425
0003b0 20 de be 3b 10 17 ec bd 08 34 5a 3b a9 7e 71 3d
       0.005824819 -0.11527836 0.0033295173 0.058958683
0003c0 e4 3d a9 3a ca 1e 18 bd 2c fd ae 3d 28 64 07 3d
       0.0012912122 -0.037138738 0.085443825 0.0330545
0003d0 69 1a c4 3d f8 54 af bc b0 99 e6 bd 1d 56 80 3d
       0.0957535 -0.021402821 -0.11259782 0.06266425
0003e0 a8 aa 44 bc b1 5a 83 3b 9b 10 2c 39 d5 d1 11 bc
       -0.012003578 0.004008614 0.00016409384 -0.0089001255
0003f0 64 61 84 bd a7 ab 51 3c 80 53 82 bd 1a 6b 37 3d
       -0.06463888 0.012797273 -0.063635826 0.044779874

linear2.bias f4 [3]
000000 10 c3 7b bd 6a d9 9f bd f7 2b 85 bd
       -0.061465323 -0.0780514 -0.06502526
