model/model.pth (torch, 16799 bytes, 4 tensors)

linear1.weight f4 [256, 11]
0	0xbe5dde98	-0.21666944
1	0xbde67db6	-0.11254446
2	0x3dd499db	0.10380908
3	0xbd10a06f	-0.03530925
4	0xbd95e4fe	-0.073190674
5	0xbe4eb91f	-0.20187806
6	0xbe8a2c37	-0.26986858
7	0xbdb6e5bc	-0.08930537
8	0x3e7b1df5	0.24523146
9	0x3ce1eb50	0.027578026
10	0xbe809ddb	-0.25120434
11	0xbd3d3fe8	-0.046203524
12	0xbe2ac952	-0.1667836
13	0xbd61a608	-0.05508998
14	0xbdbd1a3d	-0.0923352
15	0x3e36efb9	0.17864884
16	0xbe4fde5e	-0.2029967
17	0x3e244ea8	0.1604563
18	0x3ddf5004	0.10903934
19	0x3da55497	0.08072775
20	0xbe98de5b	-0.29857144
21	0x3e2ef934	0.17087251
22	0xbd3e5cd9	-0.046475265
23	0x3e789ce8	0.24278605
24	0xbe9893a0	-0.2980013
25	0x3e1caf36	0.15301213
26	0x3d88062a	0.06641801
27	0x3e04a757	0.1295446
28	0x3e99f456	0.30069226
29	0xbe9401c4	-0.28907597
30	0xbe144c55	-0.14482243
31	0x3dc465d2	0.09589733
32	0xbe3e7e27	-0.18602811
33	0x3e960248	0.29298615
34	0x3e9a5485	0.30142608
35	0xbe29e70c	-0.16592044
36	0x3def80e9	0.116945095
37	0x3d754101	0.059876446
38	0xbe84bc60	-0.2592497
39	0xbe6b8fd8	-0.23004091
40	0xbde81145	-0.11331419
41	0xbe27b37a	-0.16377059
42	0xbe8be668	-0.27324224
43	0x3da58972	0.08082856
44	0xbe76b1ea	-0.24091306
45	0xbe544f2f	-0.20733331
46	0x3b6a2ffb	0.0035734165
47	0xbdf9c22a	-0.12195237
48	0x3e64c995	0.22342522
49	0x3ddf2904	0.10896495
50	0x3e18e94f	0.1493275
51	0x3e7ed5f4	0.24886304
52	0x3e34d3ac	0.17658871
53	0x3de87d4b	0.11352023
54	0x3dd4bc3a	0.10387464
55	0x3ea2cad3	0.31795368
56	0x3d97b4d5	0.07407538
57	0xbe02212e	-0.1270797
58	0xbe8dd3bf	-0.27700612
59	0xbe12a5bb	-0.14321034
60	0xbe5257cb	-0.20541303
61	0x3e879a5c	0.26484954
62	0x3ea26960	0.3172102
63	0x3e6aca43	0.22928719
64	0x3e0ddc24	0.13853508
65	0xbea16450	-0.31521845
66	0xbe198e68	-0.1499573
67	0xbe936ff8	-0.28796363
68	0x3c857127	0.016289307
69	0x3df1ff72	0.118163005
70	0x3e039475	0.128496
71	0x3ca3ffd8	0.020019457
72	0xbe95a255	-0.29225412
73	0x3e69283c	0.22769254
74	0xbc4734fb	-0.012158628
75	0x3cce078f	0.025150089
76	0xbea169b8	-0.3152597
77	0xbe3438df	-0.1759982
78	0x3e4e231a	0.20130578
79	0xbdc5470a	-0.0963269
80	0xbe49d1ce	-0.1970894
81	0x3e3e561c	0.18587536
82	0x3e7e800f	0.24853538
83	0x3e1c9468	0.15290987
84	0xbc202779	-0.009775036
85	0xbbfa420c	-0.007637268
86	0xbd0ce998	-0.03440246
87	0x3e2b2ce9	0.1671635
88	0x3ddfc174	0.1092557
89	0x3eab7a69	0.3349183
90	0x3e100231	0.14063336
91	0x3ddebdfd	0.10876081
92	0xbd9f1567	-0.07767754
93	0xbd868246	-0.065678164
94	0x3e026a0d	0.12735768
95	0x3cee040d	0.029054666
96	0xbd916ace	-0.071004495
97	0x3df2a94b	0.11848696
98	0x3e252797	0.16128384
99	0x3dbe05a4	0.092784196
100	0xbe2dcaf4	-0.16971952
101	0xbe133ce3	-0.14378695
102	0xbeacb335	-0.33730474
103	0xbcfd2164	-0.030899711
104	0x3d76a49f	0.06021559
105	0xbe52e85f	-0.20596455
106	0x3e819c7a	0.25314695
107	0xbe3320f4	-0.1749304
108	0xbd53431d	-0.051577676
109	0xbe578ba2	-0.2104936
110	0xbe077c92	-0.13231114
111	0x3e01a79f	0.12661599
112	0x3d85f622	0.06541087
113	0x3e023e91	0.1271918
114	0x3e741a54	0.23838168
115	0x3dfd9636	0.12382166
116	0xbe575439	-0.21028222
117	0xbe8063cd	-0.25076142
118	0xbe28d386	-0.1648694
119	0xbdcfc601	-0.10145188
120	0x3e6b9a7d	0.23008151
121	0x3e993c35	0.29928747
122	0x3e26e18a	0.16296974
123	0x3e53d24a	0.20685688
124	0x3df8e271	0.12152565
125	0x3e0ce8d0	0.13760686
126	0x3d8cac0b	0.06868752
127	0xbe3977fb	-0.18112175
128	0xbe1a3ef4	-0.15063077
129	0x3d43a264	0.04776229
130	0xbe91eb8a	-0.28500015
131	0xbd5012fe	-0.050799362
132	0x3c380603	0.011231902
133	0x3e0aa628	0.13539946
134	0xbdc66dcc	-0.09688911
135	0x3e860989	0.2617915
136	0x3ce4bad9	0.027921127
137	0xbb845379	-0.004038271
138	0xbd2cd303	-0.042193424
139	0xbe8c5efd	-0.2741622
140	0x3e51d4ad	0.20491286
141	0xbccb0336	-0.024781805
142	0x3e6c929d	0.23102804
143	0xbea47945	-0.3212377
144	0x3e16e86a	0.14737096
145	0x3e33e878	0.17569149
146	0x3e4c6fd8	0.1996454
147	0xbd6d9da4	-0.058011666
148	0x3e16a3a5	0.14710863
149	0xbe88a740	-0.26690102
150	0x3e4d6b08	0.2006036
151	0xbdcdb641	-0.10044528
152	0x3dc18b21	0.09450365
153	0xbdb3896e	-0.08766447
154	0x3e65fe9b	0.22460406
155	0x3dc30284	0.09521964
156	0x3b222980	0.0024743974
157	0x3c512157	0.0127642965
158	0xbe504d54	-0.20341998
159	0x3e724bfe	0.23661801
160	0xbd83ddfb	-0.06438824
161	0xbe2ca37c	-0.1685924
162	0xbe9d4af6	-0.30721253
163	0x3e80531f	0.25063416
164	0xbe21323f	-0.15741824
165	0x3e95ac35	0.29232946
166	0xbe48d3bc	-0.1961202
167	0xbe45fe31	-0.19335248
168	0x3e0cee1f	0.13762711
169	0xbcf488a5	-0.029850313
170	0xbe70bb28	-0.23508894
171	0xbe7e89f4	-0.24857312
172	0xbe15086c	-0.14553994
173	0xbd8076e4	-0.062726766
174	0x3e67c225	0.22632654
175	0xbd66bf5c	-0.05633484
176	0x3df01443	0.117226146
177	0xbe46b0e6	-0.19403419
178	0xbdcd1a05	-0.100147285
179	0xbe077d88	-0.1323148
180	0xbe09ce1b	-0.13457529
181	0x3e499d5e	0.19688937
182	0x3d0f9131	0.035050575
183	0xbddc6def	-0.10763156
184	0xbd8f0943	-0.069841884
185	0xbe0a67e7	-0.13516198
186	0x3e88a096	0.26685017
187	0xbd3bac5d	-0.045818675
188	0x3abe76b0	0.0014531221
189	0xbdd2cee4	-0.102933675
190	0x3d1dde24	0.038541928
191	0x3e5832c3	0.21113114
192	0x3dae32f8	0.08505815
193	0xbe3d3275	-0.18476279
194	0x3e07d4f8	0.13264835
195	0x3dec2b74	0.115317255
196	0x3e340c3d	0.17582794
197	0x3d40308a	0.04692129
198	0x3e5d4da8	0.21611655
199	0x3d6c981f	0.05776226
200	0xbd8d3de4	-0.0689657
201	0x3db01a0e	0.085987195
202	0xbdfc2104	-0.12310985
203	0x3cd27c60	0.025694072
204	0x3e00ecde	0.12590358
205	0x3e3ebab4	0.18625909
206	0xbc802ca1	-0.01564628
207	0x3ea8aab4	0.32942736
208	0xbea706cb	-0.3262237
209	0x3d27e1ca	0.040986814
210	0x3c1ff011	0.009761826
211	0x3e8007ba	0.25005895
212	0xbdbbd454	-0.09171358
213	0xbdcfcdfa	-0.10146709
214	0xbe32264a	-0.17397419
215	0xbe8ccbfe	-0.27499384
216	0x3cbc8768	0.023013785
217	0xbe5300ba	-0.20605746
218	0x3c03f860	0.008054823
219	0x3e91b1f6	0.28456086
220	0x3d0af0bd	0.033920992
221	0xbe1be6da	-0.15224782
222	0x3e3027f2	0.17202738
223	0xbe953ca0	-0.29147816
224	0x3e0a01cf	0.13477252
225	0x3da099e2	0.07841851
226	0xbd60e116	-0.05490216
227	0x3e92bf4b	0.2866157
228	0xbe495c12	-0.19664028
229	0x3e4727f9	0.19448842
230	0xbc819806	-0.01581956
231	0x3da98e5a	0.082791045
232	0xbe78a2bc	-0.24280828
233	0x3e8d750b	0.2762836
234	0x3e510d88	0.20415318
235	0xbe848c64	-0.2588836
236	0x3de03eb7	0.10949462
237	0xbe735168	-0.23761523
238	0x3ea8b3c2	0.32949644
239	0xbd7e2f63	-0.06205691
240	0xbd8f0cb2	-0.06984843
241	0x3e872aa5	0.26399723
242	0xbe65ef78	-0.22454631
243	0xbe97dac8	-0.29659104
244	0xbdb8911c	-0.090120524
245	0x3daca85c	0.084305495
246	0x3d8eb21c	0.069675654
247	0xbcd319a0	-0.025769055
248	0x3dc6302c	0.09677157
249	0xbe482fd6	-0.19549498
250	0xbcf382de	-0.029725488
251	0xbd724098	-0.059143633
252	0xbcb7e5cd	-0.022448445
253	0xbe9297f2	-0.2863155
254	0x3e1eae14	0.15496093
255	0xbd4aade8	-0.049482256

linear1.bias f4 [256]
0	0xbe7ed32e	-0.24885246
1	0x3e6b602f	0.2298591
2	0xbd31c419	-0.043399904
3	0xbd4d8d72	-0.05018372
4	0x3d990056	0.07470767
5	0xbdaeb718	-0.08531016
6	0x3d5f3da5	0.05450215
7	0xbe8a6ae7	-0.27034685
8	0xbe6e8b97	-0.23295437
9	0x3e57dd0c	0.21080416
10	0x3e4365ca	0.19081798
11	0xbe57bd7f	-0.21068381
12	0x3e92b639	0.2865465
13	0x3e49af87	0.19695865
14	0x3dcfd927	0.101488404
15	0x3e036c49	0.12834276
16	0xbdb70397	-0.089362316
17	0x3dca3749	0.09873826
18	0x3e5506df	0.20803402
19	0x3d821d7b	0.06353279
20	0x3d1edcb8	0.038784713
21	0x3e1553b4	0.14582711
22	0xbdf3d934	-0.119066626
23	0xbdb4040e	-0.08789836
24	0xbe690dd4	-0.22759181
25	0xbe1c8214	-0.15283996
26	0x3e975295	0.29555193
27	0xbe8137ee	-0.25237983
28	0xbdebbba1	-0.11510397
29	0xbe321292	-0.17389897
30	0xbda9f915	-0.08299462
31	0xbc0165b3	-0.007897782
32	0xbd0c9fdc	-0.03433214
33	0x3dda1905	0.10649303
34	0xbe249833	-0.16073684
35	0xbce639ee	-0.028103795
36	0xbe313a4f	-0.17307399
37	0x3e40fc74	0.18846303
38	0x3cfa5d88	0.030562177
39	0xbdaf4d7a	-0.08559699
40	0x3ddfe6c2	0.109326854
41	0x3c31494d	0.010820699
42	0xbe630e36	-0.2217339
43	0x3e7a2c04	0.24430853
44	0xbb9dd76e	-0.004816941
45	0xbe3359f3	-0.17514782
46	0x3d0654a0	0.03279555
47	0xbe6ea681	-0.23305704
48	0xbd1bd546	-0.03804519
49	0xbe14037d	-0.14454456
50	0xbdf15c8d	-0.11785231
51	0xbe911182	-0.2833367
52	0xbe126f62	-0.14300302
53	0x3d7f79ee	0.06237214
54	0x3eadfa0a	0.33979827
55	0xbe508d77	-0.20366465
56	0xbe79febb	-0.24413578
57	0xbeaa440c	-0.3325504
58	0xbd5edf08	-0.054411918
59	0xbe2604bd	-0.16212745
60	0xbe54f611	-0.20796992
61	0x3b9dfb93	0.0048212497
62	0xbe1e4210	-0.15454888
63	0x3e841549	0.2579749
64	0xbe1001af	-0.14063142
65	0x3d231542	0.039815195
66	0xbd798090	-0.060913622
67	0xbe92e5bc	-0.28690898
68	0xbe6bbd87	-0.23021518
69	0x3e773fb9	0.24145402
70	0x3b89d317	0.004206072
71	0x3dcc1fe4	0.0996702
72	0xbe8de1bf	-0.27711293
73	0x3e4cdce5	0.2000614
74	0xbe4b1684	-0.19832808
75	0xbeb09685	-0.34489837
76	0xbdfa0b1a	-0.12209149
77	0xbe5cc548	-0.21559632
78	0x3e0d0c96	0.13774332
79	0xbe769ff1	-0.2408445
80	0x3ce4b455	0.02791802
81	0xbdc8ec7e	-0.09810732
82	0xbc7d3e1c	-0.015456703
83	0xbd04e48e	-0.03244453
84	0x3e84235f	0.25808236
85	0x3e75720a	0.23969284
86	0xbe7e97df	-0.24862622
87	0x3c6622ac	0.014046352
88	0x3e61ac4b	0.22038381
89	0xbe945d61	-0.28977492
90	0xbd9c09ad	-0.07619033
91	0xbc8206cb	-0.01587238
92	0xbe5e6e16	-0.21721682
93	0x3e25760a	0.1615831
94	0x3ca32e2a	0.019919474
95	0x3e2b634d	0.16737099
96	0xbe9719a0	-0.29511738
97	0xbd6d661c	-0.057958707
98	0x3afcb452	0.0019279814
99	0xbda49210	-0.08035672
100	0x3e5e58a8	0.21713507
101	0xbe92e20d	-0.28688088
102	0x3ddaac5c	0.10677406
103	0xbd4a08e0	-0.04932487
104	0xbdad35d0	-0.084575295
105	0xbeabe6d6	-0.3357455
106	0x3e54f97e	0.20798299
107	0xbd3985a5	-0.04529347
108	0x3c6816fa	0.014165634
109	0x3cf33f6e	0.029693332
110	0x3e618b48	0.22025788
111	0xbc0bbc81	-0.00852883
112	0xbdb4adca	-0.0882221
113	0x3c9ab648	0.018885747
114	0xbc2e965f	-0.010655968
115	0x3e680e98	0.22661817
116	0xbe07fd22	-0.13280156
117	0x3e7bf713	0.2460597
118	0xbe8ba5ff	-0.27275082
119	0xbe61dc9e	-0.22056815
120	0x3e5f8404	0.21827704
121	0xbc815b17	-0.015790505
122	0xbe8dcdca	-0.27696067
123	0xbe895f0d	-0.2683033
124	0x3d226301	0.0396452
125	0x3e316a92	0.1732581
126	0xbd004dac	-0.031324074
127	0x3d495f31	0.049163047
128	0xbe8d092f	-0.2754607
129	0x3c3a719b	0.011379625
130	0x3e3173db	0.17329352
131	0xbd8d4c0f	-0.06899273
132	0xbe9d104f	-0.30676505
133	0x3dd1bf7f	0.10241603
134	0xbdc47dcc	-0.09594306
135	0xbe130d97	-0.14360653
136	0x3e0c07df	0.13674878
137	0x3d4074f5	0.04698654
138	0x3e421506	0.18953332
139	0x3d4a628c	0.049410388
140	0xbe245980	-0.16049767
141	0xbca72ad9	-0.020406174
142	0xbe82f886	-0.25580233
143	0xbdb7998c	-0.089648336
144	0x3dae0efe	0.08498953
145	0xbded9aa4	-0.11601761
146	0xbe1539c3	-0.14572816
147	0x3e9e06e0	0.3086462
148	0x3e58c180	0.21167564
149	0x3e097e6c	0.13427132
150	0xbde862d8	-0.11346978
151	0x3d107c54	0.03527482
152	0x3eb1e4d4	0.34744895
153	0xbd49b53b	-0.0492451
154	0xbe19963e	-0.14998719
155	0x3d9d5cc1	0.07683707
156	0xbe586139	-0.21130838
157	0x3e8f5963	0.27997884
158	0x3e1e000a	0.15429702
159	0x3c556009	0.013023385
160	0xbeae2b50	-0.3401742
161	0x3e2af660	0.16695547
162	0x3d45f3d2	0.04832823
163	0x3e7f6c00	0.24943542
164	0xbe176aef	-0.14786886
165	0xbe8e804d	-0.2783226
166	0x3e162d13	0.14665632
167	0x3e119c78	0.14219844
168	0x3e38f191	0.180609
169	0x3e532a29	0.20621552
170	0x3ea472c5	0.32118812
171	0x3e8ac0c4	0.27100194
172	0xbc3f3e6a	-0.0116725955
173	0x3eb2bfb6	0.3491189
174	0x3cd1d312	0.025613341
175	0x3de920f1	0.11383236
176	0xbd825d54	-0.06365457
177	0x3dbdfaae	0.09276329
178	0xbd700b84	-0.058604732
179	0x3dfd163b	0.12357756
180	0x3ddc317b	0.10751625
181	0xbe3bbea1	-0.18334438
182	0xbd49ab65	-0.04923572
183	0x3e7bf9f6	0.24607071
184	0xbe4421ac	-0.1915347
185	0x3e422cf5	0.18962462
186	0xbe2dfa9f	-0.16990136
187	0x3e892383	0.26784906
188	0xbe393290	-0.18085694
189	0x3d960aad	0.07326255
190	0xbd84d1f6	-0.06485359
191	0xbe866e6a	-0.26256114
192	0xbd05a3ae	-0.0326268
193	0x3e82fc48	0.255831
194	0x3de50855	0.1118323
195	0xbea77307	-0.32704946
196	0x3e4d5ced	0.2005498
197	0xbe93c407	-0.28860494
198	0xbe78eff3	-0.24310283
199	0xbe1ccf0a	-0.15313354
200	0x3e3b8af3	0.18314724
201	0x3e4a1624	0.19735008
202	0xbd9a5b14	-0.07536903
203	0xbe51ea59	-0.20499553
204	0xbe75c63a	-0.24001399
205	0x3ead2b9f	0.33822343
206	0xbe8be49b	-0.2732285
207	0xbe4cc604	-0.19997412
208	0xbe68e368	-0.22742999
209	0x3e4d0647	0.20021926
210	0xbdb4e52f	-0.08832776
211	0xbe099c2a	-0.13438478
212	0xbcc7a7db	-0.024372032
213	0xbe56445e	-0.20924518
214	0xbe90769a	-0.28215486
215	0x3e3ba2d5	0.18323834
216	0x3e574e1d	0.21025892
217	0xbe2749b0	-0.16336703
218	0x3ea69108	0.32532525
219	0x3e1c4304	0.1525994
220	0xbdb9eb89	-0.09078128
221	0x3e808a14	0.25105345
222	0xbe304da7	-0.17217122
223	0x3daa87a4	0.08326653
224	0xbc5befe6	-0.013423895
225	0xbe3503f8	-0.17677295
226	0xbe2d7964	-0.16940838
227	0x3d899ab8	0.067189634
228	0xbd9432e0	-0.07236266
229	0xbe317f0b	-0.1733362
230	0xbe34ecf5	-0.17668517
231	0x3e9f4fe3	0.31115636
232	0xbdcb4656	-0.09925525
233	0xbe59a21b	-0.21253245
234	0xbd14b510	-0.036305487
235	0x3d6f73e9	0.05846015
236	0x3e71f880	0.23629951
237	0xbe1b0df2	-0.15142038
238	0x3db7344e	0.08945523
239	0xbe78205d	-0.24231096
240	0xbe6d40c4	-0.23169237
241	0x3d12964a	0.035787858
242	0xbe02de75	-0.12780173
243	0xbe848e3c	-0.25889766
244	0x3d325fd9	0.04354844
245	0x3e858232	0.26075894
246	0x3e8c9a9f	0.27461717
247	0x3daa4efc	0.08315846
248	0x3e09f513	0.13472395
249	0xbc3d7c9e	-0.011565356
250	0x3db271a8	0.087130845
251	0x3e6306ed	0.2217061
252	0x3e3dd140	0.18536854
253	0xbd5c1e9f	-0.05374014
254	0x3dfe021e	0.124027476
255	0x3e620c44	0.22074991

linear2.weight f4 [3, 256]
0	0x3d8a1008	0.06741339
1	0xbc327d18	-0.0108940825
2	0x3b0180e5	0.0019760665
3	0xbce3229a	-0.02772646
4	0xbd37021d	-0.04467975
5	0xbd4d6426	-0.050144337
6	0xba685952	-0.00088634074
7	0xbdb8e9dd	-0.09028981
8	0xbd871157	-0.06595104
9	0xbd64e1cd	-0.055879403
10	0xbd992a58	-0.074787796
11	0xbab92818	-0.0014126329
12	0x3cd91219	0.026497887
13	0x3c23d079	0.009998434
14	0xbc0aa245	-0.00846154
15	0xbd5f1dae	-0.054471664
16	0xbdaf23d1	-0.08551753
17	0xbc8ba840	-0.017048001
18	0xbdae97aa	-0.085250214
19	0xbd71bb6c	-0.05901663
20	0xbd306540	-0.04306531
21	0xbdc7d24d	-0.097569086
22	0xbd5abd60	-0.05340326
23	0x3bb54040	0.005531341
24	0x3ca5c5bf	0.020235894
25	0x3d00e5c8	0.031469136
26	0xba955164	-0.0011392054
27	0xba967574	-0.0011479096
28	0xbd0b9661	-0.03407896
29	0xbda1e2e9	-0.07904608
30	0x3d326986	0.043557666
31	0xbd1cf811	-0.038322512
32	0xbd9e6f12	-0.07736029
33	0xbd39addd	-0.045331825
34	0x3d84c1f9	0.0648231
35	0xbd6a183d	-0.05715202
36	0x3cbe3418	0.0232182
37	0x3c594302	0.013260605
38	0xbaa03590	-0.0012222994
39	0xbc8f83b4	-0.017518856
40	0x3b78c5f7	0.0037959793
41	0x3ce64039	0.028106796
42	0x3bc902e9	0.00613438
43	0xbd1cbdbb	-0.03826688
44	0xbd664c31	-0.056225006
45	0xbd0d2735	-0.03446122
46	0xbc815f1f	-0.015792428
47	0xbd8c3818	-0.068466365
48	0xbd879632	-0.06620444
49	0x3c84ff73	0.016235089
50	0xbd2f5bff	-0.042812344
51	0xbac35d40	-0.001490511
52	0xbcd0f6ca	-0.025508303
53	0xbc3fa06e	-0.011695964
54	0xbcdaf94a	-0.026730198
55	0xbca83f41	-0.020537974
56	0x3c5129ed	0.012766344
57	0x3c5ecee8	0.013599135
58	0xbcc52cad	-0.024069155
59	0xbd47ed17	-0.04881009
60	0xbca63d4d	-0.020292902
61	0xbd3b0e28	-0.045667797
62	0xbc00d226	-0.007862603
63	0xbbb19e7b	-0.0054205037
64	0xbd54b513	-0.0519305
65	0xbd43e4a3	-0.047825467
66	0xbb9e57ff	-0.0048322673
67	0xbd718c51	-0.058971707
68	0xbc0f5934	-0.008749295
69	0xbd078ecd	-0.03309517
70	0x3c90342a	0.017602999
71	0xbdb1a520	-0.08674073
72	0x3dcffc5c	0.101555556
73	0x3ca0713b	0.019585242
74	0xbcdcc316	-0.026948493
75	0xbc0882fd	-0.008332011
76	0x3c8989d7	0.01678936
77	0x3cda5dcf	0.02665606
78	0x3cb10362	0.021608058
79	0xbcd7e669	-0.026354985
80	0xba1988b7	-0.0005856859
81	0x3baaaf61	0.005208895
82	0xbbe5dbe1	-0.007014737
83	0xbd01f019	-0.031723116
84	0x3d22c34c	0.03973703
85	0x3a564e81	0.000817515
86	0xbd829662	-0.063763395
87	0x3b80e64a	0.0039337026
88	0xbc91a724	-0.017779894
89	0x3c96291c	0.01833015
90	0xbd613dc1	-0.054990534
91	0xbd105ef2	-0.035246797
92	0xbc387660	-0.011258692
93	0xbd650897	-0.055916395
94	0xbcc9f98c	-0.024655126
95	0xbce9d486	-0.028543722
96	0x3c1e8d5d	0.009677258
97	0x3d9d8abe	0.076924786
98	0xbcdd27e5	-0.026996562
99	0xbda39dc6	-0.07989077
100	0xbc81569a	-0.015788365
101	0x3c89a5e8	0.016802743
102	0xbcdb6a32	-0.026784036
103	0xbd02e174	-0.03195329
104	0xbc250d7b	-0.010074015
105	0xbc437d89	-0.011931785
106	0xbcda71cf	-0.026665596
107	0xbd9b4ff1	-0.07583607
108	0xbcf537e7	-0.029933883
109	0xbd8fdedc	-0.07024929
110	0xbbb31ae5	-0.0054658526
111	0xbd2b3a50	-0.041803658
112	0xbd1de6f2	-0.038550325
113	0xbb45d362	-0.0030185808
114	0xbcb2569b	-0.021769812
115	0xbda1e7ed	-0.079055645
116	0xbd460415	-0.048343737
117	0x3dbcda47	0.092213206
118	0x3d7492d0	0.059710324
119	0x3d2f1e4a	0.042753495
120	0xbd7b8027	-0.061401512
121	0xbc4b8408	-0.012421615
122	0xbd091830	-0.033470333
123	0x3d124348	0.035708696
124	0xbcf2918e	-0.029610422
125	0xbd89027a	-0.066899255
126	0xbdaf14fd	-0.08548925
127	0xbda95df3	-0.082698725
128	0xbd422d39	-0.04740641
129	0x3cf9a336	0.030473333
130	0xbc3d429c	-0.011551525
131	0xbc958133	-0.018250084
132	0xbaf0f743	-0.0018384237
133	0xbd8d1362	-0.068884626
134	0xbbfa67e5	-0.0076417797
135	0x3aaf9a3e	0.0013397408
136	0xbdd88c59	-0.10573644
137	0xbd729658	-0.05922541
138	0xbd38ddf4	-0.045133546
139	0xbdc51ba0	-0.0962441
140	0xbd6846b5	-0.056708056
141	0xbdc6bee7	-0.097043805
142	0x3d252fe1	0.040328864
143	0xbaae79ea	-0.001331148
144	0x3bfaf20b	0.0076582483
145	0x3cbb84ea	0.022890527
146	0x3dae6dd8	0.08517045
147	0xbd700b49	-0.058604512
148	0xbc9168e3	-0.01775021
149	0x3be88087	0.0070954
150	0xbd842172	-0.06451692
151	0x3dadcee8	0.0848673
152	0xbcfb5dae	-0.030684318
153	0xbda62834	-0.08113137
154	0xbb166b2c	-0.0022952063
155	0xbcae7cd4	-0.021299757
156	0xbde4bad6	-0.111684486
157	0xbdc2f802	-0.0951996
158	0xbdad62f9	-0.08466143
159	0x3c933cf4	0.0179734
160	0x3bc9eb27	0.0061620655
161	0xbcfc34a9	-0.03078683
162	0xbb46e0c1	-0.0030346366
163	0xbcefa65e	-0.029254135
164	0xbd2c89d7	-0.04212364
165	0xbd51b01f	-0.051193353
166	0xbd2ea459	-0.042637203
167	0xbda182b3	-0.07886257
168	0xbb9e6d47	-0.004834804
169	0xbd531f95	-0.05154379
170	0xbda62b83	-0.08113768
171	0x3cb438c1	0.021999719
172	0xbd1043ae	-0.035220794
173	0xbca9f8f3	-0.020748591
174	0x3bbc5de4	0.0057484973
175	0xbcc0359a	-0.02346306
176	0x3af51140	0.0018697158
177	0xbbad924c	-0.005296981
178	0xbce1c099	-0.027557658
179	0xbdd5ee01	-0.10445786
180	0xbc8689b4	-0.016423084
181	0xbdad9d59	-0.08477277
182	0xbd4bcad6	-0.049753986
183	0xbbba3789	-0.00568289
184	0xbb5ee7c2	-0.003401265
185	0xbcf4d190	-0.029885083
186	0xbd802aef	-0.06258189
187	0xbdb92de2	-0.090419546
188	0x3cbcfacb	0.023068806
189	0x3d19314c	0.03740053
190	0xbc9a5752	-0.018840466
191	0x3d12dc6e	0.03585475
192	0xbd953945	-0.07286314
193	0xbd162b3e	-0.036662333
194	0xbd93e9f7	-0.0722236
195	0xbbdcfd6b	-0.006744077
196	0xbb066b7c	-0.0020510843
197	0xbd7d4698	-0.0618349
198	0x3d08f076	0.033432446
199	0xbd130966	-0.035897635
200	0xbdc66a9f	-0.09688305
201	0xbce60638	-0.028079137
202	0xbd500676	-0.05078741
203	0x3cc6588e	0.024212148
204	0x3d1772fc	0.036974892
205	0xbda1d807	-0.07902532
206	0x3d5eb1c4	0.05436875
207	0x3c612c96	0.01374354
208	0x3c89f7a1	0.016841711
209	0xbda4db4b	-0.08049639
210	0xbcc63441	-0.024194838
211	0xba308e4d	-0.00067350717
212	0xbd455535	-0.048176963
213	0xbc19a1e8	-0.00937698
214	0xbb44d367	-0.0030033232
215	0x3d11adf5	0.03556629
216	0xbcdc10ac	-0.026863419
217	0x3dd05fc9	0.101745196
218	0xbcc4242e	-0.023943033
219	0x3d0b01e2	0.033937342
220	0x3daf8d33	0.085718535
221	0xbc23465a	-0.009965504
222	0x3b9a9f5b	0.0047187037
223	0xbdc90244	-0.09814885
224	0x3c772290	0.015083924
225	0xbce0ec19	-0.02745633
226	0x3cdca2c7	0.026933087
227	0x3d2e320a	0.04252819
228	0xbd210c38	-0.039318293
229	0xbd5ac3a0	-0.05340922
230	0xbde29a3f	-0.11064576
231	0xbd171847	-0.036888387
232	0xbd4fca1d	-0.05072986
233	0xbd632bc2	-0.055461653
234	0x3ca81f82	0.020522837
235	0x3c23a62f	0.009988352
236	0xbb85e334	-0.0040859226
237	0xbd10d03d	-0.03535484
238	0xbcf60a97	-0.030034347
239	0xbced40fc	-0.028961651
240	0xbdfab567	-0.12241631
241	0xbd55466b	-0.05206911
242	0xbdda3db1	-0.10656298
243	0xbdff94f2	-0.12479581
244	0xbd435d91	-0.047696654
245	0xbd080eae	-0.033217125
246	0xbd2b7d92	-0.0418678
247	0x3ccc0f47	0.024909629
248	0xbd15c131	-0.036561195
249	0xbe134929	-0.14383377
250	0x3d23253f	0.039830443
251	0xbdacb882	-0.084336296
252	0xbdceb09f	-0.100922816
253	0x3c6b8b42	0.014376463
254	0xbd7e8d0d	-0.062146235
255	0xbd4568aa	-0.04819552

linear2.bias f4 [3]
0	0x3a9252cc	0.0011163591
1	0xbd9e83ce	-0.077399835
2	0xbdc6936b	-0.096960865
