model/model.pth (torch, 16799 bytes, 4 tensors)

linear1.weight f4 [256, 11]
0	0xbe46be3a	-0.19408503
1	0xbd94305c	-0.07235786
2	0x3ce6bb89	0.028165596
3	0x3e5977c8	0.21237099
4	0xbe86a07c	-0.26294315
5	0x3eef5944	0.46747792
6	0xbeffbe80	-0.49950027
7	0xbda73a83	-0.08165457
8	0x3ead1f91	0.33813146
9	0xbed9b74b	-0.42522654
10	0x3f00ed46	0.5036205
11	0xbeffee59	-0.49986532
12	0x3ef87392	0.48525673
13	0xbe37f036	-0.17962727
14	0x3da9e607	0.08295827
15	0x3d4b183a	0.04958365
16	0xbe862f11	-0.26207784
17	0x3e64e9da	0.22354832
18	0xbec16d8e	-0.37778896
19	0xbe9fc7b4	-0.3120705
20	0x3e00e21e	0.12586257
21	0xbea94818	-0.33062816
22	0x3ea042ff	0.31301114
23	0xbecfadb1	-0.40562204
24	0x3e9c212e	0.30494064
25	0xbd8e9661	-0.06962276
26	0xbd97d174	-0.07412997
27	0xbf115247	-0.5676617
28	0xbe717229	-0.23578705
29	0x3da0a89b	0.07844659
30	0x3e6cfb01	0.23142625
31	0xbec75d3c	-0.3893832
32	0x3e773257	0.24140297
33	0xbd697e98	-0.057005495
34	0xbe9286a6	-0.28618354
35	0x3eff7f72	0.4990192
36	0x3eb28ff3	0.3487545
37	0x3e938bea	0.28817683
38	0x3d878cd1	0.066186555
39	0x3d91ab09	0.071127005
40	0xbe6a18a7	-0.22860967
41	0xbec0d68c	-0.37663686
42	0x3e833644	0.2562734
43	0x3dfab56b	0.12241634
44	0xbe87ec01	-0.26547244
45	0x3eb6f067	0.35730287
46	0xbf043501	-0.5164338
47	0xbeb735fb	-0.3578337
48	0x3e1e3eba	0.15453616
49	0xbe88134c	-0.26577222
50	0x3e7d231c	0.24720424
51	0xbe9641f2	-0.29347187
52	0xbe02d487	-0.12776385
53	0x3e9595d3	0.2921587
54	0xbee0cae6	-0.439048
55	0x3b2a2810	0.002596382
56	0xbe55247a	-0.20814696
57	0xbe44939f	-0.19196938
58	0xbe333531	-0.1750076
59	0xbdfccfb4	-0.12344304
60	0xbe120be3	-0.14262347
61	0xbcbb8428	-0.022890165
62	0xbdd08480	-0.10181522
63	0xbabe01cf	-0.0014496389
64	0xbe739e7c	-0.23790926
65	0x3cc9f98d	0.024655128
66	0xbef829b3	-0.48469314
67	0x3ec9da6f	0.39424464
68	0x3dafe6c9	0.08588941
69	0xbc97fa29	-0.018551903
70	0xbdf418b1	-0.11918772
71	0xbf1295b9	-0.5725971
72	0xbf11c43a	-0.5694004
73	0xbef97175	-0.48719373
74	0x3d80d185	0.06289963
75	0xbde6b024	-0.11264065
76	0xbdbe4a25	-0.09291486
77	0xbd1df555	-0.038564045
78	0xbea13906	-0.31488818
79	0x3e16f197	0.14740597
80	0xbdf47a0d	-0.11937342
81	0x3a8f667f	0.001094058
82	0x3d57df12	0.05270297
83	0xbe98feb2	-0.29881817
84	0xbc29f313	-0.010372895
85	0xbe315fdc	-0.17321724
86	0xbe734093	-0.23755102
87	0xbea67b6b	-0.32516035
88	0xbe3d4fc4	-0.1848746
89	0x3e56a27e	0.20960423
90	0x3df8e60c	0.12153253
91	0xbdf4d13b	-0.1195397
92	0xbdd59674	-0.10429087
93	0xbdf3b4aa	-0.11899693
94	0xbde8291d	-0.11335967
95	0x3d91e62d	0.07123981
96	0xbe8be5e3	-0.27323827
97	0xbe098967	-0.13431321
98	0xbe791bc0	-0.24326992
99	0x3e1108b7	0.1416348
100	0x3ef1c58b	0.47221026
101	0x3e716305	0.23572929
102	0xbeb912bc	-0.36147106
103	0xbe8945c0	-0.26811028
104	0xbd26974a	-0.040671624
105	0xbed72821	-0.42022803
106	0x3e008aba	0.1255292
107	0xbd8921d5	-0.06695906
108	0xbe21cb01	-0.15800096
109	0x3ec8067c	0.39067447
110	0xbe8b1a7a	-0.27168638
111	0xbf1d5486	-0.614571
112	0xbdc47988	-0.09593493
113	0xbe8cab02	-0.2747422
114	0x3eb87a8f	0.36031005
115	0xbe751900	-0.23935318
116	0xbe769cf9	-0.24083318
117	0xbecc194f	-0.3986306
118	0x3e75e565	0.24013288
119	0xbee50480	-0.44729996
120	0xbd3b6d54	-0.04575856
121	0xbeba8a81	-0.36433795
122	0xbe6a3a5f	-0.2287383
123	0x3ef7e5f7	0.48417637
124	0x3e3b81ff	0.18311308
125	0x3d40ac88	0.04703954
126	0x3e24602c	0.16052312
127	0x3e6abd0e	0.22923681
128	0xbf0343cf	-0.5127534
129	0xbe01471a	-0.1262478
130	0x3cad55c5	0.021159062
131	0xbe091f98	-0.13390958
132	0x3f116767	0.56798404
133	0xbee8098f	-0.45319793
134	0x3f28bc4d	0.65912324
135	0x3d495654	0.049154595
136	0xbdb28721	-0.0871718
137	0xbe556b76	-0.20841774
138	0xbe62b54d	-0.22139473
139	0xbe21ba59	-0.15793742
140	0x3c022a4c	0.007944655
141	0xbe885e4f	-0.26634452
142	0x3db1c0fb	0.08679386
143	0xbc548b0a	-0.012972603
144	0xbc85cac9	-0.016332047
145	0xbe53751d	-0.20650144
146	0xbea2c4c3	-0.31790742
147	0x3e835a45	0.25654808
148	0xbec362d7	-0.38161346
149	0x3f0c86bf	0.54893106
150	0x3edf4707	0.43608877
151	0xbe70c072	-0.23510912
152	0x3ed72f83	0.42028436
153	0xbf0ba9ff	-0.5455627
154	0x3d0a2008	0.033721954
155	0x3d5f8be7	0.05457678
156	0xbe396d92	-0.18108204
157	0x3c884890	0.016636163
158	0xbe45a064	-0.19299465
159	0xbd431880	-0.047630787
160	0xbe16438d	-0.14674206
161	0xbe29d165	-0.16583784
162	0xbe759670	-0.23983169
163	0xbe10b0e2	-0.14129975
164	0xbe8ca0fc	-0.2746657
165	0x3d813090	0.06308091
166	0xbdec13c8	-0.115272105
167	0xbe6547ee	-0.2239072
168	0x3dd487fd	0.103775
169	0xbdb30302	-0.08740808
170	0xbe2e4694	-0.17019111
171	0xbe8ab909	-0.27094296
172	0x3e2a4f39	0.16631784
173	0x3e052566	0.13002548
174	0x3ceed309	0.029153364
175	0xbe37e10e	-0.17956945
176	0x3ec778f4	0.38959467
177	0xbf3d7857	-0.7401175
178	0x3e99c793	0.30035076
179	0x3e57c330	0.21070552
180	0x3d624b29	0.05524746
181	0x3eea31e6	0.45741194
182	0x3e00a1b6	0.12561688
183	0xbde57caa	-0.112054184
184	0xbe26391b	-0.16232722
185	0x3ecc631f	0.39919373
186	0x3d660c92	0.05616433
187	0xbe3d89ea	-0.18509641
188	0xbd635b85	-0.0555072
189	0xbe8bc525	-0.27298847
190	0x3cfcffda	0.030883718
191	0xbe966cc5	-0.2937986
192	0xbd64e249	-0.055879865
193	0xbe751a3a	-0.23935786
194	0xbe65b457	-0.22432075
195	0xbe197581	-0.1498623
196	0x3ce42f19	0.02785449
197	0xbdab3835	-0.0836033
198	0x3e429f73	0.19006138
199	0x3d4f8453	0.050663304
200	0x3de6d409	0.11270911
201	0xbd099109	-0.033585582
202	0xbd467eec	-0.048460886
203	0x3b5821c3	0.0032979108
204	0xbeaf7d8f	-0.3427548
205	0xbea1ee5d	-0.3162717
206	0xbc04aa89	-0.008097299
207	0xbe9ae383	-0.30251703
208	0xbeb8333f	-0.35976598
209	0x3e980316	0.29689854
210	0x3eedb972	0.46430546
211	0x3df4294a	0.11921938
212	0x3d6e5634	0.05818768
213	0x3d6063e1	0.054782752
214	0xbe8b9649	-0.27263096
215	0xbe095074	-0.13409597
216	0x3e8ec31c	0.27883232
217	0x3e2d273e	0.16909501
218	0x3f1a321e	0.6023272
219	0x3e8983fe	0.26858515
220	0xbd87f322	-0.06638171
221	0x3ce8cd9c	0.028418355
222	0xbe81dd51	-0.25364164
223	0x3e295261	0.16535331
224	0xbdfc5304	-0.123205215
225	0xbdede57e	-0.11616038
226	0xbe05d5c0	-0.1306982
227	0xbe8a3616	-0.2699439
228	0x3db1db18	0.08684367
229	0xbc004612	-0.007829206
230	0xbe8ef23f	-0.27919194
231	0x3d0c272a	0.034217037
232	0xbe935d69	-0.28782204
233	0xbe80768d	-0.25090447
234	0xbdb41eca	-0.08794935
235	0x3cf4747a	0.029840697
236	0xbd13cb84	-0.03608276
237	0xbc9fb188	-0.019493833
238	0xbde41715	-0.11137215
239	0xbe514e5d	-0.2044005
240	0xbd344838	-0.044014186
241	0x3c69c838	0.014268927
242	0x3e10e22e	0.1414878
243	0x3e0170a2	0.12640622
244	0xbed94fcd	-0.42443696
245	0x3ede513d	0.43421355
246	0xbe729d38	-0.23692787
247	0xbea532bc	-0.3226527
248	0xbe1619c4	-0.14658266
249	0xbf1375b3	-0.5760147
250	0xbedc68d5	-0.4304873
251	0xbe8e5028	-0.2779553
252	0x3e8bde14	0.2731787
253	0xbe04cfb6	-0.1296986
254	0xbdcf64be	-0.10126637
255	0x3e499e69	0.19689335

linear1.bias f4 [256]
0	0xbd34af28	-0.044112355
1	0x3cbc584d	0.022991324
2	0xbe937126	-0.28797263
3	0xbe1d017b	-0.15332596
4	0xbd5e0d25	-0.054211754
5	0xbce2a120	-0.027664721
6	0xbeedee31	-0.46470788
7	0xbe51eeea	-0.20501295
8	0xbe2e127c	-0.16999239
9	0xbd43224a	-0.047640122
10	0x3d0e1846	0.034691118
11	0x3efafac8	0.49019456
12	0xbe300e08	-0.17192852
13	0xbd0bf21c	-0.03416644
14	0x3c80d2a5	0.015725443
15	0xbebccb12	-0.3687368
16	0xbed94792	-0.42437416
17	0xbd80761d	-0.06272528
18	0xbe80780f	-0.25091597
19	0x3e1b6f9e	0.15179297
20	0xbea8d52f	-0.32975146
21	0xbe1e099b	-0.15433352
22	0xbe442216	-0.19153628
23	0x3ea70ced	0.3262705
24	0x3e06040a	0.13087478
25	0xbe8f248e	-0.27957577
26	0xbed3eb73	-0.4139057
27	0xbddbad45	-0.10726408
28	0xbe9b6f32	-0.30358273
29	0xbe29ed39	-0.165944
30	0xbddb624c	-0.10712108
31	0xbe46293f	-0.19351672
32	0x3e0e1094	0.13873512
33	0xbcc9e4fb	-0.02464532
34	0x3ee1ffd1	0.44140485
35	0xbe7e83a8	-0.2485491
36	0x3e87ae19	0.26500013
37	0xbebcc10f	-0.36866042
38	0xbe4b18ae	-0.19833633
39	0xbd2671a4	-0.04063572
40	0xbeccd1c2	-0.40003783
41	0xbe9589ac	-0.29206598
42	0xbea489d1	-0.32136396
43	0xbf10b292	-0.56522477
44	0x3d7c356a	0.061574377
45	0xbe86b6c6	-0.2631132
46	0xbea12906	-0.3147661
47	0xbe9425f1	-0.28935197
48	0xbef0d131	-0.470346
49	0xbd8af6aa	-0.06785329
50	0xbd3bfd2d	-0.045895744
51	0x3e830167	0.25587007
52	0x3f0e8da5	0.5568488
53	0xbe057e6d	-0.13036509
54	0xbeb2f11b	-0.34949574
55	0xbe9e3479	-0.30899408
56	0xbdd02783	-0.10163786
57	0xbe728958	-0.23685205
58	0xbeab0ea9	-0.33409622
59	0x3e277ec4	0.16356951
60	0x3f0a4216	0.5400709
61	0xbda72a9a	-0.081624225
62	0xbe951969	-0.2912095
63	0x3cd64196	0.02615432
64	0xbd046ca8	-0.032330185
65	0xbe6bf6ba	-0.23043337
66	0x3d31d79e	0.04341852
67	0xbda90c44	-0.082542926
68	0xbd302cd3	-0.043011498
69	0x3e94c4ec	0.2905649
70	0x3df89b38	0.121389806
71	0xbe3838a3	-0.17990355
72	0x3c36e735	0.0111635225
73	0xbe63a274	-0.2222994
74	0xbe11e134	-0.14246064
75	0x3d433a4c	0.047663018
76	0xbea12c5f	-0.31479165
77	0xbed34bd2	-0.41268784
78	0x3e4b2b0e	0.19840643
79	0xbcd6f7f2	-0.026241276
80	0xbdfda59d	-0.12385104
81	0xbdf33012	-0.11874403
82	0x3db7d60d	0.08976374
83	0xbe78806f	-0.24267744
84	0xbe4fbfd4	-0.2028802
85	0xbd737baf	-0.059444126
86	0xbe29c8a9	-0.16580452
87	0xbeebfca6	-0.46091193
88	0xbe7d829f	-0.24756859
89	0xbebbef2f	-0.3670592
90	0xbf13f688	-0.5779805
91	0x3eb8d259	0.36097983
92	0xbe8685df	-0.2627401
93	0x3d8bd633	0.06827965
94	0xbe4b7a99	-0.19870986
95	0xbeb1c42d	-0.34719983
96	0xbd5e8bc4	-0.05433251
97	0xbd1f18f9	-0.038842175
98	0xbe6bd7ca	-0.23031536
99	0x3f35d1a6	0.71023023
100	0x3d7495e9	0.059713278
101	0x3bec5346	0.0072120754
102	0x3ea353e5	0.31899944
103	0x3e81f14e	0.25379413
104	0xbdf62284	-0.12018302
105	0x3d8a7a9e	0.067616686
106	0xbeeb1836	-0.4591691
107	0xbeda0925	-0.42585102
108	0xbe5f9d20	-0.21837282
109	0x3cace87c	0.021106951
110	0x3e3309c2	0.17484191
111	0xbe436c57	-0.19084297
112	0xbc459496	-0.012059351
113	0xbdf9b664	-0.121929914
114	0xbeaa6da4	-0.33286774
115	0xbe2a252a	-0.1661574
116	0xbd84cffc	-0.06484982
117	0xbc8b2ced	-0.016989196
118	0xbcc1a5eb	-0.023638686
119	0x3e96b312	0.29433495
120	0xbe208f9a	-0.1567978
121	0x3c792754	0.01520713
122	0xbd8ae465	-0.06781844
123	0x3ea9b6a2	0.3314715
124	0x3e88558a	0.2662776
125	0x3d88231d	0.06647322
126	0xbe55aa68	-0.20865786
127	0xbe9c5dee	-0.30540413
128	0xbed8b22e	-0.4232344
129	0xbf2774ce	-0.65412605
130	0x3ca84a9f	0.020543395
131	0xbeddc09f	-0.4331102
132	0xbd117655	-0.03551324
133	0xbe9e7507	-0.3094866
134	0xbe1861ef	-0.14881109
135	0x3e8fa86c	0.28058183
136	0xbde5bcc6	-0.11217646
137	0xbde9e7bc	-0.11421153
138	0x3e1e79aa	0.15476099
139	0x3e83dc7c	0.25754154
140	0xbe8dfe95	-0.27733293
141	0xbe9839b3	-0.2973152
142	0xbe36bc8d	-0.17845364
143	0xbe516954	-0.20450336
144	0xbe6bbff1	-0.23022439
145	0x3c9f0591	0.019411834
146	0x3dc3e70a	0.095655516
147	0xbe69f7eb	-0.2284848
148	0xbecf4e61	-0.40489486
149	0x3d9a2249	0.075260706
150	0xbe4f63fc	-0.20252985
151	0xbec027a3	-0.3753024
152	0x3d0deb3e	0.034648173
153	0x3e8e6ed7	0.2781894
154	0xbe4ff3c2	-0.2030783
155	0xbe95265b	-0.29130825
156	0xbd15f991	-0.03661496
157	0xbda63754	-0.08116022
158	0xbe33d67e	-0.17562291
159	0x3f5650a7	0.83716816
160	0xbe4f7e1e	-0.20262954
161	0xbdbc328c	-0.091893286
162	0x3eadb98e	0.3393063
163	0x3dac9a52	0.08427872
164	0xbe8f17db	-0.27947888
165	0x3f23f597	0.64046615
166	0x3ca5afb7	0.020225389
167	0xbe8de085	-0.27710357
168	0x3d83941b	0.06424733
169	0xbeabe229	-0.33570984
170	0x3d6aaffe	0.057296745
171	0x3d770f49	0.06031731
172	0xbe229501	-0.15877153
173	0x3ecbf949	0.39838627
174	0xbe544b8f	-0.20731948
175	0x3db0b265	0.08627776
176	0x3ea1dede	0.31615347
177	0x3e1ed046	0.15509138
178	0x3e59042a	0.21192995
179	0xbe80ccd0	-0.2515626
180	0x3f11b20a	0.5691229
181	0x3c8bf0a2	0.017082516
182	0xbe9aa1e0	-0.30201626
183	0xbd99cfd8	-0.07510346
184	0xbea127fd	-0.3147582
185	0xbeb6c01a	-0.35693437
186	0x3d166e2a	0.036726154
187	0xbf0d6b48	-0.55241823
188	0xbe563670	-0.20919204
189	0x3e57bb6b	0.21067588
190	0xbe174e02	-0.14775851
191	0xbdbd1f18	-0.09234446
192	0xbdbcc1b1	-0.09216631
193	0xbdad000e	-0.08447276
194	0xbdc7c7ac	-0.09754881
195	0xbe8333fe	-0.25625604
196	0x3eab739e	0.33486646
197	0xbe83558b	-0.25651202
198	0xbe65f8a4	-0.2245813
199	0xbe970190	-0.2949338
200	0xbe8a7e28	-0.27049375
201	0x3e834513	0.25638637
202	0x3e80812f	0.2509856
203	0xbf037069	-0.513434
204	0xbe48dbfa	-0.19615164
205	0x3ed78979	0.4209707
206	0xbddc9684	-0.10770896
207	0xbd96d096	-0.07364003
208	0xbd24c8ed	-0.04023068
209	0x3c9baa79	0.019002186
210	0xbc4fa0b2	-0.01267259
211	0xbecb071e	-0.39653867
212	0x3dd465b2	0.10370959
213	0xbe2a0e47	-0.16607009
214	0x3eb14c19	0.3462837
215	0xbe51c15a	-0.20483914
216	0xbdbeb2ab	-0.09311422
217	0x3df253d9	0.11832399
218	0xbe92fe16	-0.28709477
219	0xbe4b5e82	-0.1986027
220	0x3db710c4	0.08938745
221	0xbdb8f48b	-0.09031018
222	0xbe2bba08	-0.16770184
223	0x3ecab36c	0.39590013
224	0xbe59f0bd	-0.2128324
225	0x3d05b41d	0.032642473
226	0xbe47c865	-0.19510038
227	0xbdd398cc	-0.10331878
228	0xbdb80754	-0.08985773
229	0xbe123e0d	-0.14281483
230	0x3db2344f	0.08701383
231	0xbdf3a0fa	-0.11895938
232	0xbeeaf4aa	-0.4588979
233	0xbdbc1b3f	-0.09184884
234	0x3ddecd78	0.10879034
235	0xbe608699	-0.21926345
236	0xbd55f856	-0.052238785
237	0xbe42fc81	-0.19041635
238	0x3de8e166	0.11371116
239	0xbdf27b9c	-0.11839983
240	0xbe9e00b5	-0.30859914
241	0x3eb72c8f	0.35776183
242	0xbe80bb10	-0.25142717
243	0xbe804d57	-0.25059006
244	0x3dd35709	0.10319335
245	0xbe493258	-0.19648111
246	0x3e5c1b46	0.21494779
247	0xbdbcecc4	-0.09224847
248	0x3dbeb08c	0.093110174
249	0xbd870944	-0.06593564
250	0xbd941b49	-0.07231767
251	0xbe5d8d9a	-0.21636048
252	0xbe16e34e	-0.14735147
253	0x3c7f0c8d	0.015566957
254	0xbc936f08	-0.01799728
255	0xbe93c6aa	-0.28862506

linear2.weight f4 [3, 256]
0	0xbe9656ce	-0.29363102
1	0x3b0a4c03	0.0021102435
2	0x3d4d7e9b	0.05016957
3	0x3d68e986	0.05686333
4	0xbbec15ed	-0.007204762
5	0x3ca65c04	0.020307548
6	0x3d9260fb	0.07147404
7	0xbd30153f	-0.04298901
8	0xbb5d99a2	-0.0033813496
9	0xbc31855f	-0.010835021
10	0x3e68d74f	0.22738384
11	0x3e9997f6	0.2999875
12	0xbe2413c4	-0.16023165
13	0xbf14966a	-0.58042014
14	0xbbe6414a	-0.007026826
15	0xbcbb6b2a	-0.022878248
16	0x3e126b6a	0.14298788
17	0xbadfa6a4	-0.0017063213
18	0xbd56bb11	-0.052424494
19	0xbcd1c725	-0.025607655
20	0x3e37fc64	0.17967373
21	0xbd2eb51c	-0.042653188
22	0xbddfdf54	-0.10931268
23	0x3eb221af	0.34791324
24	0x3e7b76fd	0.24557109
25	0x3e461c12	0.19346645
26	0x3b53facf	0.0032345538
27	0xbe490293	-0.19629888
28	0x3e1fcf22	0.15606359
29	0x3eac4c53	0.3365198
30	0xbd76b3ee	-0.060230188
31	0xbbdefd99	-0.0068051335
32	0x3e6ce87a	0.23135558
33	0xbea31001	-0.31848148
34	0x3ee599b2	0.44843823
35	0x3cf1067e	0.029422041
36	0x3eac0183	0.33594903
37	0x3c4b8901	0.012422801
38	0xbe6082f2	-0.21924952
39	0x3d609d94	0.05483778
40	0xbb6fdedd	-0.0036601343
41	0xbd9e0fdb	-0.07717868
42	0x3d656acc	0.056010053
43	0xbee7570a	-0.45183593
44	0x3e559ab3	0.20859794
45	0xbd5bf140	-0.05369687
46	0x3e259ca7	0.1617304
47	0x3df76b7c	0.12081048
48	0x3cd0016d	0.025391305
49	0xbc7cd8d1	-0.015432552
50	0x3e9baf38	0.3040712
51	0x3e7480bb	0.23877232
52	0x3ed2671e	0.41094297
53	0xbd9b1741	-0.07572795
54	0xbc38eb81	-0.011286617
55	0xbcf6b5a4	-0.03011591
56	0x3d8911d5	0.06692854
57	0xbe8bde25	-0.2731792
58	0xbe7f89c7	-0.24954902
59	0x3ee71105	0.45130172
60	0x3dfb3527	0.122659974
61	0x3da20527	0.07911139
62	0xbbffb572	-0.0078036124
63	0xbce401e6	-0.027832936
64	0x3dbf2aa1	0.09334303
65	0x3c56a31f	0.013100415
66	0xbe127017	-0.14300571
67	0xbdf3cbb9	-0.119040914
68	0xbec09f4e	-0.3762154
69	0x3e225066	0.15850982
70	0x3e343c9e	0.17601249
71	0x3b9d1953	0.0047942786
72	0xbd87765b	-0.066143714
73	0xbd1da0ca	-0.03848342
74	0xbe482d7e	-0.19548604
75	0x3cf9d9eb	0.03049942
76	0xbbaeeabe	-0.005338042
77	0xbe5528cf	-0.20816348
78	0x3e46a363	0.19398265
79	0x3cedc2f5	0.029023627
80	0x3c1c4afd	0.009539363
81	0x3d1657e0	0.036704898
82	0x3e88ed26	0.2674343
83	0xbd48aa1f	-0.048990365
84	0xbcf631f3	-0.030053115
85	0x3edb75e9	0.42863396
86	0x3e25a934	0.16177827
87	0x3c30ebd5	0.010798414
88	0xbc2c9d34	-0.010535527
89	0xbec81c1e	-0.39083952
90	0xbce55661	-0.02799529
91	0x3eee9be4	0.4660331
92	0x3d3e92d8	0.04652676
93	0x3ec0d906	0.37665576
94	0x3d4afd32	0.049557872
95	0xbe206602	-0.15663913
96	0xbe1ab126	-0.1510664
97	0xbd9d3254	-0.07675615
98	0x3ba3c1a4	0.004997449
99	0x3eb74901	0.35797885
100	0xbe233989	-0.15939917
101	0xbe0e0920	-0.13870668
102	0x3dd4341c	0.103615016
103	0x3edfa654	0.43681586
104	0xbe981517	-0.2970359
105	0x3e194875	0.14969046
106	0x3c237659	0.009976947
107	0xbe173b4b	-0.14768712
108	0xbcbcb71c	-0.023036532
109	0x3db656a9	0.08903248
110	0x3ec3c92b	0.38239416
111	0xbe2cd458	-0.16877878
112	0x3d3c6b07	0.046000507
113	0xbe63c381	-0.22242548
114	0xbd3c34ad	-0.045948673
115	0x3bb7ba16	0.0056069
116	0x3d949566	0.07255058
117	0xbe8fc616	-0.28080815
118	0xbcd40c0e	-0.025884654
119	0xbea74c67	-0.32675478
120	0xbd0a8e0f	-0.033826884
121	0x3e2c89bb	0.16849415
122	0x3e143f58	0.14477289
123	0x3e0f0b1e	0.13969085
124	0x3db3fbf7	0.08788293
125	0x3e2687f2	0.16262797
126	0xbdf8bed5	-0.12145773
127	0xbb2f8605	-0.0026782763
128	0xbbc53a23	-0.0060188933
129	0x3ea6e7ad	0.3259863
130	0x3e848560	0.25883007
131	0xbeb9bb66	-0.36275786
132	0x3d132bc4	0.03593041
133	0x3c3718a7	0.011175311
134	0xbe5396ee	-0.20663044
135	0x3eeb5943	0.4596654
136	0x3e3da646	0.1852046
137	0xbbd6cc90	-0.0065551475
138	0x3e36568d	0.17806454
139	0x3e7b92ed	0.24567766
140	0x3c8363a2	0.01603872
141	0x3d62c9c1	0.05536819
142	0xbd80fac7	-0.06297832
143	0xbe821001	-0.25402835
144	0x3b7d9db4	0.0038698735
145	0xbe92518f	-0.2857785
146	0x3d9e9ff5	0.07745353
147	0xbddad3ad	-0.10684905
148	0x3cbcce2f	0.023047535
149	0xbf1fed7a	-0.62471735
150	0x3d7689c6	0.060189985
151	0x3ba84374	0.005134994
152	0x3eae9773	0.34099922
153	0x3e106bc2	0.14103606
154	0xbcb456d8	-0.022014067
155	0x3c1fccd8	0.009753428
156	0xbd11e34f	-0.03561717
157	0xbdc0e318	-0.09418315
158	0xbc82867e	-0.015933271
159	0x3f56fb53	0.8397724
160	0xbd9291d3	-0.0715672
161	0xbd0bdf55	-0.034148533
162	0x3f075f81	0.528801
163	0x3e88ad36	0.2669465
164	0xbe07178e	-0.13192579
165	0x3e981dd3	0.29710254
166	0xbe53df06	-0.20690545
167	0xbe5b7bfe	-0.21434018
168	0x3e15e06e	0.14636394
169	0xbbc7578b	-0.006083434
170	0x3d4b7a73	0.049677324
171	0x3d6476bf	0.055777308
172	0xbe89e12b	-0.26929602
173	0x3eea9d2c	0.45823038
174	0xbe8d1486	-0.2755472
175	0x3d3f3bea	0.046687998
176	0xbcf7adb8	-0.030234203
177	0x3c92488c	0.017856859
178	0x3ec8f5be	0.39249986
179	0xbdf58870	-0.11988914
180	0x3ec86328	0.3913815
181	0x3ed9fb95	0.42574754
182	0x3c50826b	0.012726407
183	0xbe3e17dc	-0.18563789
184	0xbddcafca	-0.107757166
185	0x3dbb998a	0.091601446
186	0xbb1c9eea	-0.002389843
187	0x3c7b88b4	0.015352417
188	0x3c928179	0.017884003
189	0x3de60376	0.11231129
190	0xbe14dbe5	-0.14537008
191	0xbcd195a9	-0.025584059
192	0x3b0184bb	0.0019762951
193	0x3a4c14fb	0.0007785109
194	0x3e2bd9d5	0.16782315
195	0x3c89b738	0.016810998
196	0x3e32ee1a	0.17473641
197	0x3c05d0dd	0.008167473
198	0x3e90e0b1	0.28296426
199	0x3c4976c7	0.012296385
200	0xbe6e2d2d	-0.2325942
201	0x3eb150bb	0.34631905
202	0x3e5ce729	0.21572556
203	0xbe5f6a70	-0.21817946
204	0xbe9333ef	-0.2875056
205	0x3e21620f	0.15760063
206	0xbd4ddcc2	-0.05025936
207	0xbd2e9c9a	-0.042629816
208	0xbe42b6a6	-0.19014987
209	0x3d315bc3	0.0433004
210	0xbe85deb4	-0.26146472
211	0x3ca59a24	0.020215102
212	0x3d977488	0.073952734
213	0xbdda25db	-0.106517516
214	0x3e9743a5	0.29543796
215	0xbe0b7570	-0.13619018
216	0xbd66b646	-0.056326173
217	0x3bf638ae	0.007514081
218	0xbda45646	-0.08024268
219	0xbc89d1f2	-0.016823743
220	0xbe933ae1	-0.2875586
221	0xbc8724e9	-0.016497092
222	0xbcb4326d	-0.021996701
223	0x3d3d6309	0.046237025
224	0x3e86e8bb	0.26349434
225	0xbe8ae74e	-0.27129596
226	0x3ce82b42	0.02834094
227	0xbdca9030	-0.09890783
228	0x3eb03491	0.34415105
229	0x3c7f94a0	0.0155994
230	0xbdba1731	-0.09086455
231	0x3d34f258	0.04417643
232	0x3d63fa89	0.05565885
233	0xbc5d4adc	-0.013506617
234	0x3ea0f6b7	0.31438228
235	0xbe7c2833	-0.2462471
236	0xbe185188	-0.14874852
237	0x3d522bf5	0.051311452
238	0xbd39a221	-0.045320634
239	0xbd9c61bc	-0.07635829
240	0x3ca87870	0.020565242
241	0x3e1a9433	0.15095596
242	0x3b8e25f9	0.004338023
243	0xbece5204	-0.40296948
244	0x3e47870a	0.19485107
245	0xbd93b018	-0.072113216
246	0x3e3bb403	0.18330388
247	0xbd98aee1	-0.074552305
248	0x3e61adff	0.2203903
249	0xbe8bef40	-0.2733097
250	0x3e1a69f8	0.15079486
251	0xbbc24398	-0.005928468
252	0x3e5783d3	0.2104638
253	0xbe9cc7ca	-0.30621177
254	0x3db5afbd	0.0887141
255	0xbe2334d8	-0.15938127

linear2.bias f4 [3]
0	0x3ea6c56b	0.32572493
1	0xbe85da77	-0.26143238
2	0xbe15ae70	-0.14617324
