model/model.pth (torch, 16799 bytes, 4 tensors)

linear1.weight f4 [256, 11]
0	0xbe87361b	-0.26408467
1	0xbddff50a	-0.10935409
2	0xbe8ad17a	-0.27112943
3	0xbd01c358	-0.031680435
4	0x3e00866a	0.12551275
5	0xbd81df12	-0.063413754
6	0x3e35e1c2	0.17761901
7	0xbc7c3ba0	-0.015395075
8	0xbdc65b3e	-0.09685372
9	0xbe05b2aa	-0.13056436
10	0x3dca3fb4	0.09875432
11	0x3e63b935	0.2223862
12	0x3e8c409b	0.2739304
13	0x3e89a4f0	0.2688365
14	0xbe6e5463	-0.23274378
15	0xbe7f2d6c	-0.24919671
16	0x3e6d12c6	0.23151693
17	0x3e1eb798	0.15499723
18	0x3d84c1f1	0.06482304
19	0x3e8136c6	0.252371
20	0x3d8cfb04	0.06883815
21	0xbd9eb62b	-0.077495895
22	0x3daef927	0.08543616
23	0xbacdd158	-0.0015702648
24	0x3e1ba2a5	0.15198763
25	0xbe98c7fe	-0.29840082
26	0x3ddc61bc	0.10760829
27	0x3d7b1ae5	0.061304945
28	0x3e5cd3d4	0.21565181
29	0xbd7d059f	-0.06177294
30	0xbd73d167	-0.059525874
31	0xbe545b57	-0.20737968
32	0x3d71b5a4	0.059011117
33	0x3e98b846	0.2982809
34	0xbe828f50	-0.25499964
35	0xbd8e98f1	-0.06962765
36	0x3e95084a	0.29107887
37	0x3e9f362a	0.3109601
38	0x3e070676	0.13186058
39	0x3dcaf4fa	0.09910007
40	0x3d3f0f05	0.046645183
41	0x3e6d308d	0.23163052
42	0xbd71d411	-0.059040133
43	0xbe956621	-0.2917948
44	0x3e2740ff	0.16333388
45	0xbe19f15c	-0.15033478
46	0xbcab3c5d	-0.020902807
47	0xbe66123a	-0.2246789
48	0xbc9a070f	-0.018802194
49	0x3e0c57c2	0.13705352
50	0xbe54ea30	-0.2079246
51	0xbe71d36c	-0.23615807
52	0x3cc080b0	0.023498863
53	0x3e084e62	0.1331115
54	0xbd93275b	-0.07185241
55	0xbda578a3	-0.0807965
56	0x3db6b82c	0.08921847
57	0xbe4e69fb	-0.20157616
58	0xbeacc25e	-0.3374204
59	0x3e3fc190	0.18726182
60	0xbe1d53bc	-0.15363973
61	0x3e4eb39e	0.20185706
62	0xbe563f0d	-0.2092249
63	0x3e01f530	0.12691188
64	0xbca544f1	-0.020174475
65	0x3e35bd5a	0.17748013
66	0x3e94a1df	0.29029748
67	0xbe267e5a	-0.16259137
68	0x3d89b5be	0.06724118
69	0xbdb24c98	-0.08706015
70	0xbdb10223	-0.08642986
71	0x3da050ba	0.07827897
72	0xbe39e3ca	-0.18153301
73	0x3e147046	0.14495954
74	0xbe66d8c3	-0.22543626
75	0x3e63e1bd	0.22254081
76	0xbce2a3f1	-0.027666064
77	0x3ddc00d5	0.10742346
78	0x3d576d70	0.052594602
79	0x3e82b72b	0.2553037
80	0xbd0e1ae1	-0.034693602
81	0xbdf5ca0b	-0.12001427
82	0x3e38cbf9	0.1804656
83	0x3cbf7667	0.023371888
84	0x3d11176e	0.035422735
85	0xbe2f0bf9	-0.17094411
86	0x3e0834d2	0.133014
87	0xbdcb7217	-0.0993387
88	0x3e87bf82	0.26513296
89	0x3e759201	0.23981477
90	0x3e995360	0.29946423
91	0xbe623683	-0.22091107
92	0x3d766022	0.060150273
93	0xbe900443	-0.2812825
94	0x3e51b743	0.20480065
95	0x3dbaf055	0.09127871
96	0x3ba5f730	0.0050648674
97	0x3e3b8d54	0.18315631
98	0x3b6fca20	0.0036588982
99	0xbd2256dd	-0.03963362
100	0x3da8edf7	0.08248513
101	0xbe50be1e	-0.20385024
102	0xbe4a005c	-0.197267
103	0x3e517fda	0.20458928
104	0xbe30c529	-0.1726271
105	0x3de15876	0.11003201
106	0xbdf25943	-0.118334316
107	0xbdeb1f2c	-0.11480555
108	0x3c099aff	0.00839877
109	0xbe2c1440	-0.168046
110	0x3e2f9938	0.17148292
111	0x3bc5b8e1	0.006034002
112	0xbd76379a	-0.06011162
113	0xbd0dbfdb	-0.034606796
114	0xbe28f0d0	-0.16498113
115	0x3e44e6ab	0.19228618
116	0xbe19494c	-0.14969367
117	0xbe2eb211	-0.17060114
118	0x3d650b81	0.055919174
119	0x3e269d92	0.16271046
120	0x3e79f35e	0.24409243
121	0xbe662da5	-0.2247835
122	0xbe7b516c	-0.24542779
123	0xbd88433f	-0.06653451
124	0xbe5dabbe	-0.21647546
125	0x3e64fece	0.22362825
126	0x3cf31854	0.029674686
127	0xbdbaf69c	-0.09129068
128	0xbe28bc19	-0.16478004
129	0xbd7d0381	-0.06177092
130	0xbe7ad96a	-0.24497
131	0xbe5f2482	-0.2179127
132	0xbd216ed2	-0.039412327
133	0x3dc5d6d2	0.09660114
134	0x3e15b260	0.14618826
135	0xbe6c8995	-0.23099358
136	0xbdab8556	-0.08375041
137	0x3da08e6c	0.07839665
138	0xbe683ba2	-0.22678998
139	0xbe7c9c76	-0.2466906
140	0x3daffd3b	0.08593222
141	0xbeb05885	-0.34442535
142	0x3e235443	0.15950112
143	0x3d41b9f4	0.04729648
144	0x3dd92f76	0.106047556
145	0xbe75ea11	-0.2401507
146	0x3d9d89bd	0.07692287
147	0xbd87527f	-0.06607532
148	0x3d857e74	0.0651826
149	0x3dd7413b	0.105104886
150	0xbe8bf121	-0.27332404
151	0xbdb12757	-0.086500816
152	0xbeb22543	-0.34794053
153	0x3e86fe59	0.26365927
154	0xbdb5a7f5	-0.08869926
155	0xbca8172f	-0.020518867
156	0x3e789d88	0.24278843
157	0x3e4cdf6a	0.200071
158	0x3e162bff	0.1466522
159	0xbbe9392f	-0.0071174125
160	0xbddf9662	-0.10917355
161	0xbe840e24	-0.25792038
162	0x3e503b45	0.2033511
163	0xbda0da87	-0.07854181
164	0x3d869b3d	0.06572578
165	0xbe47acd4	-0.19499522
166	0x3e603a77	0.21897303
167	0xbdad07ba	-0.08448739
168	0xbe714954	-0.23563129
169	0x3e061630	0.13094401
170	0x3b273b41	0.0025517496
171	0xbe8ab076	-0.27087754
172	0xbe4a2093	-0.19738989
173	0x3d7a0e0e	0.06104856
174	0x3e7b1e15	0.24523194
175	0xbd5e8939	-0.054330084
176	0xbd5f1d24	-0.05447115
177	0xbe21bb9d	-0.15794225
178	0xba02cbd4	-0.0004989479
179	0xbd03d450	-0.0321849
180	0xbe7e24de	-0.24818751
181	0xbd15c585	-0.036565322
182	0xbda92346	-0.08258681
183	0x3e7e95de	0.24861857
184	0xbe92c7c6	-0.2866804
185	0xbdc45705	-0.0958691
186	0x3ea0581c	0.31317222
187	0x3e83b112	0.2572103
188	0xbd44f588	-0.04808572
189	0x3e037700	0.12838364
190	0xbcc6cb3a	-0.024266828
191	0xbd535033	-0.051590156
192	0xbe50cf88	-0.20391667
193	0x3d4cb48d	0.049976874
194	0x3dc1cbc7	0.094626956
195	0xbe6827d0	-0.22671437
196	0x3e539b21	0.20664646
197	0xbd711918	-0.058861822
198	0x3e69fa29	0.22849335
199	0x3ea321d8	0.31861758
200	0xbe80398b	-0.25043902
201	0xbce03652	-0.027369652
202	0x3dd3e758	0.1034686
203	0x3e0ec513	0.13942365
204	0x3d927d79	0.07152838
205	0x3cd3613b	0.025803199
206	0x3bff0e91	0.007783719
207	0xbe3a3da4	-0.18187577
208	0x3dceb2e8	0.100927174
209	0xbe1dea9c	-0.15421528
210	0xbc5fc978	-0.013658874
211	0xbde19b74	-0.110159785
212	0xbe29d727	-0.1658598
213	0xbcabb549	-0.020960467
214	0x3e274a72	0.16336992
215	0xbd95bfef	-0.07311999
216	0x3daa044b	0.083016
217	0xbe5a1304	-0.21296316
218	0x3ce4608d	0.02787807
219	0xbe8427bf	-0.25811574
220	0xbdc204f1	-0.09473599
221	0xbe98d2ba	-0.29848272
222	0xbe681c59	-0.22667064
223	0xbe5fe2cd	-0.21863861
224	0xbe948a58	-0.29011798
225	0x3e642711	0.22280528
226	0xbdd92d08	-0.10604292
227	0x3c992391	0.018693717
228	0x3db56da4	0.08858803
229	0xbe03de2b	-0.12877719
230	0x3df34e87	0.11880212
231	0x3e567f4b	0.20946996
232	0x3dbea0f1	0.09308041
233	0x3c0e3bb5	0.008681227
234	0xbe8c290c	-0.27375066
235	0xbe3b9a22	-0.18320516
236	0xbe452127	-0.19250928
237	0x3db80592	0.089854375
238	0x3d189b71	0.037257615
239	0xbdf3b061	-0.11898876
240	0x3c630aa4	0.013857517
241	0x3e691018	0.22760046
242	0xbea63b8d	-0.3246731
243	0xbe12cd19	-0.14336051
244	0x3c0ec361	0.008713574
245	0xbcaa483c	-0.020786397
246	0x3e3d276d	0.18472071
247	0xbe357e16	-0.17723879
248	0x3d930eb4	0.07180539
249	0x3d50af04	0.050948158
250	0xbe62ccbd	-0.22148414
251	0xbe8bff47	-0.273432
252	0xbe17a5b6	-0.14809307
253	0xbe2918c2	-0.1651335
254	0x3c8e4070	0.01736471
255	0xbe8b3b28	-0.2719357

linear1.bias f4 [256]
0	0xbe9356d6	-0.28777188
1	0xbd21da9e	-0.03951513
2	0xbcd0b359	-0.025476145
3	0xbd9a5d7d	-0.07537363
4	0xbcb1169a	-0.021617223
5	0x3e1836b2	0.14864615
6	0x3e46ef1d	0.19427152
7	0xbe108c0b	-0.14115922
8	0x3eabffdc	0.33593643
9	0xbdc98547	-0.09839874
10	0x3dd24fc3	0.102691196
11	0x3da54ef4	0.080717
12	0x3e4379e8	0.19089472
13	0x3e6c3066	0.23065338
14	0xbd438fb7	-0.04774448
15	0xbe17984d	-0.14804192
16	0xbe54244f	-0.20716976
17	0xbe51f5f1	-0.20503975
18	0x3e513cce	0.20433351
19	0x3dd45e14	0.103695065
20	0xbe5101e1	-0.20410873
21	0x3d430b89	0.047618423
22	0x3ddf045e	0.10889505
23	0xbe1d05d4	-0.15334255
24	0xbe3a8302	-0.18214038
25	0x3e885731	0.26629022
26	0x3e810836	0.25201577
27	0x3db23369	0.08701212
28	0xbe40a57a	-0.18813124
29	0xbe548621	-0.20754291
30	0xbe1666ce	-0.14687654
31	0xbdbfeb40	-0.09371042
32	0xbe83a4ed	-0.25711766
33	0xbdcc8412	-0.09986128
34	0x3e880d15	0.2657248
35	0x3e21381a	0.15744057
36	0xbd957227	-0.072971635
37	0x3df51f19	0.11968822
38	0x3e8c4559	0.27396658
39	0x3e79bed3	0.243892
40	0xbe8ecc1a	-0.27890092
41	0xbe4d7f36	-0.20068058
42	0xbe825a9d	-0.25459757
43	0x3e2f0bf1	0.17094399
44	0xbe6c5310	-0.23078561
45	0x3e11dbff	0.14244078
46	0x3e61855e	0.22023532
47	0xbcde002d	-0.027099693
48	0x3e7f3c23	0.24925284
49	0x3c1babf6	0.009501448
50	0xbe3380e2	-0.17529634
51	0xbe9fdd21	-0.31223395
52	0x3e37d571	0.17952515
53	0x3d49e684	0.049292102
54	0x3d39a162	0.045319922
55	0x3c52dc7f	0.012869953
56	0x3e0c95c0	0.13729
57	0xbe24df18	-0.16100729
58	0xbe7af0c6	-0.2450591
59	0x3e3a6d1e	0.18205687
60	0xbe601cc8	-0.21885979
61	0xbdca9f32	-0.09893645
62	0x3e52af65	0.2057472
63	0xbdc85403	-0.09781649
64	0x3c86affb	0.016441336
65	0xbd4402b8	-0.047854155
66	0x3c933da3	0.017973727
67	0xbe6080e4	-0.21924168
68	0xbd97bf84	-0.074095756
69	0x3dfa3b88	0.12218386
70	0x3e2593e5	0.16169699
71	0xbdc7b27e	-0.097508416
72	0xbe86dbe5	-0.2633964
73	0x3e2291b6	0.15875897
74	0xbcc2d3d9	-0.023782657
75	0x3e597c44	0.2123881
76	0xbe3a5567	-0.18196641
77	0xbe036de9	-0.12834896
78	0xbe355f59	-0.17712153
79	0xbe1992a6	-0.14997348
80	0xbe858e90	-0.2608533
81	0x3e6d5ba2	0.23179486
82	0x3e2fb538	0.17158973
83	0x3e45e2a5	0.1932474
84	0xbe84f1b6	-0.2596566
85	0xbe9e6591	-0.30936864
86	0xbe32c678	-0.17458522
87	0xbe821e20	-0.2541361
88	0xbdac0554	-0.08399454
89	0x3eb3f0bc	0.35144603
90	0xbe9bc35d	-0.30422488
91	0x3de9c92b	0.11415323
92	0xbdcfa954	-0.10139719
93	0x3e39f7dc	0.18160957
94	0x3dd56349	0.10419328
95	0xbd908e5c	-0.07058403
96	0x3e491be4	0.19639546
97	0xbe4e0744	-0.20119959
98	0xbcea3eb6	-0.028594356
99	0xbd4382ee	-0.047732286
100	0xbdc16330	-0.09442747
101	0x3dbd25ac	0.09235701
102	0x3e5525f2	0.20815256
103	0xbe9dd9cd	-0.3083023
104	0x3d8b4b9e	0.06801532
105	0x3e04a402	0.12953189
106	0x3e8309a4	0.25593293
107	0x3e0fdf03	0.14049916
108	0xbd9072f2	-0.07053174
109	0x3e064d55	0.13115437
110	0xbe82f5c4	-0.2557813
111	0xbe66f0cc	-0.22552794
112	0x3df47d64	0.11937979
113	0x3e3b8c95	0.18315347
114	0x3c9db506	0.019251358
115	0x3e4ea87f	0.20181464
116	0xbe541d63	-0.20714335
117	0xbc3460d7	-0.011009417
118	0x3d0d4ae8	0.034495264
119	0x3e2dfc94	0.16990882
120	0xbe4fffb5	-0.20312388
121	0x3c5a298c	0.01331557
122	0x3db9f105	0.09079174
123	0xbe12d809	-0.14340223
124	0x3e47e44e	0.19520685
125	0x3e9c9ba4	0.30587494
126	0x3ddb510c	0.10708818
127	0x3df47d10	0.11937916
128	0xbe6f2c0c	-0.23356646
129	0x3d4be692	0.049780436
130	0xbd3634ee	-0.04448407
131	0xbe7f8760	-0.24953985
132	0xbe909c3f	-0.28244206
133	0xbe28ab24	-0.16471535
134	0xbe171637	-0.14754568
135	0x3b857488	0.0040727295
136	0x3deff862	0.11717297
137	0x3e0382c1	0.12842847
138	0xbc949a9a	-0.018140126
139	0xbe807bd1	-0.25094464
140	0xbe012037	-0.12609945
141	0x3e22e5fa	0.15908042
142	0x3da222da	0.07916804
143	0x3e6edf7b	0.23327439
144	0x3e1b188b	0.15146081
145	0xbd89c5b4	-0.06727162
146	0xbd8007d1	-0.06251491
147	0x3e88cb33	0.2671753
148	0x3eab935f	0.33510873
149	0xbe024def	-0.12725042
150	0x3da25162	0.07925679
151	0x3e12e4b3	0.14345054
152	0x3e7be192	0.24597767
153	0xbe68e294	-0.22742683
154	0xbe6abede	-0.22924373
155	0xbe2b77a4	-0.16744858
156	0x3e3e6bc8	0.18595803
157	0x3e8c571f	0.27410218
158	0x3e58b11a	0.21161309
159	0xbe184bf1	-0.1487272
160	0x3d4e2d79	0.050336335
161	0xbe71b916	-0.23605761
162	0x3e853a1d	0.260209
163	0xbe62dbbe	-0.22154137
164	0x3e175dd7	0.14781891
165	0xbdd4ca32	-0.10390128
166	0xbe562f04	-0.20916373
167	0x3e639cbe	0.22227761
168	0x3b15f05b	0.0022878859
169	0xbe2836ed	-0.16427203
170	0x3d5807c0	0.052741766
171	0xbda706b0	-0.081555724
172	0x3e8ba930	0.27277517
173	0xbdcf7ef6	-0.10131638
174	0x3ea9989f	0.33124253
175	0xbe944720	-0.28960514
176	0xbe5b5482	-0.21418956
177	0x3e1b0146	0.15137205
178	0x3e4aacd7	0.19792496
179	0x3e980bc1	0.29696468
180	0xbe927dc5	-0.2861158
181	0xbe9df76f	-0.3085284
182	0x3aa422c8	0.0012522573
183	0x3e0ab944	0.13547236
184	0xbbf746f6	-0.007546301
185	0xbe26e6cd	-0.16298981
186	0x3c2f42d0	0.010697082
187	0x3e1f13c1	0.1553488
188	0x3d96d2b2	0.07364406
189	0xbdf658c2	-0.12028648
190	0x3c5e74b4	0.013577629
191	0x3e86abb2	0.26302868
192	0xbe8778c4	-0.26459324
193	0x3d42be85	0.047544975
194	0x3e2783a4	0.1635881
195	0xbe039769	-0.12850727
196	0xbe129359	-0.14314021
197	0xbe81fc7c	-0.25387943
198	0xbe3e9248	-0.1861049
199	0xbe9a6dc6	-0.30161875
200	0x3dff0acb	0.124532305
201	0xbe95a444	-0.29226887
202	0x3b608779	0.0034260435
203	0x3df8c915	0.12147728
204	0x3e4f1f9d	0.20226903
205	0xbe47ea5c	-0.19522995
206	0xbe4aa936	-0.19791111
207	0x3d24e950	0.040261567
208	0x3e7f7abb	0.24949162
209	0x3e108cbb	0.14116184
210	0xbe155bc3	-0.14585786
211	0x3cba347e	0.022730108
212	0x3e458aa1	0.19291164
213	0xbe8a1c26	-0.269746
214	0x3e779ed0	0.24181676
215	0x3e0620a9	0.13098396
216	0x3e459f28	0.19298995
217	0x3e47563f	0.19466494
218	0xbe2fba6f	-0.17160963
219	0x3bd76c67	0.006574202
220	0xbe9d3f8d	-0.30712548
221	0x3e6881ad	0.22705717
222	0x3dbb2d90	0.0913955
223	0xbe1d65ed	-0.15370913
224	0x3d9e5cbf	0.07732534
225	0xbea0bbb7	-0.31393215
226	0x3e26924d	0.16266747
227	0xbe88e06e	-0.26733726
228	0x3ddc0558	0.10743207
229	0xbe82066f	-0.25395533
230	0xbdf232b5	-0.11826078
231	0xbdacf585	-0.08445267
232	0xbdb82807	-0.089920096
233	0x3e8a9516	0.2706687
234	0x3cc582bb	0.024110189
235	0x3e44e7ec	0.19229096
236	0xbca3cf3f	-0.019996284
237	0xbdb70e6c	-0.08938298
238	0xbd32f179	-0.043687318
239	0x3e30576d	0.1722085
240	0xbd9a3ff0	-0.07531726
241	0xbd4a7d7b	-0.049436074
242	0xbe7f9433	-0.24958877
243	0x3e61f330	0.22065425
244	0xbe75f75b	-0.2402014
245	0xbe522f96	-0.20525965
246	0x3de50dd7	0.1118428
247	0x3e159e1f	0.146111
248	0x3e262efd	0.16228862
249	0x3d7c340c	0.061573073
250	0xbb75e94b	-0.0037523087
251	0xbe681dc9	-0.22667612
252	0x3d2114cb	0.03932647
253	0xbe016e37	-0.126397
254	0xbe8853a1	-0.26626304
255	0x3e2daef4	0.1696127

linear2.weight f4 [3, 256]
0	0x3d79b382	0.060962208
1	0x3ccc9eb1	0.024978014
2	0xbd348832	-0.0440752
3	0xbd9bbd6b	-0.07604488
4	0x3d116681	0.035498146
5	0xbc3f3738	-0.01167088
6	0xbd136735	-0.035987098
7	0x3deeeca3	0.116662286
8	0xbda168f7	-0.078813486
9	0x3b087951	0.0020824263
10	0x3cc6e77e	0.024280306
11	0xbcea0a11	-0.028569253
12	0xbd8fee3f	-0.07027864
13	0xbdca4169	-0.09875757
14	0x3cdc0068	0.026855662
15	0x3db4765d	0.088116385
16	0xbd361db5	-0.044461925
17	0xbd87b012	-0.066253796
18	0xbd950d5b	-0.07277938
19	0x3ca54cb6	0.02017818
20	0x3b29866d	0.0025867478
21	0xbd46a399	-0.048495863
22	0x3ba7572a	0.0051068263
23	0xbc3e45a7	-0.011613286
24	0x3c6b9500	0.014378786
25	0xbd0f13c4	-0.03493096
26	0x3cdf660a	0.027270336
27	0xbd8d5c9b	-0.06902429
28	0x3cd1a818	0.025592849
29	0xbc687195	-0.014187236
30	0x3ca127a4	0.019672222
31	0xbca1b5a0	-0.019739926
32	0xbd2ae95d	-0.04172646
33	0xbd6988a0	-0.05701506
34	0x3d03cdc1	0.032178644
35	0xbd13ceb8	-0.036085814
36	0x3cf499a3	0.029858416
37	0x3c978a51	0.018498572
38	0xbc8943cd	-0.016755963
39	0xbd755278	-0.0598931
40	0x3ab63c40	0.0013903454
41	0x3d3a92b7	0.045550074
42	0x3c48b115	0.012249251
43	0x3a49d0fc	0.00076986826
44	0xbd0e7b82	-0.034785755
45	0xbd69ae29	-0.057050858
46	0x3bf70528	0.0075384565
47	0xbcc3fcd6	-0.023924273
48	0x3d8144a5	0.06311921
49	0xbbd57320	-0.006513968
50	0x3cf48fd4	0.029853739
51	0xbc6d6103	-0.014488461
52	0xbd923cd1	-0.07140506
53	0xbd522de1	-0.051313285
54	0xbd6c0ae7	-0.057627585
55	0x3c7ca35f	0.01541981
56	0x3c42e7ee	0.011896117
57	0xbd652d80	-0.055951595
58	0xbd918487	-0.07105356
59	0xbd9b8192	-0.07593073
60	0x3d1382f3	0.036013555
61	0x3ddfa575	0.1092023
62	0xbd265f39	-0.040618155
63	0x3ad5ab7c	0.0016301717
64	0x3d4586aa	0.04822413
65	0x3bd3d30c	0.0064643677
66	0x3c4920c0	0.012275875
67	0x3cca340c	0.024683021
68	0xbd7a7a7b	-0.061151963
69	0xb9707a94	-0.00022933848
70	0xbd6df9ba	-0.058099486
71	0xbc850985	-0.01623989
72	0xbd8f364e	-0.0699278
73	0xbcfaed2d	-0.030630672
74	0x3b908512	0.0044103945
75	0xbd10ee47	-0.03538349
76	0x3b8bd8ac	0.0042677727
77	0xbdb22ddd	-0.08700154
78	0xbd4e0d70	-0.050305784
79	0x3c1773b3	0.009243893
80	0x3b8fbf59	0.004386824
81	0x3d2487ee	0.040168695
82	0xbd1d4236	-0.03839322
83	0xbd879678	-0.066204965
84	0xbd6d8d4c	-0.05799608
85	0x3d242498	0.04007396
86	0x3c526404	0.012841228
87	0xbb519db0	-0.0031984858
88	0xbd229914	-0.039696768
89	0x3d20e66d	0.03928225
90	0xbcb2b348	-0.021814004
91	0x3c7435da	0.014905417
92	0xbd02252c	-0.03177373
93	0x3ce5e805	0.028064737
94	0x3d428ca5	0.04749741
95	0xbce64b74	-0.02811215
96	0xbb8435c2	-0.0040347287
97	0x3d423653	0.04741509
98	0x3cb9e0f6	0.022690278
99	0xbd74dbb8	-0.059779853
100	0xbdc6c714	-0.0970594
101	0xbd8e6546	-0.0695291
102	0xbd12be7b	-0.035826188
103	0x3c12104f	0.008915021
104	0x3d9a6f45	0.07540754
105	0xbcf64dbe	-0.030066367
106	0xbda55a3e	-0.08073853
107	0x3d9b53ad	0.07584319
108	0xbda1a73d	-0.07893226
109	0x3cc23fca	0.023712058
110	0xbc34f693	-0.011045116
111	0xb9dc84f0	-0.00042060716
112	0x3d0dea07	0.034647014
113	0x3c6ea1df	0.01456496
114	0x3d250965	0.040292162
115	0xbdc1382b	-0.09434541
116	0x3e0939bb	0.13400929
117	0xbce17841	-0.027523162
118	0xbc01a0b5	-0.007911851
119	0xbbf294a0	-0.0074029714
120	0x3d9ed274	0.077549845
121	0x3c1a409f	0.009414821
122	0xbd2c6e96	-0.04209765
123	0xbd855789	-0.06510837
124	0xbd8eccfc	-0.069726914
125	0x3cd0b84c	0.025478505
126	0xbd335aba	-0.043787695
127	0x3d0bd289	0.03413633
128	0xbda2dc7a	-0.07952209
129	0x3bdd26e2	0.00674902
130	0xbbfe814d	-0.0077668787
131	0xbc9f34b8	-0.019434318
132	0x3d79e7c6	0.061012052
133	0xbb9d5a30	-0.004802011
134	0x3d52dd56	0.051480614
135	0x3b8805ac	0.0041510668
136	0xbd7db391	-0.061938826
137	0x3c745a02	0.014914038
138	0xbcc4a3cb	-0.024003884
139	0xbc5b64e0	-0.01339075
140	0xbc715d38	-0.014731698
141	0x3d35eeff	0.044417378
142	0xbdb478cf	-0.08812105
143	0xbc5b891c	-0.013399389
144	0x3d27ccee	0.04096692
145	0xbd2aa2c6	-0.04165914
146	0x3bc20297	0.005920719
147	0xbd99b3fe	-0.07505034
148	0xbd857edb	-0.065183364
149	0xbb71404e	-0.003681201
150	0x3db15867	0.086594395
151	0xbd64f8d9	-0.055901382
152	0x3c9c02cc	0.019044302
153	0x3ccfb163	0.02535314
154	0xbd56a978	-0.05240771
155	0xbd1ad9e5	-0.037805457
156	0x3d59ffd0	0.053222477
157	0xbc12fc9a	-0.008971358
158	0x3d0129c7	0.031533983
159	0xbd52eb11	-0.051493708
160	0x3cca26ac	0.024676643
161	0x3cf11140	0.02942717
162	0x3b2f41a6	0.002674201
163	0xbcda456e	-0.026644435
164	0x3d1ce1fb	0.03830145
165	0xbd225c5a	-0.039638855
166	0xbc8ddeac	-0.017318092
167	0xbda68f18	-0.08132762
168	0x3c02519d	0.007954028
169	0x3c064470	0.008195028
170	0xbce197a2	-0.027538124
171	0x3d09e8aa	0.03366915
172	0xbcb05284	-0.021523722
173	0x39616ef6	0.00021499008
174	0x3d645178	0.055741757
175	0xbd6f7bc0	-0.058467627
176	0xbcada389	-0.021196144
177	0x3bef2b6e	0.0072988784
178	0x3d20f1b9	0.039293025
179	0xbbd25cdf	-0.0064197625
180	0xbd0e771f	-0.03478157
181	0xbd067d5b	-0.032834392
182	0x3cc9d72e	0.024638738
183	0xbdd69fde	-0.10479711
184	0x3cb13703	0.021632677
185	0xbcd92397	-0.026506228
186	0xbd90b715	-0.0706617
187	0xbc71a63b	-0.014749105
188	0xbccb8fc1	-0.02484882
189	0xbcae4d2d	-0.021277035
190	0x3cea7cbb	0.02862393
191	0xbd85dce9	-0.06536276
192	0xbd47e5d5	-0.04880317
193	0xbd365f82	-0.044524677
194	0xbc2b7a14	-0.010466117
195	0x3afac971	0.001913352
196	0xbd76dd8f	-0.06026989
197	0xbccf97a8	-0.02534087
198	0x3c3d18c1	0.011541546
199	0x3c0ab800	0.008466721
200	0xbcccb8e1	-0.0249905
201	0x3ca0572c	0.019572817
202	0xbd08b1a1	-0.033372525
203	0xbb9b7588	-0.0047442354
204	0x3d2eda7e	0.04268884
205	0xbb45374e	-0.0030092779
206	0xbc07a430	-0.008278891
207	0xbce29d48	-0.027662888
208	0xbd4df460	-0.050281882
209	0x3d3f184e	0.046654038
210	0xbd5868b8	-0.052834243
211	0x3b689270	0.0035487674
212	0x3af771b4	0.0018878491
213	0x3d60a49e	0.05484449
214	0x3d045428	0.03230682
215	0xbd2a69d6	-0.04160484
216	0x3c9782c2	0.018494967
217	0xbd2fefed	-0.04295342
218	0xbc34c8a4	-0.011034165
219	0xba164396	-0.0005732117
220	0xbc4a848e	-0.012360705
221	0xbcd2eaa4	-0.025746651
222	0xbd1de72b	-0.038550537
223	0xbc2c1a03	-0.010504249
224	0x3d10a29a	0.03531132
225	0x3cfedd72	0.031111453
226	0xbd62b58a	-0.05534891
227	0x3d6abb50	0.05730754
228	0x3cd5a55f	0.026079832
229	0x3d11a4cb	0.03555755
230	0x3d518dd0	0.051160634
231	0xbd581405	-0.052753467
232	0xbca83a99	-0.020535754
233	0xbbe08e78	-0.006852921
234	0x3c3e9e2a	0.011634389
235	0xbd493eb1	-0.049132053
236	0xbca9fbc2	-0.02074993
237	0x3cf28f65	0.029609391
238	0x3c5c3d2f	0.013442322
239	0xbd94ac5a	-0.07259436
240	0x3c8fe787	0.017566456
241	0xbd58c93b	-0.052926283
242	0xbd176e58	-0.036970466
243	0x3c280214	0.010254402
244	0xbd547c35	-0.051876266
245	0x3be49552	0.006975808
246	0xbc49dfb3	-0.0123214
247	0xbcc4aea4	-0.024009056
248	0x3d438cac	0.047741577
249	0xbc0d2241	-0.008614124
250	0xbd8b75c1	-0.06809569
251	0x3d99cc3c	0.07509658
252	0xbcc65403	-0.024209982
253	0xbd00e65d	-0.03146969
254	0xbc2956bb	-0.01033562
255	0x3d1616aa	0.036642708

linear2.bias f4 [3]
0	0xbd22043a	-0.039554812
1	0xbdae0624	-0.08497265
2	0xbdac3634	-0.08408776
