model/model.pth (torch, 16799 bytes, 4 tensors)

linear1.weight f4 [256, 11]
000000 4c 84 9d 3d 1b 60 1d 3f 26 d8 d9 3e ab 62 8b 3e
       0.07691249 0.6147477 0.4254772 0.27223715
000010 e1 ad 52 3e a0 d5 14 3e 9e 0c 34 be f1 3d 8f 3e
       0.20574142 0.14534616 -0.17582938 0.27976945
000020 d8 ea 0e be 5c 2a ed 3d 1b db 9e bd 29 7e 03 3e
       -0.13956773 0.11580345 -0.07756635 0.12841095
000030 82 a6 46 bc b8 0a 58 be 78 78 7f be 6b 24 90 be
       -0.0121246595 -0.21097839 -0.24948299 -0.28152785
000040 3b 68 f5 3d 0d 76 5d bd ba cd 31 3e d0 fd 3d be
       0.11982771 -0.05406766 0.17363635 -0.18553853
000050 a2 d6 48 be 00 1b b8 bd 9f 58 ab 3e 90 7a 22 3f
       -0.19613126 -0.08989525 0.3346605 0.63468266
000060 ce e3 4f be cd ce a5 be 4c 00 65 3e 3e 82 86 3e
       -0.20301744 -0.3238434 0.22363394 0.26271242
000070 56 0e 86 3e 8f a8 98 3d 5c 65 03 be 79 5e 53 bd
       0.26182812 0.07454025 -0.12831634 -0.051603768
000080 c4 f5 0b be 70 e6 4d bd 8b 96 00 bf a5 09 f1 3e
       -0.13667971 -0.05026859 -0.5022971 0.4707767
000090 14 ce 6c be c0 86 b4 be 5a 7e 63 3e 04 b3 91 bd
       -0.23125488 -0.35259056 0.22216168 -0.07114223
0000a0 3e 38 1b 3e aa 29 44 3e 85 f2 bd be b6 ee c3 bd
       0.15158173 0.19156519 -0.3709909 -0.09567015
0000b0 ea 14 28 be 22 31 77 3d 27 0f c7 3e ef e3 78 3e
       -0.16414228 0.06034959 0.38878748 0.243057
0000c0 4d cc ba 3c c7 bf d8 3e 7b e3 bb 3b 5c 0f bf be
       0.022802496 0.42333815 0.005733905 -0.37316406
0000d0 57 ae 94 bd fb ea b6 3d 29 9b ec be 93 58 99 3c
       -0.07259815 0.08931538 -0.46212128 0.018718993
0000e0 c1 1f d2 bd 56 de b1 3e e1 8b 8f be db ae 05 3e
       -0.10259963 0.3473994 -0.28036407 0.13054983
0000f0 54 75 f6 bd de aa a3 3e 68 02 a2 be 98 5e d9 be
       -0.12034097 0.319663 -0.3164246 -0.42454982
000100 e1 a9 6d be 16 4e b2 3e 88 fd 70 3e de 81 fe be
       -0.23209335 0.348252 0.23534214 -0.49708456
000110 21 40 1c 3f 30 ac bd bd 45 5f ac be bf f7 00 3d
       0.6103535 -0.09261358 -0.33666435 0.03148627
000120 62 ef da bd 28 a8 e7 3e 7f e3 af 3e d6 cc 8b 3e
       -0.1069019 0.4524548 0.34353253 0.27304715
000130 ad 78 09 3e 66 12 86 3e e4 a7 3a 3f 70 52 c9 be
       0.1342494 0.26185912 0.7291243 -0.39320707
000140 c2 c7 ba bc b1 4e 0b 3e b0 bf c2 bd 20 bf 87 be
       -0.02280033 0.13604237 -0.09509218 -0.26513004
000150 9b 83 00 be ca 23 7a be 70 d4 c7 bd d0 2f cc 3d
       -0.12550204 -0.24427715 -0.09757316 0.09970057
000160 da 62 81 be 30 ed 56 3d 34 ea f2 3d 74 0f 98 be
       -0.2527073 0.052472293 0.11861077 -0.2969929
000170 39 30 47 3e 40 8f d4 3c a1 e4 39 be 28 b4 b8 bd
       0.19451989 0.025947213 -0.18153621 -0.09018737
000180 b2 0c 79 be aa 08 b2 bd 79 b6 6f be 65 5e 04 be
       -0.24321249 -0.08693059 -0.23409452 -0.12926634
000190 64 2b b0 be ba b3 0d 3f 66 eb c7 3d 3f ca 41 3e
       -0.34408104 0.55352366 0.097616956 0.18924807
0001a0 dc bb 50 3e f8 4c 86 3c 0c 6a 23 be be a6 bc 3d
       0.20384163 0.016394123 -0.15958422 0.09211491
0001b0 4c d3 8e bd 99 c2 31 3e f4 c8 dc bd d3 72 e7 bd
       -0.069738954 0.1735939 -0.10780516 -0.11301198
0001c0 e6 87 80 3e 36 0e ab be 0c e3 bd bd 20 15 14 3e
       0.25103682 -0.3340928 -0.092718214 0.14461184
0001d0 7d cb 52 be 46 90 94 3e cc 95 41 be d7 76 89 be
       -0.20585437 0.29016322 -0.18904799 -0.2684848
0001e0 67 5a 09 bf ea f1 a6 bd 5f 7a 12 3e 68 5e cf 3d
       -0.5365357 -0.0815161 0.14304493 0.101254284
0001f0 93 1f 8c be 5b 30 6e be 6d fb 29 be bc 07 6e 3c
       -0.2736784 -0.23260634 -0.16599818 0.014528211
000200 ee 47 40 be 0e d5 99 bd 4e ad 82 bd f1 85 e3 3d
       -0.18777439 -0.0751134 -0.063807115 0.11109532
000210 25 53 bd 3e 17 43 ad bd a1 e3 d5 bd 56 9e ac 3a
       0.36977497 -0.08460062 -0.104438074 0.0013169746
000220 86 3f 83 3e 0f f1 68 bc 28 be 86 be 13 fd 38 be
       0.25634402 -0.014217629 -0.26316953 -0.1806529
000230 28 29 58 be 7a ca 8a 3d f4 1a 96 3e 34 3b 1a 3e
       -0.2110945 0.067769006 0.2931744 0.15061647
000240 15 48 48 be 0a 86 3f 3e 03 90 2c 3d 5f 4e a4 be
       -0.19558747 0.18703476 0.042129528 -0.32091042
000250 ef 8e a2 bd f3 7d 35 3d 46 47 5f be 36 14 83 be
       -0.07937419 0.044309568 -0.21804532 -0.25601357
000260 89 31 2a be bf 95 60 be 63 53 95 3d 5b 48 0a 3f
       -0.16620459 -0.21932124 0.072912954 0.54016656
000270 fa 8a c7 be e6 1b a2 bd 08 aa 89 3e a3 28 01 3c
       -0.38973218 -0.079154775 0.26887536 0.007883224
000280 45 30 82 3e 33 fa fb bd 5f 6b 44 be 3d 13 50 3d
       0.25427452 -0.12303581 -0.19181584 0.050799597
000290 b8 9c f2 bd c8 40 a2 3e e8 45 05 bf 13 0f 3c be
       -0.11846298 0.3169005 -0.52059793 -0.18365125
0002a0 be 91 37 3d 07 08 88 3e 49 df 25 be a8 01 a4 bd
       0.044816725 0.26568624 -0.16198458 -0.080081284
0002b0 55 2b fb 3d dc bc 82 bd 0e b0 a6 3e d8 88 8b 3e
       0.12264124 -0.06383678 0.32556194 0.2725284
0002c0 91 84 3e bc eb f7 b5 3d 99 bf 2f bc a9 68 bb 3e
       -0.011628286 0.08885177 -0.010726833 0.36603287
0002d0 2b 44 42 be d7 58 5b 3c fb 03 b2 3d 74 08 ae be
       -0.18971317 0.01338788 0.086921655 -0.33990824
0002e0 c9 05 c4 be 86 74 da 3d 22 37 ab 3c 71 b6 ae bd
       -0.38285664 0.10666756 0.020900313 -0.08530892
0002f0 3f d2 06 3e 4e af 88 be 70 40 85 bd ac 9c 01 be
       0.1316614 -0.26696247 -0.06506431 -0.12657422
000300 1c 0e 41 bd 13 37 fe 3d 8c 5a c6 bd 7b e4 6b 3d
       -0.047132596 0.12412848 -0.09685239 0.057590943
000310 00 4a 23 3d f5 4d 35 be 10 92 90 3d e2 21 a2 bd
       0.039865494 -0.1770552 0.07059109 -0.07916619
000320 5a b3 87 bd 68 9a ce be 16 67 c0 3e 6b a1 e3 3d
       -0.066260055 -0.40352178 0.37578648 0.111147724
000330 1e 92 4c 3e 08 11 a9 be 20 bc d0 bd 72 64 bc be
       0.19977614 -0.33020806 -0.10192132 -0.36795384
000340 fc 09 80 3e 2f c7 38 3e e9 50 ba 3e e9 ef c8 be
       0.25007617 0.18044733 0.36389855 -0.39245537
000350 0f bd f2 bd e2 9b 1a be 81 26 db 3d b1 fe a8 3e
       -0.11852466 -0.15098527 0.107007034 0.33006814
000360 ed b4 85 3e 11 6b c0 bc 6f 8c 90 be e4 85 c6 be
       0.26114598 -0.023488553 -0.28232142 -0.38774025
000370 20 d7 4e bc d0 06 33 bd 7b 93 25 bd 8b a6 14 3e
       -0.012624532 -0.04370767 -0.04042385 0.14516656
000380 e3 2d 40 3d 9c 4b 46 3c b4 b9 66 be b8 ff f4 bd
       0.04691876 0.012102988 -0.22531778 -0.11962837
000390 d6 7e ad 3a 01 c5 ef 3d 0c 8f ef bd 25 7a 25 bf
       0.0013236653 0.117074974 -0.11697206 -0.646395
0003a0 77 18 96 3e de 5a 9e 3e c5 43 d5 be dc 85 87 bd
       0.2931554 0.309287 -0.41653267 -0.066173285
0003b0 f4 bb 99 bd 97 31 d1 bc 23 ff ec 3d d9 d8 b0 3d
       -0.07506552 -0.025536342 0.11572101 0.086351104
0003c0 4f 38 42 3e 9f 54 3b 3e a9 ae 63 be d8 59 b4 3d
       0.18966793 0.18293999 -0.22234596 0.08806199
0003d0 0b df 86 be f4 f7 e0 bc 29 93 85 3e 7a 7a 89 3e
       -0.26342043 -0.027461983 0.26088837 0.26851255
0003e0 85 33 5b be c1 92 97 be 90 91 3c 3e 5e 24 0c 3d
       -0.21406372 -0.29604152 0.18414903 0.03421437
0003f0 45 e8 c0 be ae 50 02 3e 8a 67 14 bd b3 3e 57 be
       -0.37677208 0.1272609 -0.036231555 -0.21020012

linear1.bias f4 [256]
000000 22 5e fc bd 7a d3 b6 be e6 af e9 bd 87 86 cc 3d
       -0.12322642 -0.3570822 -0.11410503 0.099865966
000010 41 10 4f bd c1 14 c7 bd ce 17 9f 3c 5e a9 13 3e
       -0.05055261 -0.09720755 0.01942053 0.14420077
000020 1a db ac be fa 2f 57 3d d6 17 f6 3d 3c c8 af be
       -0.3376091 0.05253599 0.12016265 -0.34332454
000030 d2 77 02 bd 99 d2 85 bc 4a 27 e2 bd 2b 4b 2a be
       -0.03185255 -0.016335772 -0.1104265 -0.16630237
000040 69 5e 03 be 6a c3 c8 be fe bd 27 3e 2e 01 c8 3c
       -0.12828983 -0.3921159 0.1638107 0.024414625
000050 35 ef 8c be 71 bf fd bc 7a d6 ff 3d ac d1 c9 3e
       -0.2752625 -0.030975075 0.1249208 0.3941778
000060 77 54 4f bd 08 84 b3 3d b2 e1 9d 3e 32 fa 51 3d
       -0.05061766 0.08765417 0.30836254 0.051263995
000070 61 dd 9e be 88 e0 db bd ff 34 b6 be a5 eb ea 3d
       -0.31028274 -0.10736185 -0.35587308 0.11470727
000080 2d 3c 4a be 82 d6 e1 bd dd 7c be be fc 09 8d be
       -0.19749518 -0.11027242 -0.37204638 -0.2754668
000090 11 25 dd 3c 98 0d 63 bd 74 6b 88 3d f0 66 86 bb
       0.026995214 -0.055432886 0.0666112 -0.0041016266
0000a0 f5 7a 38 bc c4 53 51 3d 18 d3 ad bd bf 4f 54 3e
       -0.011259784 0.051105276 -0.084875286 0.20733546
0000b0 bb 71 0d 3e f7 ad 4d be e1 66 2d bd c3 67 05 3d
       0.13812916 -0.20085894 -0.04233444 0.032569658
0000c0 a4 de d5 bd f6 0d 55 be 4c dd af 3c dd 37 0d 3e
       -0.10442856 -0.20806107 0.021467827 0.13790841
0000d0 74 4e 5b bd db 90 84 bc 40 50 14 be 4e 5b 60 be
       -0.053541616 -0.016182354 -0.14483738 -0.2190983
0000e0 01 3d a8 be 7c bd 3c 3e 6b ce 95 3d 75 ff b2 be
       -0.32859042 0.18431658 0.07314762 -0.34960523
0000f0 bb 5e 6f 3e a3 50 89 bc be 60 91 be b8 93 a6 be
       0.2337598 -0.016762083 -0.2839412 -0.32534575
000100 9c 72 43 3e 5c 40 b9 bd c4 9d a9 bc 22 e1 28 bd
       0.19086689 -0.09045479 -0.020705111 -0.04123033
000110 f5 7a 0b be 70 ab a9 3d 24 d2 0d be 01 65 72 bd
       -0.13621123 0.08284652 -0.13849694 -0.059178356
000120 e4 25 e1 bd 77 2c b4 bd ad ef 80 be bc ce bb 3e
       -0.10993555 -0.087975435 -0.25182858 0.36681163
000130 50 7d 75 be 04 df 73 3d 2b 24 92 3e be 80 01 be
       -0.23973584 0.059538856 0.2854322 -0.12646767
000140 44 72 8f bd bf aa ea 3c fb 4a df 3e 38 55 3f bd
       -0.07004216 0.028645871 0.43611893 -0.04671213
000150 ea 82 55 bd 7c b2 02 3d 95 cf 41 3e e7 1c f3 3c
       -0.052126803 0.031908497 0.18926843 0.029676868
000160 4b 5e 51 bd 5a 50 e6 bd 3f c9 e3 3d 1d ee bf 3d
       -0.051115315 -0.112457946 0.11122369 0.093715884
000170 14 51 e2 bb c2 b6 a8 bd f1 b4 9b be 28 77 1e be
       -0.006906638 -0.08237983 -0.30411485 -0.15475142
000180 1f 43 55 3e 2f bb 54 be 68 a7 d2 bc e2 d8 a8 3e
       0.20826386 -0.2077453 -0.025714591 0.32977968
000190 5c 9b 72 3d 48 c1 1e 3e 42 27 7f bc dc 60 bd 3d
       0.059230193 0.15503418 -0.015573325 0.0924699
0001a0 c0 69 28 be 7a 3d 13 be ca 0e a9 3e 20 18 20 be
       -0.1644659 -0.1437892 0.33019096 -0.15634203
0001b0 d7 1f 55 3e 5a d9 57 3b 20 2c 67 be 0a e5 cb 3d
       0.20812927 0.0032935948 -0.22575426 0.09955795
0001c0 0e 5c 82 bd dc 55 12 be 8d 2c 4c 3e e1 1e b3 3d
       -0.06365214 -0.14290565 0.1993887 0.08746124
0001d0 8a 20 3f 3e 11 bb 86 ba 25 6f c2 3e fc 17 e3 bd
       0.18664756 -0.0010279139 0.37975422 -0.11088559
0001e0 7c 1c 6a 3e 74 1c a2 be a8 38 54 3c 18 55 19 be
       0.22862428 -0.31662333 0.012952961 -0.14973867
0001f0 af f9 ba bd 34 af a8 be 22 95 c6 be e3 b1 12 be
       -0.091296546 -0.3294617 -0.38785654 -0.14325671
000200 7c 3f 80 bd b3 02 73 bc 85 ad 6d 3e 9d 8e 9a be
       -0.06262109 -0.0148321865 0.23210724 -0.3018693
000210 f7 8c 85 bc 8b c9 71 be 68 e1 1c bd ee 8c 75 bc
       -0.016302569 -0.23612039 -0.0383009 -0.014987214
000220 32 fb 3e 3e cf 4e 25 be f8 b4 4c bd 38 02 d4 bc
       0.18650511 -0.16143344 -0.049977273 -0.025879964
000230 f1 a9 eb bd df 69 77 bd d0 7b 56 be 8f 8f d6 be
       -0.11507023 -0.0604037 -0.20945668 -0.41906402
000240 eb 85 a4 bd 55 63 22 3d 45 a0 53 3e 94 e1 5b be
       -0.08033355 0.03964551 0.20666607 -0.2147277
000250 bc 8f 22 be 9c 34 12 bd 71 36 2e bd 7d 97 c6 bd
       -0.15875143 -0.035694703 -0.042532388 -0.09696863
000260 31 19 1b be ad 7a c7 be d5 83 9b 3a 26 21 d4 bc
       -0.15146329 -0.38960782 0.001186485 -0.025894713
000270 b1 18 19 be 58 50 4d 3e a3 e0 e4 3e dc 4b 5b be
       -0.14950825 0.2005018 0.44702634 -0.21415657
000280 c7 e4 af 3c 57 05 d6 be 45 34 f3 3d 35 7c 46 3e
       0.021471394 -0.4180095 0.11875204 0.19383319
000290 ac c3 b9 bd 20 03 9c bd cd 02 e7 be ba ee 07 bc
       -0.090705246 -0.076177835 -0.45119324 -0.008296663
0002a0 ad a4 7b 3c 48 21 bb 3d 94 74 ba 3d 83 a2 b8 bd
       0.015359086 0.09137207 0.09104267 -0.09015372
0002b0 79 b5 25 3e ef 51 2e be 8d ef ae be 73 5a 45 3e
       0.16182508 -0.17023443 -0.34167138 0.19272785
0002c0 45 77 d3 bd 38 44 9e be 3f df 2f be 85 6e 24 be
       -0.10325483 -0.30911422 -0.17175005 -0.16057785
0002d0 bd 38 66 be eb 28 83 3e 87 f1 f1 3e ce 81 46 be
       -0.22482581 0.25617155 0.47254583 -0.19385454
0002e0 01 8d 0e 3e 42 89 ce bd 86 5c 81 3e fc 35 fb bd
       0.13920976 -0.100847736 0.25265902 -0.12266156
0002f0 b7 e6 9c 3e 8f 49 3b be 50 29 b6 3d 41 01 6a be
       0.3064477 -0.18289779 0.088945985 -0.22852041
000300 04 2a c9 3d e2 29 79 be 25 dd 0a be c1 3d 8b be
       0.09822467 -0.24332383 -0.13560922 -0.27195552
000310 7a f7 75 ba e7 aa b3 bd f1 92 44 3e af e7 87 be
       -0.0009382885 -0.087728314 0.19196679 -0.26543948
000320 d8 57 cf 3d 00 7a 40 be 6f e5 61 be 4a 76 67 be
       0.10124177 -0.1879654 -0.22060178 -0.22603717
000330 82 aa f0 3d b6 4f 2c be 91 bf 1c 3d 30 9c fb 3e
       0.11751272 -0.16827282 0.03826863 0.491426
000340 5f 8c e1 3c 61 67 3a 3e 16 cf e6 bd d1 44 09 bd
       0.027532754 0.18203498 -0.11269967 -0.033512894
000350 21 e9 34 bd 31 86 de 3e 51 96 8d bd 2f 74 ab be
       -0.04416764 0.43461755 -0.06913436 -0.3348708
000360 60 49 85 3e be 01 a0 be 2e e4 87 bd 73 84 ff bd
       0.26032543 -0.3125133 -0.06635319 -0.124764346
000370 f6 ba 62 be 3e e8 71 be 1a 32 aa bd 69 3a 8b 3e
       -0.22141632 -0.2362375 -0.08310337 0.27193
000380 90 cf 83 3e 35 be 8c be 78 47 d3 3d a3 74 b2 be
       0.25744295 -0.27488866 0.10316366 -0.34854612
000390 8e 4d 10 3e 45 71 fe 3d c2 18 30 be 66 8e 3b 3e
       0.14092085 0.12423948 -0.17196944 0.1831604
0003a0 de 3f 4d be 19 fc 9c be 2c 8d a0 3d 5f f7 ea bd
       -0.20043895 -0.30661085 0.078394264 -0.114729635
0003b0 1f a4 5d 3b aa ea f4 3e bf 57 09 be 87 bb d5 be
       0.0033819748 0.47835284 -0.13412379 -0.41744635
0003c0 43 5f 00 3e 34 85 a1 be 89 5c 61 be bb 8a 30 bd
       0.1253634 -0.31546938 -0.22007956 -0.043101054
0003d0 fe 37 1f 3e 1d 3a ec bd f0 37 45 3e a9 9e 17 be
       0.15548703 -0.11534522 0.1925962 -0.14806618
0003e0 46 8c 85 be 2d 62 60 be e3 c2 70 3e aa d5 34 be
       -0.26083583 -0.21912451 0.23511843 -0.17659631
0003f0 25 3e 6e 3d f9 a8 80 be d7 44 95 bd e5 a3 b4 3d
       0.058164734 -0.25128916 -0.07288521 0.08820323

linear2.weight f4 [3, 256]
000000 ba 2f 97 bd ed 82 84 bd 52 89 a1 bd a1 1d 01 be
       -0.0738215 -0.064702846 -0.0788752 -0.12608959
000010 a8 54 2e 3e 96 5f 89 3e bc 5c 80 be 88 1d ea bd
       0.17024481 0.2683074 -0.2507075 -0.11431414
000020 18 78 00 3d 32 08 d3 3d f1 ed ac be 17 79 13 bd
       0.03136453 0.103042975 -0.33775285 -0.036004152
000030 9d 71 2b be 98 b0 bc 3c 6f 17 c7 bd 31 31 a3 be
       -0.16742559 0.023033425 -0.097212665 -0.31873468
000040 89 3f 91 be bd fb 14 3e 82 0e 88 3e 2f 15 3f be
       -0.28368786 0.14549156 0.2657357 -0.18660425
000050 34 98 41 3d 01 4a 5b bd 10 49 b0 3e ed 9f db 3e
       0.047264293 -0.053537372 0.34430742 0.4289545
000060 ac d7 00 3e 06 3c 0e be 37 50 d1 3e d1 21 93 be
       0.12582272 -0.13890085 0.40881512 -0.28736737
000070 f8 3f bf 3a 1d ab 00 bf f2 06 0f 3c 90 24 b6 3d
       0.0014591208 -0.502611 0.008729683 0.088936925
000080 6d 6a 70 be 50 24 4c bd d2 56 6b 3e 54 58 96 bc
       -0.23478098 -0.049839318 0.22982338 -0.018352665
000090 1e 49 f0 bc d8 f6 82 3e d3 72 f8 3e fc 74 d3 bd
       -0.02933174 0.25578952 0.48525104 -0.103250474
0000a0 ca b3 91 be 17 28 43 be 2a f7 63 bd 12 b1 5a 3e
       -0.2845748 -0.19058262 -0.055655636 0.2135661
0000b0 71 9e 09 be 1f 03 af bc 65 04 11 3c f3 9c 92 bd
       -0.13439347 -0.021363793 0.008851145 -0.07158842
0000c0 00 1c 8e be b5 69 83 be c8 b3 98 bd f4 ad 06 3e
       -0.27755737 -0.25666586 -0.074561656 0.13152295
0000d0 e7 d8 ad 3d fd c6 30 be cd 5a 67 be d2 f7 a9 bb
       0.084886365 -0.17263408 -0.22593231 -0.005187013
0000e0 dd 71 44 3c 01 2c 95 3d 59 89 b0 3e 16 ef 17 bd
       0.011990038 0.07283784 0.34479788 -0.037093244
0000f0 61 31 97 3e 3d 3b a2 bd e8 3f 0c 3c 62 81 90 3d
       0.2952986 -0.07921455 0.008560158 0.07055928
000100 06 f0 9f 3e 1e f0 60 3d 32 ae 67 bd 3a 68 25 bd
       0.3123781 0.054916494 -0.05656261 -0.0403826
000110 e4 8d 8d 3c c7 ce d6 3e 9f b5 2b be 7f df a1 be
       0.017279573 0.41954634 -0.16768502 -0.31615826
000120 7e bc 0e be f4 b6 81 3e db 39 16 bb 2c 1c ab 3e
       -0.13939092 0.25334895 -0.0022922668 0.3341993
000130 f4 e7 dd bc 82 08 03 be 83 37 56 3e f6 4f 1c 3e
       -0.027088143 -0.12796214 0.20919614 0.15264878
000140 9a c3 7f 3e bc 2e d1 39 e7 f3 12 3f 14 7c 57 be
       0.2497696 0.00039898406 0.57403415 -0.21043426
000150 ec df 71 3d 0c 56 d0 bd bb b8 17 3e d0 c5 90 bd
       0.05905144 -0.10172662 0.14816563 -0.0706898
000160 25 52 93 be 7a 52 8e bd 7b 49 b9 3e 0d d6 af be
       -0.2877361 -0.06949325 0.36188874 -0.34342995
000170 a3 9c 17 be b6 b3 e9 3d 90 9c 71 3d d0 39 79 3d
       -0.14805846 0.1141123 0.0589872 0.06084615
000180 12 6b 52 be 99 70 a5 be 28 13 fb 3d a2 13 9c 3d
       -0.20548657 -0.32312468 0.12259513 0.07620932
000190 59 ba 84 3d cc ae 95 3e 80 60 23 bd ce f6 a3 bb
       0.064808555 0.29234922 -0.03988695 -0.0050037866
0001a0 07 be 9b be df 47 4f be 0f 67 e4 3d c6 f6 20 3d
       -0.30418417 -0.2024226 0.11152469 0.03929784
0001b0 28 45 c3 bd 55 b2 10 bd 30 86 2e 3d cb 26 38 be
       -0.09534675 -0.03532632 0.04260844 -0.17983548
0001c0 2b e3 cc bd f4 b7 d1 be 45 56 4f 3e e3 8d 43 3d
       -0.10004266 -0.40960658 0.20247753 0.047742736
0001d0 32 62 62 3e 52 10 97 3e 44 c3 b5 3e 98 4b 2c bf
       0.22107771 0.2950464 0.35500538 -0.67302847
0001e0 f3 78 26 3e 73 d0 7d be b8 15 f1 3d 3b bd c5 bd
       0.16257076 -0.24786548 0.11771721 -0.096552335
0001f0 6c 6f b6 3b 30 1b c1 bc 9d 20 4b bd 27 76 82 bc
       0.0055674817 -0.023572534 -0.04959165 -0.01592548
000200 66 c1 80 3e ae 3f 8f bd 86 b8 ee bc 9e e2 db bd
       0.2514755 -0.06994568 -0.029140722 -0.10736583
000210 8c ad 84 3e c4 16 eb be 37 aa f3 3d 50 d3 6a 3e
       0.25913656 -0.45915806 0.118977 0.22932172
000220 47 11 3e be 7c 93 dd 3c e2 2c 86 3e 22 32 94 3c
       -0.18561278 0.027047865 0.26206118 0.018090311
000230 eb 87 2e bd d1 8c 2f be fc f9 53 bb 14 7d 22 3c
       -0.04261009 -0.17143561 -0.0032345047 0.009917516
000240 2f 4c e5 be c8 49 fd bd dd 70 50 3d f8 70 9d bd
       -0.44784686 -0.12367588 0.050888885 -0.07687563
000250 bd da 90 3e 91 a0 b5 3e 69 73 e7 be cd 39 da bd
       0.28291884 0.35474065 -0.45205238 -0.10655556
000260 f0 3c b8 bd 00 14 ae be 55 ea c9 3d 3c 1a a7 be
       -0.08995998 -0.33999634 0.098591484 -0.32637203
000270 5b 9f 82 bc b7 31 ab be 29 ea f8 3e 9f 94 61 be
       -0.015945127 -0.33436367 0.4861615 -0.2202935
000280 22 f7 f5 bd f7 f9 25 bb 97 66 b8 bc bd 63 9e 3e
       -0.120100275 -0.0025325993 -0.022509856 0.3093547
000290 7a 5f 21 be 09 56 9f be 8e a2 a1 3d d5 ac a7 3e
       -0.15759078 -0.31120327 0.07892333 0.32749048
0002a0 a4 03 2f 3e c7 17 eb bc ca 64 5c 3c ce 54 47 be
       0.17091233 -0.028697861 0.013451764 -0.19465944
0002b0 ea cf a2 bd 04 25 46 3e b1 a6 ee bd 15 ea 9a bd
       -0.07949813 0.19350058 -0.116528876 -0.07564179
0002c0 65 ee d9 be cd 98 45 3c 51 1b e5 3c fa a3 6f 3c
       -0.42564693 0.012060356 0.027967127 0.014626497
0002d0 90 a2 84 be f3 d2 58 3d ec 26 84 3e 1e 0a 3b bf
       -0.25905275 0.05293555 0.25810945 -0.7306231
0002e0 ce b0 56 3e d3 52 5a 3e 09 da 85 3d a3 2e 60 be
       0.20965883 0.21320657 0.065357275 -0.2189279
0002f0 8c 11 18 3c c9 79 78 3e 7a b6 14 bd 75 39 0e 3e
       0.009281527 0.24265207 -0.036306836 0.13889106
000300 f6 bc ab 3e b6 da 3e 3d 54 78 a6 bd df 0a be be
       0.33542603 0.046595298 -0.081284195 -0.3711767
000310 85 85 33 be 59 1d 92 3e f3 b0 ac 3d 60 0a 29 3b
       -0.17531402 0.28538015 0.08432188 0.0025793537
000320 7e 14 92 3d f8 e5 32 bd 62 5c 93 3c d1 07 5f 3d
       0.07132815 -0.043676347 0.017988387 0.054450814
000330 d1 cf 74 3d 3b a1 ed bd f6 20 43 bd a0 02 57 3e
       0.0597685 -0.11603018 -0.047638856 0.20997095
000340 29 2e 26 bd 50 7d 9b 3e 1e 51 75 bd 5d 57 1c be
       -0.040571366 0.30369043 -0.059891813 -0.15267701
000350 08 6f db 3d 7e b5 50 3e 10 68 2d be 61 b8 14 bc
       0.10714537 0.20381734 -0.16934228 -0.0090771625
000360 1d 56 11 3e d5 2c 44 3b 9b 62 cd bd f0 65 03 be
       0.14193006 0.0029933949 -0.10028573 -0.12831855
000370 55 65 87 be 21 64 09 3d 62 8b 97 bd 2a d4 4d bd
       -0.26444498 0.033542756 -0.07399632 -0.050251164
000380 29 46 e4 be 20 dc e7 bd d0 ad 95 bd 2b 9f 58 bd
       -0.44584778 -0.113212824 -0.07308543 -0.05288617
000390 77 14 62 be 54 83 86 3e c4 03 b3 be e5 b5 85 3e
       -0.22078119 0.2627207 -0.3496381 0.26115337
0003a0 74 41 80 bc 1d f1 2f 3d 8b a8 68 3e 71 be 85 be
       -0.01565621 0.042954553 0.22720544 -0.26121858
0003b0 8a 0e 53 be e2 c5 04 3f 47 c3 1d bd 22 91 38 3d
       -0.20611015 0.51864445 -0.03851631 0.045060284
0003c0 11 cd 36 3e a7 be 92 be 05 c7 06 bd 0d 69 06 bd
       0.17851664 -0.2866108 -0.032904644 -0.032815028
0003d0 79 4b af bd da f0 7d be d6 0e 1a 3e a1 30 6d be
       -0.08559317 -0.24798909 0.15044722 -0.23163082
0003e0 2a 24 3d 3d 94 ef 86 3c 41 4a a5 3d ea 08 8b 3d
       0.046177067 0.016471662 0.080708034 0.067888096
0003f0 67 57 a6 3e e1 2f cc 3d 05 7f 85 bd 73 93 70 be
       0.32488558 0.0997007 -0.06518368 -0.23493747

linear2.bias f4 [3]
000000 61 f2 2f 3e 72 2f 09 be 8e 86 3e be
       0.17182304 -0.13397005 -0.18606016
