model/model.pth (torch, 16799 bytes, 4 tensors)

linear1.weight f4 [256, 11]
00000000: b010 093d 7857 2cbe e484 e93e ed20 393d
00000010: 08a8 9bbe b8c4 103e 9a73 663d 2f51 8b3c
00000020: 239e 34be 6a98 803d b487 7fbc c01a 3fbe
00000030: 27b7 2fbe e70a 0e3f ccd2 83bd 1529 783d
00000040: db9e 8d3e f174 943e 8726 35be a3da 0bbe
00000050: 34db 053e 974b 293d e5af 933d fe3e 073d
00000060: 05be 9ebc 4cdf 473d 05a3 25bd f1d3 593d
00000070: bee0 3fbe e32b 1ebc 3b4a 57be f31c 61be
00000080: b1ae e1bd e47c 68bd 6141 2f3e 07ed bf3e
00000090: 5a66 ec3d b04e b33c 1866 acbd 92bf 3a3d
000000a0: b0c6 343e 1cb5 23be 2bfc 7c3e 99e8 9c3d
000000b0: c1ea 9b3e d502 8cbe a9c6 7c3d c76b 21be
000000c0: 5224 f1bd 9606 463e 09a1 d6bd f1d2 bbbe
000000d0: a74b 02bd 6d20 20be ee25 583e cad1 debd
000000e0: ace9 093d 2606 033e 3da4 203c da0c b33e
000000f0: 5fb9 05be b719 533e c94e b1be 9326 9fbe
00000100: 9207 be3d c254 a3bd 20cc a2be bb89 bbbd
00000110: fe12 77be 2a5c b4bd 4a02 12bd eec0 90be
00000120: 041b fc3d 7cc5 a13d 1077 3c3d f4a4 c93c
00000130: cfef 9e3e 7f76 38bd 0d63 e03d 8fdd 8ebc
00000140: 96db e9bd 0391 ad3c 2d12 6f3d dfcc 123e
00000150: 50fb 67be 271d 82bd c0a0 64be f191 543d
00000160: bf17 ba3d 2c74 a5be cc6b 123f 4eea 96be
00000170: 138b debd ca91 85bd 54dc 43be 9b6d 3f3e
00000180: 5a4b aa3e 04bf 59bd 2b3c ffbd dab4 a3be
00000190: 716d e73e af07 2ebe 9a48 29be 94ed 6f3d
000001a0: b46c 74be 599d 81be 69f0 9d3d b904 febd
000001b0: 717b ddbd 2280 83bd 38a6 58be 524d c8be
000001c0: 4d2f 8cbe 64f8 27bd 9edb 9abe 0a7c abbe
000001d0: 3928 14be eae7 33bd 1b3f 66bd 6ff0 c03e
000001e0: a950 113e d753 093e 3377 1ebe 8a31 be3e
000001f0: 3175 89be af80 013d 5a49 363e d388 9dbd
00000200: b7a6 113e 7ee4 fcbe 6dc6 dcbe 8310 d43c
00000210: c6d7 623d bc76 a83e f6c4 fb3d 7d8d 533e
00000220: 68c6 35bd 7f66 8fbe 92b1 073d af3c a4be
00000230: f7d2 71be 676d 9c3c dc97 15be 183d 5b3d
00000240: cbc1 f83d 67c5 81be a9ba 3b3d be5e c23d
00000250: 8a24 623e 098c dfbe 56a0 a0be a3e4 c73d
00000260: 6940 04be cf7f 36be 02e3 febd f09f f13d
00000270: 0c8c c6bd 2e6f 8bbe 5880 05bd 6071 e5bc
00000280: 0933 413e a7b5 68be f202 49be f64f d7bd
00000290: d8f5 1fbe 59c9 b03e 2c82 e03e 3973 e03e
000002a0: de1b 443e 8179 4b3e f5d1 4abd 5c4c a53d
000002b0: 10da 06be b8e0 933e cad2 213e fdcd 533e
000002c0: 0f64 aa3e eb9b a2be 9ee0 03be 5340 893e
000002d0: 561b 853e 855b 033e 7137 5b3e 3d2a 413e
000002e0: 8123 0abe 7a68 053e 3fde 22bd 6677 efbd
000002f0: ca77 2e3f c06c 3cbe 152f 18be cce2 94be
00000300: 05fe b6bc 3f78 c6be 0131 2cbe f485 78be
00000310: 4333 4a3e 0d92 7ebd e050 8cbe a7ac 113f
00000320: c9dd cf3b 91d6 223e 1be2 2dbe 2182 4d3e
00000330: eab3 3bbe 4c57 05be 1f43 79be b3c4 5dbc
00000340: 2185 c63c 4e9e da3e c6dd 043f b08b d53d
00000350: 4f08 483e ef72 633e 373b 85bd 1df6 a5bc
00000360: 7130 ddbd 0dd3 833e 6d22 753e f265 febd
00000370: 6a07 f2bd 2409 4f3e 115c 1e3e 5137 34bd
00000380: 1a61 203c 2664 1cbe 07a2 9f3d e78c 14be
00000390: 43d0 6bbe a4ce 62bd c1e4 adbd 758f 6b3d
000003a0: 257a cebe 87fe 9e3e b0dc 36be d67d 38be
000003b0: 2c48 3d3c 4366 c9bd 156f 0e3e 90b4 6b3e
000003c0: d51f 20bd a7d8 2c3d 8c37 d43e 3e07 083f
000003d0: bec1 203f 5b51 543e 897f 933e 12a4 843e
000003e0: 6d10 263e c57c 113e a92d 5b3c 21fe 083e
000003f0: 265b 46be 0a1d 473d 4dc1 29be 428d d0bd
0.03346318 -0.16830242 0.456092 0.045197416 -0.30401635 0.14137542 0.05626259 0.017006485
-0.1763845 0.06279071 -0.015596319 -0.18662548 -0.17159711 0.55485386 -0.06436691 0.060586054
0.2766026 0.2899547 -0.17690478 -0.13657622 0.130719 0.041331854 0.072112836 0.03301906
-0.019377718 0.048796937 -0.04043867 0.05318064 -0.18738076 -0.009654018 -0.2102441 -0.219837
-0.11019648 -0.05675973 0.17114784 0.37485525 0.115429595 0.021888107 -0.0841791 0.045592852
0.17653918 -0.15987056 0.2470557 0.07661552 0.3045254 -0.2734591 0.061712895 -0.1576377
-0.11774506 0.1933845 -0.10479934 -0.36684373 -0.03181043 -0.1563737 0.21108219 -0.10879858
0.033670112 0.12795314 0.009804782 0.34970742 -0.13058995 0.20615278 -0.3463042 -0.31084117
0.09278788 -0.07975151 -0.3179636 -0.091571294 -0.24128339 -0.088066414 -0.035646714 -0.28272194
0.1230984 0.07898995 0.046011984 0.024614789 0.31042334 -0.04503488 0.109563924 -0.017439632
-0.11418836 0.021187311 0.058366943 0.14335965 -0.22654462 -0.063532166 -0.22326946 0.051896993
0.090865605 -0.32315195 0.57195735 -0.29475635 -0.1086637 -0.06521948 -0.19127017 0.18694155
0.33260614 -0.053160682 -0.12462648 -0.31973916 0.45200685 -0.16995119 -0.16531602 0.05857618
-0.23869592 -0.2531536 0.0771187 -0.124032445 -0.1081456 -0.06420924 -0.21157157 -0.3912149
-0.27379838 -0.041008368 -0.3024568 -0.33493072 -0.14468469 -0.043922342 -0.056212526 0.37683436
0.14190926 0.13410889 -0.15475158 0.3714717 -0.26847222 0.031616863 0.17801419 -0.07692113
0.14223753 -0.49393076 -0.43120137 0.02588678 0.05538156 0.32903087 0.12293427 0.20659442
-0.044378668 -0.28007886 0.03312833 -0.32077548 -0.23615633 0.019095136 -0.14608711 0.05352506
0.12146338 -0.2534592 0.04583231 0.09490727 0.22084251 -0.43661526 -0.31372327 0.09760406
-0.12915196 -0.17822193 -0.12445642 0.11798084 -0.096946806 -0.2723326 -0.0325931 -0.028008163
0.18867125 -0.22725545 -0.1963003 -0.10513298 -0.15621126 0.34528616 0.43849313 0.43837908
0.19151255 0.19870569 -0.049516637 0.08071205 -0.13169122 0.28882384 0.15803066 0.20684047
0.33279464 -0.3175958 -0.12878653 0.26806888 0.25997418 0.1282788 0.21407868 0.18863769
-0.13490106 0.13028136 -0.03976273 -0.11692695 0.68151534 -0.1840086 -0.1486171 -0.29079282
-0.022337923 -0.38763615 -0.16815569 -0.24269849 0.19746117 -0.062151004 -0.27405453 0.5690407
0.0063435775 0.15902163 -0.16980784 0.20069171 -0.1833035 -0.13021582 -0.24342011 -0.013535666
0.024233403 0.42698902 0.519009 0.10427034 0.1953442 0.22211812 -0.06505435 -0.020258958
-0.10800255 0.25746956 0.23938914 -0.12421788 -0.1181782 0.2021833 0.15464808 -0.043998066
0.009788776 -0.15272579 0.07794576 -0.14506875 -0.23028664 -0.05537285 -0.08490897 0.05750986
-0.40327564 0.31053564 -0.17857623 -0.18016753 0.011552852 -0.09833958 0.13909562 0.23018098
-0.039092857 0.042198803 0.4144863 0.5313605 0.6279563 0.2073416 0.2880824 0.25906426
0.16217203 0.14207752 0.013377585 0.13378192 -0.19370708 0.04861168 -0.16577645 -0.10183193

linear1.bias f4 [256]
00000000: f075 c6be 5c62 6cbd 7b4a 083e 03c2 4f3e
00000010: 5ccc e8bd 330f 97bc d505 893c f536 80be
00000020: f991 063e c08e 6cbc af32 d53d 7f3f d53d
00000030: c5f5 163e 74ae 41bb c6d2 ebbd 27d4 173d
00000040: d0d5 a7be 3379 933e 1fb2 9e3e f2c1 96bd
00000050: e311 46be 61ee 6e3e d9e9 353e c56f 58be
00000060: b2dd 27be a098 733e bb73 883e 1e91 fabc
00000070: 14d3 80be bf47 37be e33b 883e ecd8 ef3b
00000080: 26af 50be e813 8ebe 5b2f 313e 70f4 eeba
00000090: 55df 063d ffcc 233e 5344 0cbd 4fd0 99be
000000a0: 6176 833e f815 0bbe 6187 2e3d e46c dcbc
000000b0: 2b28 15be 7f72 543e c64a 193e 1e21 9fbe
000000c0: e634 743e 302d c3bc a2f8 393e 14ea 10be
000000d0: 698c 103e 7493 25be 6c47 3cbe aad7 ec3d
000000e0: 1029 a6be cce6 33be f527 0bbe 0c68 e5bc
000000f0: 46c2 a7bd ff9c 0ebe 5963 94be b4a7 64bd
00000100: a0fa 133e 84e6 503e 94a8 b33e 1b5b 423e
00000110: 8784 05be e665 e43b 4177 c63c 1def 863d
00000120: 3a58 80be 50e5 853d 5f37 9cbd 791b 293e
00000130: 4fd6 c23e 9367 9cbe 69aa a0bc a4ef f3bd
00000140: 747a c03d 65d1 3ebe ebe2 6fbe f1bb 8a3d
00000150: 03c0 9a3c 2287 23be bfc4 3c3d b4cd 1dbe
00000160: 0fac 29be c860 7a3d 76dd 0dbe 9611 aabe
00000170: 5e89 c23d 1313 3dbe 2b05 393d e48c 903d
00000180: 0d26 983e a2c4 033e 309e af3d fa0c 7f3e
00000190: 2426 b5be 8839 96bd 3180 02be 3eea a8bd
000001a0: c114 8dbe f244 b73d 2414 e5bd e1c8 2a3e
000001b0: dd87 34be 1119 a23d a1e4 fb3d bef1 56be
000001c0: 9509 673e 1ad1 a83e 627e 293e 4a23 25be
000001d0: c934 01bd ce7b 333d 98ab e4ba 7de7 edbd
000001e0: 3fad 02bd 423b 83be 78ee 8c3d 526a 863e
000001f0: e0f9 c9be 68cd 36bd 5f74 853e 1166 933e
00000200: 8f5f 7bbe 0152 80be 3a8c e03c 5c6e 10be
00000210: 39a7 7a3d 056e 203e afcc 89bd d37c 74bd
00000220: a56f 62bd 346b 983e 3ab7 67be dc23 873d
00000230: a9eb 73be a2cb 623c 8da5 013c 98d3 8ebe
00000240: 1888 0dbe 774f 3cbd 524d 05bd f613 3fbe
00000250: 3fc2 193e 94b8 13be c97e debd 7454 98be
00000260: e7a1 36bb d515 2a3e 08f4 b0bd 3f38 853e
00000270: 74aa 20bb f7f2 893e 521c 29bb 102a 493e
00000280: 5885 3a3e 4623 833e d1db 4cbe ac81 95bd
00000290: 0cc9 0abe ced3 313e 676e 9cbd 57e7 393d
000002a0: ff5a 3c3d a394 4e3e 58db 71be 9574 78be
000002b0: 5f48 06be f027 1d3e fc4d 8fbd d89f 623e
000002c0: 314a 86be 0d6d 24be bbf8 c8bd 2056 d7bc
000002d0: c85e 0039 8d8e 1d3e 0dfb 9ebe 67b6 f9bd
000002e0: 7cf4 b8bd e4a6 423e c91b 8d3e eaef 21be
000002f0: baa1 a4bd 4729 1fbe 1b45 53bd 35f8 773e
00000300: af26 d3bd 7d6a a6bd 2b8d 58be 51b0 0a3e
00000310: 3e17 87be 2045 073e 083a 043e ca6f aebe
00000320: 8714 f73d e60b 63bd 7434 ae3d bfdc d53d
00000330: e546 e2bd f571 54be 3d01 7d3e f430 b6be
00000340: 7319 3fbc dd6c 933e aa27 623e d65a ccbd
00000350: 253a 51be c333 713e ed1a 6abe bd2f 2c3e
00000360: 776e 7bbe 94c8 5abe 4f52 2ebe aff4 f2bd
00000370: ee1e 633d 548d 55be 140e 47bd c721 2dbe
00000380: 1c67 90bd e782 4a3d f622 c73d 4086 593d
00000390: 6fd7 88bd f0ff dfbc 2243 3a3e f123 cbbd
000003a0: 2b89 02ba 450c c33e f877 4a3e 5966 debc
000003b0: 84ac 0e3d 05a9 a93d 0cd3 d83d e32f 563e
000003c0: 219c 7c3d 3ecc 43be c221 593c c03a d9bd
000003d0: 00e8 833e 7371 5c3e b3e2 153e eeff 48be
000003e0: a734 8dbc e3ed b8be 79a6 e1be 4cea 9cbe
000003f0: 6504 77be f568 743d a388 8cbe 56a4 333d
-0.38761854 -0.05771099 0.13309662 0.20288853 -0.113671035 -0.018439865 0.016726414 -0.2504193
0.13141622 -0.014438331 0.10410058 0.104125015 0.14742191 -0.0029553445 -0.11514811 0.03706756
-0.32780313 0.28803405 0.3099527 -0.07361211 -0.1934276 0.23333122 0.17764987 -0.21136387
-0.16393164 0.2378869 0.26650795 -0.030586775 -0.2516104 -0.17898463 0.2660819 0.0073195603
-0.20379314 -0.27749562 0.17303221 -0.0018230807 0.03292783 0.15996169 -0.034244847 -0.3004174
0.25676253 -0.13582599 0.042609576 -0.026907392 -0.14566104 0.20746802 0.1496993 -0.31079954
0.23848304 -0.023825258 0.18161252 -0.14151794 0.14116062 -0.1616953 -0.1838662 0.11564572
-0.32453203 -0.17568511 -0.13589461 -0.028003715 -0.081913516 -0.13927077 -0.28982046 -0.055823997
0.14451075 0.20400435 0.35089552 0.18980066 -0.13038836 0.006970155 0.024226787 0.06588576
-0.25067312 0.065378785 -0.07627749 0.16514386 0.3805413 -0.3054777 -0.019612508 -0.11910942
0.09398356 -0.18634565 -0.23426406 0.06774128 0.018890386 -0.15969518 0.04608607 -0.15410501
-0.16569541 0.061127454 -0.13854012 -0.33216542 0.09498857 -0.18464307 0.045170944 0.07058123
0.2971653 0.12867978 0.08575094 0.24907294 -0.3538066 -0.07335192 -0.12744214 -0.08247803
-0.27554896 0.08948697 -0.11185482 0.16678192 -0.17629953 0.07914937 0.12299467 -0.20990655
0.22562249 0.32972032 0.16552117 -0.16126743 -0.03154448 0.04381924 -0.0017446158 -0.116164185
-0.0319035 -0.25631148 0.06881422 0.2625299 -0.39448452 -0.044629484 0.26065347 0.28788808
-0.24548171 -0.25062564 0.027410615 -0.14104599 0.061194632 0.15666969 -0.067284934 -0.059689354
-0.055282254 0.2976929 -0.22628489 0.065986365 -0.23820366 0.013842495 0.007913006 -0.27895808
-0.13821447 -0.04597422 -0.03254444 -0.18659958 0.15015505 -0.1442588 -0.10864026 -0.29751933
-0.0027867497 0.16609891 -0.08640295 0.26019475 -0.002451566 0.2694318 -0.0025804234 0.19644952
0.18214929 0.2561285 -0.20005728 -0.073001236 -0.13553256 0.17365953 -0.07638245 0.04538664
0.04598522 0.20173888 -0.23618829 -0.24263223 -0.13113545 0.15347266 -0.06997296 0.22131288
-0.2622848 -0.16057225 -0.098130666 -0.026286185 0.0001224234 0.1538641 -0.31050912 -0.121929936
-0.09031007 0.19008976 0.2756026 -0.15814176 -0.080386594 -0.1554309 -0.051579576 0.24215777
-0.10310113 -0.0812578 -0.21147601 0.13543822 -0.2638492 0.13209963 0.12912762 -0.34069663
0.12064462 -0.05543127 0.085060984 0.104424946 -0.11048678 -0.20746596 0.24707504 -0.35584223
-0.011663782 0.28793994 0.22085443 -0.09978263 -0.20432337 0.23554902 -0.22861834 0.16815086
-0.24553858 -0.21365577 -0.17023586 -0.11863076 0.05544942 -0.20854694 -0.04859741 -0.16907416
-0.070509166 0.049441244 0.09723465 0.053106546 -0.06681716 -0.02734372 0.18189672 -0.09918965
-0.0004979546 0.38095298 0.19772327 -0.027148413 0.034832492 0.08284191 0.10587129 0.20916705
0.061672334 -0.19120881 0.013252677 -0.10606909 0.2576294 0.21527652 0.1463726 -0.1962888
-0.01723702 -0.36118993 -0.4407232 -0.30647504 -0.2412277 0.059670407 -0.27447996 0.043857895

linear2.weight f4 [3, 256]
00000000: 7f2d b13c 94ad 933e ca63 0abd c13e f8bb
00000010: b956 8abd 48b6 b4be 94b4 643e b61a 363d
00000020: 155f 26be 33b3 063d b394 ac3d c0a3 d9bd
00000030: 21d2 0abe c5e6 4e3d 1960 c1bc 0c67 00be
00000040: 8fe3 0bbe 86b4 9a3d a476 383e 2b36 6abe
00000050: f876 16bc 86d6 d8bc cd7d ebbd 0017 febc
00000060: 221f 24bd a3b7 753e 24eb 51be 6616 30be
00000070: 9274 eebb cdf1 9d3d 503d 59be c67e d73c
00000080: 30a4 e13c f99c f63d d1ec 81bd d7e4 99be
00000090: 0b5d eebc 6624 1dbe 928c 273d 802b 95bd
000000a0: 0070 c13d f814 b5bc 8d76 553d 0549 39be
000000b0: aeed 34bc c7ef 1bbe 6553 f6bd 6449 343c
000000c0: 04da 32be 3b43 afbe 74c1 9abd 2b6b ffbd
000000d0: 616c 093e ea15 ab3c 3167 80be 8d55 643d
000000e0: ab44 66be 1a96 b33c 4b4b 8c3d 06c0 6cbe
000000f0: 81c5 4cbc 8b67 023e a4a6 3c3e f0b7 0bbe
00000100: dcbd de3d 7648 8cbd 26e4 783e 6065 b0bd
00000110: 99ef cebd 2e85 113d 973b 1e3e 28b3 d3bd
00000120: b489 873c a3db 01bd 7807 043d ba75 fdbc
00000130: 9d0a 8dbe 988c a8bb 47ef 51bd 980a c53d
00000140: d869 65be 9d8a 22be ef79 a4bd 937b 85bd
00000150: f79a a3bd 251e da3c b10f 173e 8c84 103e
00000160: 6a9d e53c a483 973c ade2 6abe 6bb9 cc3b
00000170: d8d7 34bd 5e15 4e3c f1a9 13bd 88c3 7ebe
00000180: 845d 0ebe 9692 87be fb9e 81bd 0200 ee3c
00000190: 8e57 de3c 0095 ca3d 3286 de3d 5295 553b
000001a0: 5e0b 72bc 23e4 debc c133 54bd 6fcd 7dba
000001b0: 553e 4f3e f293 f03d bc4b bfbd dd74 98be
000001c0: 3a3a b9bd 38a5 5f3e e4de 0c3e e92b 183d
000001d0: 006f fd3d d5ad 2fbe a095 1abe d9bd 8d3d
000001e0: a331 11bd e219 02be 016b 113d db2d aa3d
000001f0: 0738 38bc e338 a43d acb1 033e 61c5 b43d
00000200: b016 56bc 0210 f9bd 1669 733d 89b9 80be
00000210: fb99 283e 3277 16be 31a0 31be 6bfc 45bd
00000220: 2da2 f7bc c49e ccbd 6d87 fdbd 380c 9dbd
00000230: 2358 f9bc 813e e4bd fa97 11be 35cb 88bc
00000240: 4062 5cbe 22c9 af3d 66ef 15be 7d76 0ebd
00000250: 66fd 063e f74e 2c3e 3e0b bc3d 477b 41bc
00000260: 55ed ce3d b8af 06be 363a 953d b8a6 c3be
00000270: 12ce 873d 2dc5 053e 3f12 19be bf76 eebd
00000280: ec5a 1fbe c970 aabd 7002 193b f5a2 4d3b
00000290: 0958 dcbc 6065 053e ab1b a1be 73d9 f7bd
000002a0: 8be2 d3bd e2e6 573e 7332 e03c f6b3 ebbd
000002b0: 6184 eabd f21e 14be 4ce1 8d3c eb92 e43d
000002c0: 8f43 a5bc c661 d4bc d185 bbbd 1e19 70be
000002d0: a4fe 84be ec0c a8ba 5281 323d 9b31 06bd
000002e0: 6840 b83c a8b0 90bc 27b5 f4bd 0e87 d8bd
000002f0: c938 9dbc 09bf 493d 2a05 7abc cb64 74be
00000300: 7ff2 e3bd 328b 56be 43a5 f43d 5c59 febb
00000310: 6f7c 0fbb 1ed5 efbd 985c 5dbd 6b4c 0dbe
00000320: df1c afbc 0f43 d4bd ecce e83c 019f 48bc
00000330: 5cec eb3c 52b2 ca3c 920b 4fbe ab75 d63d
00000340: 3404 113e 5d4e 2c3e 4005 3a3e 855b 3b3e
00000350: 337f 83be 5000 5e39 9482 5d3e 59b8 0c3e
00000360: 85d6 0cbe 7bfd 3b3e df46 e23d 2e77 553d
00000370: 77d2 f4bd 49ed c83d 4c16 0c3e ff51 8f3d
00000380: 20e3 ef3d 3efc 30bd 743c 0dbe 58d6 1e3e
00000390: d3d1 69be 638b 34be 6ada c7bd d330 2c3e
000003a0: 1f93 0dbe a8fd 263e 3fab 38be d6e6 09be
000003b0: 12ca c23d 30e9 473e b6d4 863d 38dc 213e
000003c0: f5b7 44be 375c 603e d857 043e 57be 06be
000003d0: 278b 9b3d 0ad3 30be fa16 e43d fb8e 123e
000003e0: 5935 b2bd aeb5 06bc 2803 1abd 1947 27bd
000003f0: fe6a 58be c0be eebd f4ac 22bd fa0c 87bc
0.02162814 0.28843367 -0.033786573 -0.00757584 -0.06754822 -0.3529532 0.2233451 0.044459067
-0.16247208 0.03288574 0.084267996 -0.10626936 -0.1355672 0.050513048 -0.023605393 -0.1253931
-0.13661025 0.07553963 0.18014008 -0.22872226 -0.009183638 -0.02646948 -0.11498604 -0.031016827
-0.040068753 0.23995833 -0.20499855 -0.17196044 -0.00727708 0.077121355 -0.21214795 0.026305567
0.027544111 0.12041659 -0.06343997 -0.30057403 -0.0290971 -0.15345916 0.040905543 -0.072836876
0.094451904 -0.022104725 0.052115012 -0.18094261 -0.011042995 -0.15228187 -0.12027625 0.011003826
-0.17465979 -0.3423098 -0.075564295 -0.124716125 0.1342025 0.020884473 -0.2507873 0.05574565
-0.22487132 0.02192216 0.068502985 -0.23120126 -0.0124982605 0.12734811 0.18422943 -0.13644385
0.108760566 -0.06849758 0.24305782 -0.08613086 -0.101042934 0.0355274 0.15452419 -0.10336906
0.016545154 -0.031703603 0.032233685 -0.030939925 -0.2754716 -0.005143713 -0.051253583 0.09621161
-0.22403657 -0.1587319 -0.080310695 -0.065177105 -0.079885416 0.026625702 0.1475208 0.14113063
0.028029162 0.018495388 -0.22938032 0.0062476895 -0.044151157 0.0125783365 -0.03605074 -0.24879277
-0.13902861 -0.26479024 -0.06329151 0.029052738 0.027141359 0.09891701 0.108654395 0.0032590223
-0.014773218 -0.027208393 -0.05180717 -0.0009681796 0.20238622 0.11746968 -0.09340617 -0.2977666
-0.09044309 0.2184037 0.13756901 0.03715125 0.12374687 -0.17156155 -0.1509614 0.06920976
-0.035447728 -0.12705186 0.035502438 0.083095275 -0.011243827 0.08018663 0.12860745 0.088267095
-0.013066933 -0.121612564 0.05942639 -0.25141552 0.16464989 -0.14693907 -0.17346264 -0.048336428
-0.030228699 -0.0999122 -0.12379346 -0.07668346 -0.030437535 -0.11144734 -0.1421813 -0.01669846
-0.21521854 0.08583285 -0.14642105 -0.034780968 0.13182601 0.16826998 0.09181832 -0.011809177
0.10103861 -0.13152969 0.072864935 -0.38213134 0.06631102 0.13063498 -0.14948367 -0.11643743
-0.15562028 -0.08322293 0.00233474 0.0031377648 -0.026897447 0.13026953 -0.3146642 -0.12102022
-0.10345944 0.21084169 0.027367806 -0.11508934 -0.114510305 -0.1446493 0.017319344 0.11160835
-0.020173816 -0.025925528 -0.09156383 -0.23447081 -0.25975525 -0.0012821234 0.04358036 -0.03276215
0.022491649 -0.017662361 -0.119486146 -0.10572635 -0.019192116 0.04925445 -0.01526002 -0.23866574
-0.11130237 -0.20951536 0.11945584 -0.0077621173 -0.0021894237 -0.11710571 -0.054043382 -0.13798682
-0.021376071 -0.10364353 0.02841898 -0.012244941 0.028799228 0.024743233 -0.20219257 0.10471662
0.1416176 0.16826768 0.18166065 0.1829663 -0.25682983 0.00021171686 0.21631843 0.13742198
-0.13753708 0.18358414 0.11048674 0.05211561 -0.119542055 0.098108836 0.1368038 0.069980614
0.117132425 -0.043209307 -0.13792592 0.15511453 -0.22833948 -0.17631297 -0.09758456 0.168155
-0.13825653 0.163077 -0.18034075 -0.13466963 0.09511198 0.19522548 0.0658354 0.15806663
-0.19210799 0.21910177 0.12924135 -0.13158546 0.075949006 -0.17268005 0.11137195 0.14312355
-0.087015815 -0.008222027 -0.037600666 -0.04083929 -0.21134564 -0.116574764 -0.039715722 -0.01648568

linear2.bias f4 [3]
00000000: c2a2 dabc 4758 9ebd 3f87 03be
-0.026688937 -0.07731681 -0.12844561
