model/model.pth (torch, 14751 bytes, 4 tensors)

linear1.weight f4 [256, 8]
00000000: e6a6 74be ece9 8cbe 7035 5f3e 0367 eebc
00000010: 4515 f73e c81f 073f efe8 b5be eca9 90be
00000020: 7bc4 0c3f cac2 4b3d 1417 73bd 4fab 15bf
00000030: 49bc 8c3e d38b 35be 1912 c7be b2fd 7ebe
00000040: fad2 a73e f5be d8bd 866b a33e 1cf1 27be
00000050: cead 0cbf 778b 0a3d de08 973d 30c1 963e
00000060: 7029 e83c 8135 4ebe 2553 be3e 3957 c4bc
00000070: 7f1e d9be 1fb6 b33e 92cf 33be a377 b33e
00000080: fb15 b63e 1b46 80be 63ef a53e 41c3 63be
00000090: 21a0 8c3e 8678 25be bc2b d6bd c606 653d
000000a0: daae 293e df14 80bd cc3e 073e 4512 823e
000000b0: 4237 cb3e 577d ba3d 7436 973e c9a6 e43d
000000c0: e83c d0be d57c 863e b8cd 9abd dc59 a13e
000000d0: 92bb bfbe cc03 e23d ef0d ffbc 0c82 9fbe
000000e0: b7f9 7e3e 3f64 a73d 3bb9 33be 55f5 20be
000000f0: 1dfd b33e 25f6 df3e a6c8 7ebe 127c 1fbe
00000100: 2c0d a3be 97bb 93be 0087 a6bb 826d 193e
00000110: 6a13 d8bd 58e5 2fbd bc49 f93d fc29 8c3d
00000120: 6ec3 bdbe 01d3 93be 6e71 61be 47af b0be
00000130: d455 d03e 54dc 1d3f 249e 763e 1776 d33d
00000140: 8072 a73e 589e a3be 5a38 f43e e841 77be
00000150: 5495 6ebe aca9 b4be 76bb 9dbe 07ee db3c
00000160: f983 c03e 48f9 39bf 6203 dd3e e24d 883e
00000170: 42f4 103f 32d0 513e a384 65be b8fd 5cbe
00000180: 7f29 e2bc a375 c1be 0afb ba3e d380 c6be
00000190: 0e16 8f3e e7d9 cebe 8d59 573e 87ec 6e3e
000001a0: 7ecd 11bd c5fe 96be 58e1 14be bc2d fdbd
000001b0: faba 403d b8da 02be 93e0 7abe 7a7b 933e
000001c0: cd16 433e 47ed 0cbd 3346 a8bd 2c9f 923e
000001d0: b5ca 0dbe 6768 31be 6369 033f 3329 593e
000001e0: f55f d63e 22a7 603c a8e2 e43e ed97 f53c
000001f0: f2a4 193f 2865 933e aa6d 773e 3475 31be
00000200: 8429 d23d cbbb af3e 9e39 e53d 6e1f 1b3e
00000210: 0b3c 19be b0e8 abbe 0877 a33e a7db 573e
00000220: 0b82 533e 85df 513d 4650 903e bd20 ab3e
00000230: 6afc 8f3e 665e 92be 15ad cf3e 0861 97be
00000240: ea9e 72be 18e9 80bc f7d4 463e a863 91be
00000250: 50cc 57be 4917 a8bc 7794 a6be a314 383d
00000260: e9e3 c73c 5144 fa3d 6aa1 bf3e 7754 6cbb
00000270: b74d 323e 3811 063e 07b8 cb3e 5761 e43e
00000280: bc05 b5bc 38bb 8b3d 4666 3e3e 35ca fe3d
00000290: 9d88 853e 6b71 ff3e c1dd b1bd 0d6f 89be
000002a0: 15c7 51be 41fe 713d 5744 47be 9dac 2abe
000002b0: 7b68 ab3d d0dc 3bbe e41f 13be eb62 dc3b
000002c0: bcad 03be 5f46 82be 61f9 acbe 4182 6c3e
000002d0: c42c 28be 4244 f93d 6af9 b3be 3674 ae3e
000002e0: cf10 f93d 096c 1ebd 1267 c0bc 591b 253e
000002f0: 309f 163f c91b 823e 24e3 37bb b511 2c3e
00000300: 3907 143f 0e85 dd3d e24d e7be 247e 05bf
00000310: d8d8 6b3e df97 49be bfa0 93be cadf f1bd
00000320: 687f fcbd bedf 9b3d f5d5 4abe 1eee 0f3e
00000330: 3453 9a3e b7d5 c03e 40d0 d13e be9f bd3e
00000340: 9cef 5a3e 9849 08bf 1669 4bbe fb4e 21be
00000350: 7055 abbe 07ae e13e c3fd 35be b6a2 763d
00000360: c8f7 15bd 774e 8cbe f774 2e3d ca14 9bbe
00000370: a3f5 06bf eb94 8dbe 4729 52be 440b 653e
00000380: dbe3 bd3e d6ac 9bbe b603 a03e e60a 3b3e
00000390: ea2d d03e e936 c53e 876f 84be 5a13 023e
000003a0: 5020 31bf 9fe9 38be f94a cbbe 5d21 45be
000003b0: 997e d63e a6e0 c73d 2e9d 043d ed27 4e3e
000003c0: 0286 e33e 9928 ddbe 6b24 8e3e 1965 fabc
000003d0: 8c8a 5f3e 3c40 12be 8588 3c3d 860e 7cbe
000003e0: af34 213e 4482 c5bd 3dc5 aebe 2900 bcbd
000003f0: 91d4 103d 7160 1fbe 8737 a5be 98fd 34be
-0.23891792 -0.27522218 0.21797729 -0.029101854 0.48258415 0.5278287 -0.35529277 -0.2825464
0.54987305 0.049746312 -0.05934818 -0.5846452 0.274874 -0.1772912 -0.38880995 -0.24901465
0.3277815 -0.10583297 0.3191797 -0.1640057 -0.54952705 0.03382441 0.07374738 0.29444265
0.028340071 -0.20137598 0.3717281 -0.023967372 -0.4240608 0.35099885 -0.1755965 0.35052213
0.35563645 -0.25053486 0.324092 -0.22242452 0.2746592 -0.16159257 -0.104575604 0.055914663
0.16570607 -0.06253981 0.13207549 0.25404564 0.39690596 0.09105938 0.29533732 0.11164624
-0.40671468 0.26267114 -0.07558769 0.3151387 -0.37447792 0.110358804 -0.031134574 -0.31153905
0.24899946 0.08173417 -0.17551129 -0.15718587 0.35154048 0.4374248 -0.24881229 -0.15574673
-0.31845987 -0.28854057 -0.005082011 0.1498318 -0.10550578 -0.04294333 0.12172267 0.068439454
-0.37063164 -0.2887192 -0.22015926 -0.34508726 0.40690482 0.6166432 0.24083763 0.10325258
0.32704544 -0.31956744 0.47699243 -0.24146235 -0.23299152 -0.352857 -0.30807084 0.026846899
0.37600687 -0.72646 0.43166643 0.2662192 0.5662271 0.20489576 -0.22413878 -0.21581161
-0.027607678 -0.37785062 0.36519653 -0.3877016 0.27946514 -0.4040062 0.21030255 0.23332416
-0.035596363 -0.2949125 -0.14539087 -0.12362239 0.047053315 -0.12778747 -0.24499731 0.28805143
0.19051667 -0.034405973 -0.082165144 0.28637064 -0.13846858 -0.17324983 0.5133268 0.21207123
0.41870084 0.013711723 0.44704175 0.02997967 0.6001731 0.28788114 0.24162927 -0.17329866
0.10261825 0.34322962 0.1119263 0.15148708 -0.14964311 -0.33575964 0.3192675 0.21079884
0.20655076 0.051238555 0.28186244 0.33423415 0.28122264 -0.28587645 0.4056174 -0.29566216
-0.23693433 -0.015736148 0.19417177 -0.28396344 -0.21074033 -0.020518916 -0.32535145 0.044941556
0.024400668 0.122200616 0.37427837 -0.0036061087 0.17412458 0.13092506 0.3978884 0.44605514
-0.02209746 0.068228185 0.18593702 0.12440912 0.2608079 0.4989122 -0.08684874 -0.26842538
-0.204861 0.059080366 -0.19459663 -0.16667409 0.083695374 -0.18345952 -0.14367634 0.006725659
-0.12859243 -0.25444314 -0.3378401 0.23096563 -0.16423327 0.12171222 -0.35151225 0.34073037
0.12161409 -0.03867725 -0.023486648 0.16123714 0.5883665 0.25411823 -0.002805897 0.1680363
0.5782352 0.10816394 -0.45176607 -0.521456 0.23031938 -0.1968684 -0.28833577 -0.118102625
-0.12328988 0.07611035 -0.1980818 0.14055678 0.30141604 0.3766305 0.40979195 0.37035936
0.21380466 -0.53237295 -0.19864306 -0.15752785 -0.3346362 0.44078085 -0.17772584 0.060213767
-0.036613256 -0.27403614 0.042592015 -0.30289298 -0.5271856 -0.27652678 -0.20523559 0.22367579
0.37087902 -0.304053 0.3125283 0.18265876 0.4066003 0.38518456 -0.2586634 0.12702695
-0.6918993 -0.1805787 -0.39705637 -0.19251008 0.4189346 0.09759645 0.03237646 0.20132418
0.44438177 -0.43195036 0.2776216 -0.030565785 0.21830195 -0.14282316 0.046028633 -0.24614915
0.15742753 -0.09643987 -0.34134856 -0.09179718 0.03535897 -0.15564133 -0.32268927 -0.17674863

linear1.bias f4 [256]
00000000: c8a7 a93e 705a 07bd 3f59 993c de55 693e
00000010: b790 6e3e 8e16 67be 5ea4 af3e 1b84 7f3e
00000020: 2bad a1be a401 b33c fda5 c83d 3c71 e5bd
00000030: 53a9 dfbc 9fe3 9ebe b848 463e 9730 92be
00000040: 1c41 993c 183b d1bc c264 75be 00a0 81be
00000050: f5bc 18bc 075a 52be 6f5b 273d 6e65 5ebe
00000060: 478a 2dbe 80d1 56be f8db d03c 9618 153e
00000070: 82b5 383c 0302 ac3d 6c23 10be 16f7 f83d
00000080: 5bf8 063e 385f 563d 6863 373e f316 923e
00000090: 04d1 8fbe 3e39 99bc d32d c1bd 8134 063f
000000a0: 810f 353e 8b34 0c3e 7496 9b3c 26ed 233d
000000b0: f5d0 0cbe 0277 6c3d fee0 5e3d c7ef 203d
000000c0: 8d1c dcbe 762c 9abe c1ac 56be e55e 553e
000000d0: 6465 fc3e 048a f03d af97 22bc 4a4b 14be
000000e0: 484f 78bd 405f 00be 2637 41be 04b3 dabd
000000f0: 109a 86be bf66 b8bd d769 943d d637 903d
00000100: e1a4 1abe 12dc c33e cafc aabe 7b5a 00be
00000110: 4199 443d 43e0 73bd b0a1 5b3d da9c 04bf
00000120: e8c9 d73d 08cb 8f3e 030f a23e 8f13 edbd
00000130: 8349 133e 86df fbbc fecd 53be aa99 56be
00000140: 03fd 193c bc30 463e c86a aabe 4f97 7cbe
00000150: cb7b 5e3d d08a 193d fc23 9fbe 920d 923e
00000160: 082f f1bd 0195 e03d 2624 0ebe 617d 5a3d
00000170: fede 12bd b9f8 a4be 84cf 403e 05f3 88be
00000180: b91d 18be deb2 4fbe a10d d7bd 9263 bb3d
00000190: 28c8 a7bd b00f 3fbe 22ab 103e 1883 0a3f
000001a0: 2f8c 1abe 60cd 3c3d e8a4 9b3e b27d b2bd
000001b0: 7288 29be 186e 84be 67f3 84be 8831 983d
000001c0: f4f0 db3d 3481 4dbe a162 8e3d fcd9 86be
000001d0: 31db 74bd a7e3 ad3d 1062 aebe 0830 2b3e
000001e0: 406b 033e f2b8 d0be 1c05 3dbe 0a79 a5be
000001f0: b582 ea3b d7bd 80be ca2a 88bd c534 a6be
00000200: fbdd 59bd 3e59 85bc 9568 fdbd 487a 2d3e
00000210: d146 9bbe 8573 03bd fd96 a1bd ea2a 913d
00000220: 7dee ab3e 3c3c f63d 7d1d cabd fdb9 3b3e
00000230: ad58 97be 4e86 99bc 29f6 cb3e 966e 183e
00000240: 2064 cd3e 8099 a43e f943 4dbe a8bc 353d
00000250: 536b a13e 4f00 553e 79aa bdbe 84fc 593e
00000260: d1d3 23bd e69e 9b3e ad32 eb3d 0741 df3d
00000270: 36ef 20be e0aa dcbd c654 e4be 9eea 15bd
00000280: 2284 f03d fe2d 64be cd80 46bd d7a8 01bd
00000290: bd2a 5c3e 962c fc3d 439b 81bb 41ba 1b3e
000002a0: 32d2 2fbe b653 87bd f745 45be 5abd a4bd
000002b0: dd64 0a3e 7a0c 67be 099d 98be d460 4fbe
000002c0: 8052 edbd f01d 39be 57b8 3abe 0760 23be
000002d0: 9f63 943d cc88 a5be 8adf 7e3e e45c 0b3e
000002e0: 9514 053e 36d8 d5bc d486 623e 1676 adbe
000002f0: 2394 4fbe 2e89 053e b068 09be 6edb e5be
00000300: f462 05be fa88 02bd 5d9d d0be 2151 ac3c
00000310: 071b 293e 1d4e 0b3f 9328 143e 64ec a3bd
00000320: 90e0 243e b23b e4bd 5a74 fe3d 6292 343e
00000330: 0b8f a2bd 84e9 8cbe cc3b a1be 9bc4 3fbe
00000340: c924 83be 4404 2b3d aaa3 3abe f17f 52be
00000350: f0e5 58ba ab74 aebe 84fe cabe 885e 823d
00000360: 2b08 7fbe 0be8 80bc 3475 dcbb b46d 4e3e
00000370: 82df 043e db7b bc3e bede edbe 6a0e 52be
00000380: d75f 033d 192b 2cbe 7f13 36be 0856 84bc
00000390: d230 11bc 931d 21bc 8b69 9ebe 8c54 823d
000003a0: b8a5 113c 7cf4 edbd 9f97 a33c c158 f93d
000003b0: 6d08 64be 05b1 e7bd fa04 4f3c d51a 0c3c
000003c0: c0a3 3d3e de12 93be d64a 3a3e 2faa 18be
000003d0: 2a81 9fbd 2436 f0bd 4daa 633c 7b2d cabe
000003e0: 04be 8a3e f30c 263e 65bb 343e 5e11 a1be
000003f0: bb4c 22be 7cc5 6bbe 62ce 373e 2a57 89be
0.3313582 -0.033045232 0.018719314 0.22786662 0.23297392 -0.22567198 0.3430509 0.24952738
-0.3157743 0.021851368 0.09797285 -0.11203238 -0.02730242 -0.31033036 0.19363678 -0.28552696
0.018707804 -0.025540873 -0.23964217 -0.25317383 -0.009322395 -0.20542155 0.040858682 -0.2171838
-0.1694728 -0.20978355 0.025495514 0.1456016 0.011273744 0.08398821 -0.14076012 0.12156503
0.13180678 0.0523369 0.17909014 0.28533134 -0.28089154 -0.018704053 -0.094325684 0.52423865
0.17681696 0.13691919 0.01899264 0.040021084 -0.13751586 0.057730682 0.054413788 0.03929117
-0.42990533 -0.30112046 -0.20964338 0.2083698 0.49296105 0.117450744 -0.0099238595 -0.14481845
-0.060622483 -0.12536335 -0.18868694 -0.10678676 -0.26289415 -0.09003972 0.0724675 0.070419
-0.15101959 0.38253838 -0.33395988 -0.12534516 0.047997717 -0.059540045 0.053620994 -0.51801836
0.105365574 0.28084588 0.31652078 -0.11575996 0.14383511 -0.030746233 -0.20684049 -0.20957056
0.009398702 0.19354528 -0.33284593 -0.24667095 0.054317277 0.037485898 -0.3108214 0.28525978
-0.117765486 0.1096592 -0.13880977 0.053342227 -0.035857193 -0.3222101 0.18829161 -0.2674791
-0.14855088 -0.20283076 -0.105006464 0.09149851 -0.08192474 -0.18658328 0.14127782 0.54106283
-0.15092538 0.0460943 0.3039925 -0.08715381 -0.16555956 -0.25865245 -0.2596695 0.07431322
0.107393175 -0.20068818 0.06952406 -0.26338184 -0.05977935 0.08490687 -0.3405919 0.16717541
0.12833881 -0.40766102 -0.1845898 -0.32318908 0.007156695 -0.25144836 -0.06648786 -0.32462135
-0.053190213 -0.016277906 -0.12373463 0.16941178 -0.30327466 -0.03209259 -0.07890127 0.07088263
0.3358039 0.120232075 -0.09868906 0.18332668 -0.29559842 -0.0187408 0.39836243 0.14885935
0.40115452 0.3214836 -0.20045461 0.04436937 0.31527194 0.20800899 -0.37044123 0.21287733
-0.039996926 0.30394667 0.11484275 0.10901075 -0.15716252 -0.10774779 -0.44595927 -0.0366007
0.11743952 -0.2228317 -0.048462678 -0.03165516 0.21500678 0.123131916 -0.003955276 0.15207769
-0.17170027 -0.066077635 -0.1926497 -0.080439284 0.13515039 -0.22563353 -0.29807308 -0.20251781
-0.11588001 -0.18077826 -0.18234383 -0.159546 0.07245564 -0.3233093 0.24889961 0.13609654
0.12996133 -0.026104074 0.22121745 -0.33879155 -0.20271353 0.13040611 -0.13418841 -0.44893974
-0.13026029 -0.031868912 -0.4074506 0.021034779 0.16514216 0.54416066 0.14468603 -0.08004072
0.16101289 -0.111441985 0.12424536 0.17633966 -0.079374395 -0.27521908 -0.31490934 -0.18727343
-0.25614002 0.041752115 -0.18226495 -0.20556618 -0.00082740095 -0.34073386 -0.39647305 0.06365687
-0.2490546 -0.015735647 -0.006727839 0.20159036 0.12975886 0.36813244 -0.46459 -0.20513311
0.032073822 -0.16813315 -0.17780875 -0.016154304 -0.008861737 -0.009833711 -0.30939898 0.06363782
0.008889608 -0.11618897 0.01996976 0.121751316 -0.22268839 -0.11313061 0.012635464 0.008551319
0.18519497 -0.28725332 0.1819261 -0.1490867 -0.07788308 -0.117290765 0.013895583 -0.39487824
0.27098095 0.16215877 0.1764961 -0.31458563 -0.15849583 -0.23024553 0.17949823 -0.26824313

linear2.weight f4 [4, 256]
00000000: 76a9 b0be 2e1f 953e 0529 d9bd 8aa9 6dbe
00000010: 20c8 fabd f3fb 80bd 4a11 433e a9ce debd
00000020: 9866 ccbc b84b 93be 13df b13d 5670 8fbe
00000030: 3b15 e3bd 787c e3bc c4f4 8e3d 2100 9fbe
00000040: 3973 cc3d 8424 cb3d 3df2 e73c ba13 bfbd
00000050: ef92 0fbe bc6a 8c3d c21c eabc ca59 60be
00000060: b486 913e 8a55 9cbd a1f7 dcbd 9ed2 293d
00000070: 65a4 22be 3250 60be de5c 93bd 516f 0c3e
00000080: efe0 de3d 7ecd 3d3d 0550 703d 8b55 233c
00000090: f335 dcbc efaa 68be 6de4 7bbe d010 a23e
000000a0: c16a 5cbc 8181 6e3e 1ea7 f03d a58b a6be
000000b0: 22e1 91bd 5540 eab9 5635 913e 570d ef3d
000000c0: 1e09 47be f7a8 073d 5eed 81bd 9f56 3dbd
000000d0: 2a67 2f3c 9170 87bc b351 863d 14ff 32bd
000000e0: e984 96bd 77f2 5dbe 10f4 df3d 0234 fcbd
000000f0: 25ca 81bd b864 2c3d 9a20 d6bd 7db2 243c
00000100: 3522 e7bd 3c1a 703e 0254 49be 5729 16be
00000110: 33b0 a2bd d980 6e3e 489b d53d 87f2 4abe
00000120: 7320 26bd de35 7cbd f200 57bd 380f 85bd
00000130: 89d1 98bd 61d4 55bd 989e 8c3d 8661 973d
00000140: 801c 793e f261 55bd 8d9d b1bb 09f1 92bd
00000150: 709e b1bd 1c7b 98bc c5b7 91bd 7184 813e
00000160: 823b a93d 8304 053e fe66 b5bd 4995 05be
00000170: af1b d8bc 129c 41be dcb8 7c3e 8f58 16be
00000180: eeb9 17be f2a5 96bd 06f3 81bd 4af4 5bbe
00000190: fcce 6b3d 93da f2bd 5648 e2bb b8f7 b0bd
000001a0: ce7a 75be ab01 92be 8e81 18bb 4f78 8cbd
000001b0: a34a 8cbd e2c8 5dbd c0cc 513d 026a 84bc
000001c0: 3473 bdbd 7f4e 9ebd 05ec 3fbe 705b b8bc
000001d0: 1430 be3d 9435 c6bd 078e 61bc a100 aebe
000001e0: af31 073d c680 ed3c d2e4 34be 7c96 86bd
000001f0: 6d19 ffbd 7d7e 04be a10c 54be 9ce1 ecbc
00000200: c643 1b3e 2306 863e 6233 b93e 679e 2ebe
00000210: c3f7 04bc b86a 173e 395b 33be b6ac 37bd
00000220: 3ea5 6fbe 442d 5abe 7267 91bc 82e0 f9bb
00000230: 889a 70be 8394 03be 0ea8 0f3e 8f3d 863d
00000240: 302b cf3d 8e5a 093e f2f1 33be 3c2c 8ebd
00000250: 44a1 583d e77b eabd 7777 7ebd a530 d43d
00000260: e4e2 61be 4343 e33c 2179 5fbd a897 213e
00000270: c69b 1c3b 541f bcbd d5b2 613e 3b91 0cbd
00000280: 2158 463d 53ea 9dbe e418 53be f950 8abb
00000290: 38e7 203e f532 47bd ffb0 babd d908 d5bd
000002a0: c8e1 6cbe 681a 22be 027a 68bd d89f a63c
000002b0: f5c4 7ebe 3be2 05bc 7cf5 25bd 2eaa 01bc
000002c0: 318f aabc 9464 2c3c a628 81be 0315 83be
000002d0: 26f8 c93d 6a0a 9cbe 174b e5ba 1502 9dbe
000002e0: 4dfc a33d c048 793e e981 2e3e 4a9f 513d
000002f0: f6b8 90bd 21d4 163d 5875 993c aa2b 2abe
00000300: fdc4 71bc 11ab 21bb 4ec1 90bd 3feb 803e
00000310: 7f3d da3d bda3 9e3e d1d9 e1bd a55d a63d
00000320: 3868 5cbe 3139 073e ab68 1cbe 2a2d b03e
00000330: 7070 a33e 4002 843c 0a43 38be cb2b bdbd
00000340: 01a3 c43c 84ac 2e3d bea6 44bd 6ace 26bc
00000350: 6dea 5b3e f59b 5bbd a3a7 52be f3c6 7a3d
00000360: 08eb f2bc 03d3 42be 7eb3 a5bd f827 d33d
00000370: 2b67 303e f1be a7bd 6b46 d13c 4706 50be
00000380: 1e5a 25be 0fef 703d 2a53 40be c708 b13e
00000390: 9e46 8ebe 09e8 393e 6086 923b f3a3 9f3c
000003a0: f257 b13e addc 933d c7e4 763d 1899 463e
000003b0: 8574 40be 7d13 28bc 921b 663c 7c28 22bd
000003c0: 2aaf 6d3e 6d1e 3fbe 8e71 3c3c e094 38be
000003d0: 0fd6 163c 070e e8bc ef23 72be e525 edbd
000003e0: f44c 4d3e 987a 3dbe 3942 1bbe a58e 0a3d
000003f0: 514c 3b3d 80c8 9fba 4a47 a33c 8fe7 5abe
-0.34504288 0.2912535 -0.10603527 -0.23209205 -0.12245202 -0.062980555 0.19049564 -0.10879261
-0.024951264 -0.28768706 0.08685126 -0.28015393 -0.11088034 -0.027769312 0.06980279 -0.31054786
0.099829145 0.09919074 0.02831375 -0.093299344 -0.14020894 0.068562955 -0.028578166 -0.21909252
0.28423083 -0.07633503 -0.10789419 0.041460626 -0.15883024 -0.21905592 -0.071954474 0.13714339
0.108827464 0.04633855 0.058670063 0.0099691255 -0.026881194 -0.22721456 -0.24598856 0.31653452
-0.0134531865 0.2329159 0.11750625 -0.32528415 -0.07123019 -0.0004467989 0.28361005 0.11672466
-0.19437072 0.03312012 -0.06344102 -0.046225186 0.010705749 -0.016533168 0.06558552 -0.043700293
-0.07349569 -0.21674524 0.10935223 -0.12314607 -0.06337384 0.04208824 -0.10455437 0.010052321
-0.11285821 0.23447508 -0.19660953 -0.14664207 -0.079437636 0.23291339 0.10430008 -0.1981908
-0.04055829 -0.06157481 -0.052491136 -0.06497043 -0.07461841 -0.052204493 0.06866187 0.07391648
0.24327278 -0.05209536 -0.005420393 -0.0717488 -0.08672798 -0.01861339 -0.071151294 0.25296357
0.08263303 0.12990002 -0.08857535 -0.13045229 -0.026380388 -0.18907192 0.24679893 -0.1468222
-0.1481702 -0.0735587 -0.06345181 -0.21479908 0.057570443 -0.11858096 -0.006905596 -0.086409986
-0.23972628 -0.28516898 -0.002327058 -0.068588845 -0.06850173 -0.054146655 0.051220655 -0.01616383
-0.09250489 -0.07729816 -0.18742378 -0.022504538 0.09286514 -0.09678188 -0.013766772 -0.33984855
0.033006366 0.028992068 -0.17665413 -0.06571671 -0.124560215 -0.12938876 -0.20707943 -0.028916173
0.15162572 0.26176557 0.36172014 -0.17052613 -0.008115712 0.14786804 -0.17515267 -0.044842444
-0.23402879 -0.2130633 -0.017749522 -0.0076256404 -0.23496449 -0.12849621 0.14028952 0.0655471
0.10115659 0.1341345 -0.17572764 -0.06942031 0.05288817 -0.11449414 -0.06212565 0.10360841
-0.22059208 0.027742034 -0.054558877 0.15780509 0.002389656 -0.09185663 0.22040875 -0.03431819
0.04842389 -0.30842838 -0.20614964 -0.0042210785 0.15713203 -0.04863258 -0.091157906 -0.10402078
-0.23133004 -0.15830386 -0.05675698 0.020339891 -0.2487982 -0.008171613 -0.040517315 -0.007914109
-0.020820232 0.010522027 -0.25226325 -0.25601968 0.09861784 -0.30476695 -0.0017493692 -0.3066565
0.08007107 0.24344158 0.17041744 0.0511773 -0.070665285 0.036823396 0.018732712 -0.16618219
-0.014756438 -0.0024668614 -0.0706812 0.2517948 0.10656261 0.30984297 -0.11027873 0.0812333
-0.21524131 0.1320541 -0.15274303 0.34409457 0.3192172 0.016114354 -0.17994323 -0.092368685
0.024003508 0.042644992 -0.04801058 -0.010181049 0.21476145 -0.05361553 -0.20571761 0.06122489
-0.029653087 -0.19025807 -0.08090876 0.10310358 0.17226855 -0.08190716 0.025546273 -0.20314895
-0.16147658 0.058821734 -0.18781725 0.3457701 -0.27788252 0.1815492 0.004471585 0.019487357
0.3463741 0.07219825 0.060276773 0.19394338 -0.18794449 -0.010258553 0.014044659 -0.03958939
0.23211351 -0.1866395 0.011501683 -0.18025541 0.009206309 -0.028327001 -0.2364652 -0.115794934
0.20048887 -0.18503797 -0.1516198 0.033827443 0.045727078 -0.0012190491 0.019931454 -0.21377395

linear2.bias f4 [4]
00000000: a2b5 16bc 3790 793d cd70 1f3d b0b3 0e3c
-0.009198578 0.06092855 0.038925935 0.008709833
