model/model.pth (torch, 14751 bytes, 4 tensors)

linear1.weight f4 [256, 8]
0	0xbd990b8a	-0.07472904
1	0xbe75b3de	-0.23994395
2	0x3f06466a	0.52451193
3	0xbde5f7b6	-0.11228888
4	0xbc80044e	-0.015627053
5	0x3ec492ed	0.38393345
6	0x3e918465	0.28421322
7	0xbec5da82	-0.3864327
8	0xbee6ffd9	-0.4511707
9	0xbe0ab3ae	-0.13545105
10	0x3cbe54c7	0.023233784
11	0xbeb81611	-0.35954335
12	0x3ee78647	0.45219633
13	0xbe4a206d	-0.19738932
14	0x3db9d178	0.09073156
15	0xbda6cc36	-0.08144419
16	0xbdf0d686	-0.11759667
17	0xbca02dbe	-0.019553062
18	0xbee1ff56	-0.44140118
19	0x3d8dd92c	0.06926188
20	0x3dab0b90	0.08351815
21	0xbf08c4b6	-0.5342516
22	0x3e58e86c	0.21182412
23	0xbebcb79b	-0.3685883
24	0xbe923a7f	-0.28560254
25	0xbe6ff25a	-0.23432294
26	0xbd29edc8	-0.04148653
27	0xbe3d6255	-0.18494542
28	0xbe873a3f	-0.26411626
29	0xbe97655a	-0.29569513
30	0x3e7a6798	0.2445358
31	0x3decb560	0.11558032
32	0xbeaf0a77	-0.34187672
33	0x3e69870e	0.22805426
34	0xbe5bff34	-0.21484071
35	0x3ecd1231	0.4005294
36	0x3e593bc4	0.21214205
37	0xbe6f72fa	-0.23383704
38	0xbe9c19ec	-0.30488527
39	0x3ec1b819	0.37835768
40	0xbe3c0ad1	-0.18363501
41	0xbd54bc2d	-0.05193727
42	0x3e153eca	0.14574733
43	0xbe9b54e1	-0.30338195
44	0xbf063f43	-0.5244028
45	0xbf0c439b	-0.5479066
46	0xbd3fcfdd	-0.046829093
47	0x3eaa6f47	0.33288023
48	0x3e995e23	0.29954633
49	0xbeee7c18	-0.4657905
50	0x3e11ad51	0.14226271
51	0x3df72c52	0.12069
52	0xbe8ceed7	-0.2752597
53	0x3f060070	0.5234442
54	0xbd9a40c1	-0.07531882
55	0xbe4f3a52	-0.20237091
56	0xbde3ff28	-0.111326516
57	0xbe5861af	-0.21131013
58	0xbe9279b9	-0.28608492
59	0xbe962637	-0.2932603
60	0x3dbe0724	0.09278706
61	0x3c6b9f40	0.01438123
62	0x3deb5b8c	0.114920706
63	0x3e43933e	0.19099137
64	0xbdb46c48	-0.088097155
65	0x3e4906c2	0.19631484
66	0xbe6c9204	-0.23102576
67	0x3e4efcfe	0.20213696
68	0xbe998d13	-0.29990444
69	0xbe9e426f	-0.3091006
70	0x3d97a2e2	0.07404114
71	0xbe44f4d0	-0.19234014
72	0xbe527af5	-0.20554717
73	0x3ef5ff01	0.48046115
74	0x3ecf6e34	0.40513766
75	0x3d9239f7	0.07139962
76	0xbf239ba6	-0.63909376
77	0xbd6087bf	-0.054816958
78	0xbece0da5	-0.40244785
79	0x3e452a6f	0.19254468
80	0xbc839737	-0.016063316
81	0x3e1da125	0.15393503
82	0x3ec72993	0.38898906
83	0xbe8f8d22	-0.28037363
84	0xbe8b7e12	-0.27244622
85	0xbea899f5	-0.3292996
86	0x3e51f852	0.20504883
87	0x3e937e33	0.2880722
88	0xbe7edbc5	-0.24888523
89	0x3e1c94bb	0.15291111
90	0x3e4cb5e0	0.19991255
91	0x3e537aea	0.20652357
92	0x3d7126d1	0.05887491
93	0xbe7a006d	-0.24414225
94	0xbe3f29d3	-0.18668298
95	0xbeacff66	-0.33788604
96	0xbd816aca	-0.063191965
97	0xbd792d65	-0.060834307
98	0xbc603076	-0.013683429
99	0x3d82b55a	0.06382246
100	0x3e558995	0.20853265
101	0x3e35d9df	0.17758892
102	0x3e96aaa8	0.29427075
103	0x3e80f8f5	0.2518994
104	0xbebe3c66	-0.37155455
105	0x3ecac3c0	0.3960247
106	0xbe5fba6f	-0.21848463
107	0xbe56907c	-0.20953554
108	0x3e8d9d16	0.2765891
109	0x3ede8f59	0.4346874
110	0xbeb5218d	-0.3537716
111	0x3e2652b7	0.1624249
112	0xbeab78f3	-0.33490714
113	0xbea0cc49	-0.31405857
114	0x3d90e26c	0.070744365
115	0xbe18c30f	-0.14918159
116	0x3e340c0a	0.17582718
117	0xbe89735b	-0.26845822
118	0xb8eaf000	-0.00011202693
119	0xbe96f083	-0.2948037
120	0xbde14df7	-0.11001199
121	0xbea1b573	-0.31583747
122	0x3d3b27b4	0.04569216
123	0x3e5a36cf	0.2130997
124	0x3ea66f75	0.3250691
125	0x3f04d9cc	0.5189483
126	0xbd85e836	-0.06538431
127	0x3da1a783	0.078932784
128	0xbe88f3c2	-0.26748472
129	0x3f02496f	0.508933
130	0xbeb5cad1	-0.355063
131	0x3ed45ba0	0.41476154
132	0xbf04a018	-0.51806784
133	0x3e013bdf	0.12620495
134	0xbde10693	-0.10987582
135	0xbebd0727	-0.3691952
136	0xbe44ecc7	-0.19230948
137	0xbcc2cddd	-0.023779804
138	0x3e7bee07	0.24602519
139	0xbe19b503	-0.15010457
140	0xbef3001a	-0.47461015
141	0xbf3004fe	-0.6875762
142	0xbdc47d36	-0.095941946
143	0x3eba7f8c	0.36425436
144	0xbde1a9ea	-0.11018737
145	0xbdcf4f0c	-0.10122499
146	0xbe8ea88e	-0.27862972
147	0x3d86bac0	0.065785885
148	0xbc0fbd77	-0.008773199
149	0xbdef4328	-0.11682731
150	0x3dc00540	0.09376001
151	0x3e912942	0.2835179
152	0xbea78edd	-0.32726184
153	0x3e9a92e3	0.3019019
154	0x3d33c81c	0.04389201
155	0xbe83b80e	-0.2572636
156	0x3d4a6fb7	0.049422946
157	0xbeba164a	-0.3634513
158	0x3dd45592	0.10367884
159	0x3e2ee751	0.17080428
160	0xbec41064	-0.38293755
161	0x3ed13eb9	0.40868166
162	0x3d706339	0.058688376
163	0x3dcd513a	0.10025258
164	0xbeb94183	-0.36182794
165	0x3debfb53	0.11522546
166	0xbecddffc	-0.4020995
167	0xbefc2fc9	-0.49255207
168	0xbe5d43b7	-0.21607862
169	0xbe7aa122	-0.2447553
170	0xbe1a09f9	-0.15042867
171	0x3dad1b2c	0.08452448
172	0xbecf903f	-0.4053974
173	0xbeb60647	-0.35551664
174	0xbe1240ce	-0.14282534
175	0x3ec50fb1	0.38488534
176	0xbeeb967e	-0.46013254
177	0xbd2c69d4	-0.042093113
178	0xbd245597	-0.040120687
179	0x3ea79972	0.32734257
180	0xbec5ab88	-0.3860743
181	0xbe84c3a0	-0.259305
182	0x3eb44946	0.35212153
183	0x3d617f54	0.05505307
184	0xbed0a374	-0.40749705
185	0xbd239971	-0.039941255
186	0x3e1508ef	0.14554189
187	0xbe84a937	-0.2591035
188	0x3e3e2ca9	0.18571724
189	0xbd2605f4	-0.04053302
190	0xbe953a66	-0.29146117
191	0xbee07d23	-0.43845472
192	0xbd2f27e4	-0.042762652
193	0xbd2171b6	-0.039415084
194	0xbe96b6ff	-0.2943649
195	0xbdde0037	-0.10839885
196	0xbe84fbe2	-0.2597342
197	0xbe33d617	-0.17562138
198	0x3ebb60cc	0.36597288
199	0x3dd24281	0.10266591
200	0xbe93dd0f	-0.28879592
201	0xbcba4d99	-0.02274208
202	0xbf4037fa	-0.75085413
203	0x3e921e47	0.28538725
204	0xbe676ba9	-0.22599663
205	0xbef8ca42	-0.4859181
206	0x3e32deef	0.17467855
207	0x3d731a6a	0.059351362
208	0xbea604db	-0.3242558
209	0xbe0e2ad4	-0.13883525
210	0xbe82dee2	-0.2556067
211	0xbca4bbf0	-0.020109147
212	0x3e73c376	0.23805031
213	0x3e8e4155	0.2778422
214	0xbe57a8a2	-0.21060422
215	0xbeaac7cf	-0.33355567
216	0xbdf4d846	-0.119553134
217	0xbd7425c1	-0.059606317
218	0x3d5f659e	0.05454027
219	0xbe1d9f9a	-0.15392914
220	0x3e43631f	0.1908078
221	0x3e7bc71c	0.24587673
222	0x3ec99c72	0.3937717
223	0xbe0b8dff	-0.13628386
224	0xbba962b3	-0.0051692366
225	0xbeb15cdd	-0.34641162
226	0xbc523c92	-0.012831824
227	0xbe9178aa	-0.28412372
228	0xbeb78f8f	-0.35851714
229	0x3e7feef5	0.24993499
230	0xba3c8ab8	-0.00071923016
231	0xbdc08939	-0.09401173
232	0x3dcd196c	0.100146145
233	0xbeb13478	-0.34610343
234	0x3ea46976	0.3211171
235	0x3f0cd0a7	0.5500588
236	0xbea03f32	-0.31298214
237	0x3e090142	0.13379386
238	0xbe525b7f	-0.20542715
239	0xbd687c96	-0.05675944
240	0x3ce47aee	0.027890649
241	0xbe40cf55	-0.18829091
242	0xbdc8c8d3	-0.09803929
243	0x3ea07402	0.31338507
244	0xbe142897	-0.14468609
245	0x3e562592	0.2091277
246	0x3ed03bec	0.40670717
247	0x3df3d631	0.11906088
248	0x3c32d9c9	0.010916182
249	0x3db02ad5	0.086019196
250	0x3e855f91	0.26049474
251	0x3e003900	0.12521744
252	0x3d596075	0.053070504
253	0xbe4d2dfc	-0.20037073
254	0xbd36e629	-0.04465309
255	0x3ec0da05	0.37666336

linear1.bias f4 [256]
0	0xbe0559e8	-0.13022578
1	0x3d4b988c	0.049706027
2	0x3e610645	0.21975048
3	0xbe93176e	-0.28728813
4	0xbe83bf9f	-0.25732133
5	0x3d9ce0a2	0.07660033
6	0xbda6ff76	-0.08154194
7	0xbeb06053	-0.3444849
8	0xbe639b30	-0.22227168
9	0xbcd73ef9	-0.026275145
10	0x3e250f8c	0.16119212
11	0xbeee80f1	-0.4658275
12	0xbeda76d8	-0.42668796
13	0x3d45aedd	0.048262466
14	0xbe948e60	-0.29014874
15	0xbe2b7ba0	-0.16746378
16	0x3e9787c0	0.29595757
17	0x3e719222	0.23590901
18	0xbe5defb4	-0.2167347
19	0xbc612514	-0.01374175
20	0x3d3c802e	0.04602068
21	0xbdcbde0b	-0.09954461
22	0xbe6d2de9	-0.23162045
23	0x3e0ed6dc	0.1394915
24	0xbe02d016	-0.12774691
25	0x3e661684	0.22469527
26	0xbe8f6afd	-0.28011313
27	0xbe9be84a	-0.3045066
28	0x3deffd4a	0.11718233
29	0xbe99bdbd	-0.3002757
30	0xbd94d43a	-0.072670415
31	0xbe4a18c2	-0.19736007
32	0x3c6104ce	0.013734056
33	0x3e212bd5	0.15739377
34	0x3e1dfbc4	0.15428072
35	0xbdf65fd6	-0.12029998
36	0xbeaeeb56	-0.34163922
37	0xbeae4722	-0.34038645
38	0xbe606704	-0.21914297
39	0x3e0b49f8	0.13602436
40	0x3e443212	0.19159725
41	0xbc1821b3	-0.009285378
42	0xbf1216e0	-0.57066154
43	0xbe907c36	-0.28219765
44	0x3c53b379	0.012921208
45	0xbe05d386	-0.13068971
46	0x3e37cbc5	0.17948826
47	0xbe238145	-0.15967281
48	0xbde7544a	-0.11295374
49	0xbe9cfc10	-0.30661058
50	0x3f10e95c	0.5660608
51	0x3ef5a25e	0.4797544
52	0xbe3ce57f	-0.18446921
53	0xbe709914	-0.23495895
54	0xbe822708	-0.25420403
55	0xbe24c882	-0.16092113
56	0xbe8405dd	-0.25785723
57	0xbe2218e0	-0.15829802
58	0xbed13459	-0.4086025
59	0xbe861095	-0.26184526
60	0x3e591a4f	0.21201442
61	0x3e3c53e0	0.18391371
62	0xbde17074	-0.11007777
63	0xbe2c15ec	-0.16805238
64	0xbdf0146e	-0.11722647
65	0xbe3bf95c	-0.18356842
66	0xbe691b01	-0.22764207
67	0xbe4a24a4	-0.1974054
68	0xbdcc28d8	-0.09968728
69	0xbc46d17c	-0.012134906
70	0xbe7003b6	-0.23438916
71	0x3d584e3a	0.052808978
72	0xbde0465b	-0.10950919
73	0xbe847ae7	-0.25875017
74	0xbe604410	-0.21900964
75	0x3cf5080d	0.029911065
76	0xbdb68310	-0.08911717
77	0x3ccd18ef	0.025036303
78	0x3e63881f	0.22219895
79	0xbe983156	-0.2972514
80	0xbed8cc06	-0.42343158
81	0x3d34ac7b	0.044109803
82	0xbc3d0620	-0.011537105
83	0xbea90670	-0.33012724
84	0xbe4ea254	-0.20179111
85	0x3dc56bce	0.09639703
86	0xbe4057af	-0.18783449
87	0xbd996b84	-0.0749121
88	0xbe15e992	-0.14639881
89	0xbc6ba336	-0.014382174
90	0xbdd76888	-0.10517985
91	0x3ea76ed7	0.32701752
92	0x3e84cfa1	0.25939658
93	0x3ea49c11	0.3215032
94	0x3cbb3a1c	0.022854857
95	0x3d20e4f3	0.039280843
96	0x3d04d2ac	0.032427475
97	0xbdc7f3ff	-0.097633354
98	0xbe7406f8	-0.23830783
99	0xbe9fe1ee	-0.31227058
100	0x3e61224b	0.21985738
101	0xbe127be7	-0.14305077
102	0x3df3a712	0.118971005
103	0xbdedea50	-0.11616957
104	0xbddc84e5	-0.10767535
105	0x3d519d0d	0.051175166
106	0xbdea9b1d	-0.11455367
107	0x3da9e229	0.0829509
108	0xbd177126	-0.03697314
109	0x3e8531eb	0.26014647
110	0xbe2c9a6c	-0.16855782
111	0x3e14a83a	0.14517298
112	0xbe1a2da7	-0.15056477
113	0xbdd6cd42	-0.104883686
114	0xbe286303	-0.1644402
115	0xbe297e24	-0.16552025
116	0x3cc450b6	0.023964267
117	0xbc174648	-0.009233065
118	0xbe9e855b	-0.30961117
119	0xbe8c9d5d	-0.2746381
120	0xbe79f878	-0.2441119
121	0xbe07c56d	-0.13258906
122	0xbd42b0cf	-0.0475319
123	0xbe107d93	-0.14110403
124	0xbe7382e4	-0.237804
125	0xbe64abd5	-0.22331174
126	0xbead89c5	-0.33894172
127	0x3d696254	0.05697854
128	0xbe050f76	-0.12994179
129	0x3e953ba6	0.2914707
130	0x3e5aa29f	0.21351098
131	0x3e1ff84f	0.15622066
132	0x3de64785	0.1124411
133	0xbe172c3a	-0.14762965
134	0x3e0bb2d0	0.1364243
135	0xbe98f29e	-0.29872602
136	0x3db87810	0.09007275
137	0xbdab96f3	-0.08378401
138	0xbe25ad62	-0.16179422
139	0xbeae3faa	-0.34032947
140	0x3dc4b3cf	0.09604608
141	0xbe4f3d10	-0.20238137
142	0xbe20c706	-0.15700921
143	0x3e703f01	0.23461534
144	0xbe777b2a	-0.24168077
145	0x3e91fd29	0.28513458
146	0xbebd7567	-0.37003633
147	0xbe4c9202	-0.19977573
148	0x3dc7731c	0.09738752
149	0xbe98acc0	-0.29819298
150	0x3eabf615	0.33586183
151	0xbe7c8fec	-0.24664277
152	0xbdc4cdac	-0.09609541
153	0xbed6e6e6	-0.41973037
154	0x3d2b9438	0.0418894
155	0xbf03a457	-0.5142264
156	0x3dcc62fb	0.099798165
157	0xbe695e04	-0.2278977
158	0x3d81947a	0.06327148
159	0xbf1b8e92	-0.6076442
160	0xbddd83df	-0.10816168
161	0xbd21ae04	-0.039472595
162	0xbe874e68	-0.26427007
163	0xbe90e26d	-0.2829775
164	0x3e044ae2	0.1291919
165	0x3e1d294e	0.15347788
166	0x3e5c2219	0.21497382
167	0x3de9b329	0.11411125
168	0xbd713836	-0.058891498
169	0xbd3289f0	-0.04358858
170	0xbea10e9a	-0.31456453
171	0xbf0f6d8f	-0.5602655
172	0xbd87a41a	-0.06623097
173	0x3e2fda77	0.17173181
174	0xbe59c424	-0.21266228
175	0x3d4693dd	0.048480857
176	0xbe9a2483	-0.3010598
177	0xbe8027d1	-0.25030378
178	0xbea01fea	-0.31274348
179	0x3a8c315a	0.001069586
180	0xbe110d17	-0.1416515
181	0xbe55113c	-0.20807356
182	0x3e955456	0.29165906
183	0xbe8b80c0	-0.27246666
184	0x3e02bd11	0.12767436
185	0x3e12ee11	0.14348628
186	0xbeb64707	-0.35601065
187	0x3cbbbe5d	0.02291792
188	0xbe49dd04	-0.19713217
189	0xbe3cf622	-0.18453267
190	0xbe6cd5cb	-0.2312843
191	0xbe9e2e61	-0.3089476
192	0xbe888b48	-0.26668763
193	0x3db01609	0.08597953
194	0x3db20c47	0.08693748
195	0xbf03614b	-0.5132033
196	0xbdf067d1	-0.117385514
197	0x3d2f535e	0.042804115
198	0xbe199f15	-0.15002091
199	0xbe3e642c	-0.185929
200	0xbea370b2	-0.31921917
201	0xbe6b74ce	-0.22993776
202	0x3e397ff7	0.18115221
203	0xbe954b12	-0.29158837
204	0xbe32b39e	-0.17451331
205	0xbd81be57	-0.063351326
206	0xbd780546	-0.060551904
207	0x3e154db4	0.14580423
208	0x3ca7f264	0.020501323
209	0xbe570493	-0.20997839
210	0xbdd78854	-0.105240494
211	0xbdad0d7f	-0.0844984
212	0xbd3a316b	-0.045457285
213	0x3e24fde9	0.16112484
214	0xbd5f3c7f	-0.054501053
215	0xbc8d349d	-0.017237002
216	0x3dc5a872	0.09651269
217	0x3e2326cd	0.1593277
218	0xbd66e2c0	-0.05636859
219	0x3ef8ed29	0.4861844
220	0xbe6ff2ea	-0.23432508
221	0xbf1cb412	-0.61212265
222	0xbd284daa	-0.04108969
223	0xbe409789	-0.18807806
224	0xbee11e3d	-0.43968382
225	0x3be86032	0.0070915455
226	0xbd755386	-0.059894107
227	0xbe73f947	-0.2382556
228	0x3ea99333	0.33120117
229	0x3d374b00	0.04474926
230	0xbe8141c1	-0.2524548
231	0xbd830b40	-0.0639863
232	0xbdfe23af	-0.1240915
233	0x3e5f8421	0.21827747
234	0x3e95b099	0.29236296
235	0xbea8d15e	-0.32972234
236	0x3cacb36a	0.021081645
237	0xbdd8fc79	-0.1059503
238	0xbde1fbff	-0.110343926
239	0x3e27ac9a	0.16374436
240	0x3eb85b21	0.36007026
241	0xbe6529d2	-0.22379234
242	0x3c648863	0.013948533
243	0x3ea5fce6	0.3241951
244	0x3e6cd3be	0.23127648
245	0xbeb10109	-0.34571102
246	0xbd810c28	-0.06301147
247	0xbe9b354e	-0.30314106
248	0x3cea70d2	0.02861825
249	0xbe189e6c	-0.14904183
250	0x3e1c29d4	0.15250331
251	0x3e93682f	0.28790423
252	0x3dce6ebb	0.10079714
253	0x3cf77d1b	0.030211022
254	0xbe863c61	-0.2621794
255	0xbd8c5d95	-0.06853787

linear2.weight f4 [4, 256]
0	0xbe865e48	-0.26243806
1	0xbd333646	-0.04375293
2	0x3e3869ec	0.18009156
3	0x3d251cab	0.040310543
4	0xbe176cd5	-0.1478761
5	0xbc6d0298	-0.01446595
6	0xbe3eded7	-0.18639694
7	0x3d330584	0.043706432
8	0xbe6cfdf6	-0.23143753
9	0x3d14e3b9	0.036349986
10	0x3b341318	0.00274772
11	0x3d80566d	0.062664844
12	0xbe1e2f3f	-0.1544771
13	0x3ddae339	0.106878705
14	0x3cdcd278	0.026955828
15	0xbdbeda36	-0.09318964
16	0x3ea16664	0.3152343
17	0xbe2d2ecc	-0.16912383
18	0x38d566d2	0.00010175783
19	0xbd96819c	-0.0734894
20	0x3dfb8478	0.12281126
21	0xbe3ca3a7	-0.18421803
22	0x3e4d9729	0.20077194
23	0x3e5f7e79	0.21825589
24	0x3dbce79e	0.09223865
25	0x3e75d87a	0.2400836
26	0x38786000	5.9217215e-05
27	0xbe390a2a	-0.18070284
28	0xbd0415d2	-0.032247372
29	0xbe0af782	-0.13570979
30	0x3cd37f30	0.025817484
31	0xbd76d45e	-0.060261123
32	0x3d796458	0.06088671
33	0xbcd06ae2	-0.02544159
34	0x3cdbcdb8	0.026831493
35	0xbda466fc	-0.08027455
36	0x3cf0183c	0.02930843
37	0xbd2e606a	-0.042572416
38	0xbe305780	-0.17220879
39	0x3d84872e	0.06471096
40	0x3ea2b347	0.31777403
41	0xbc4c1152	-0.012455301
42	0xbe74c20d	-0.2390215
43	0xbd5b8866	-0.053596877
44	0xbe6c2989	-0.2306272
45	0xbe8233b3	-0.25430068
46	0x3ca551c8	0.020180598
47	0xbe1642ad	-0.14673872
48	0x3d635171	0.05549759
49	0xbdec46cc	-0.11536941
50	0x3e50c951	0.20389296
51	0x3d171a0e	0.036890082
52	0x3ec9397c	0.3930167
53	0xbe475300	-0.19465256
54	0x3c9dec22	0.019277636
55	0x3deb5c4e	0.11492215
56	0xbdd03e9a	-0.1016819
57	0x3de28264	0.11060026
58	0x3da5963e	0.08085297
59	0xbe69d32e	-0.22834465
60	0x3e68ef69	0.22747578
61	0xbe491155	-0.19635518
62	0x3e7ff395	0.24995263
63	0x3e3c8867	0.18411408
64	0xbdc068bb	-0.09394976
65	0x3c9ef054	0.019401707
66	0x3c09a691	0.008401529
67	0xbe437457	-0.19087349
68	0xbe6d1b43	-0.23154931
69	0x3e87338a	0.2640651
70	0xbe2925f2	-0.16518381
71	0x3d4b414d	0.049622823
72	0x3d85e8fb	0.06538578
73	0xbd9b74b6	-0.0759062
74	0xba569261	-0.00081852643
75	0xbe3534ad	-0.17695875
76	0x3c88ceb9	0.016700136
77	0xbde458e6	-0.111497685
78	0x3e7acb88	0.24491704
79	0xbe162252	-0.1466153
80	0xbe881bb1	-0.26583627
81	0xbea2da23	-0.3180705
82	0x3c6d0cb5	0.014468362
83	0xbe9e76c0	-0.30949974
84	0xbe3455a7	-0.17610799
85	0x3df5a34e	0.119940385
86	0x3e6fb3a1	0.23408367
87	0xbe951a8b	-0.29121813
88	0xbdf5d56e	-0.12003599
89	0xbda0bfb4	-0.078490645
90	0xbd996440	-0.07489824
91	0x3dd42ef6	0.103605196
92	0x3c45bf05	0.012069468
93	0xbdad8c93	-0.08474078
94	0xbc04b167	-0.008098937
95	0xbd7d4906	-0.06183722
96	0x3ea615c1	0.32438472
97	0x3db5c0e0	0.088746786
98	0x3d12aa84	0.035807148
99	0x3dceae2d	0.10091815
100	0x3e6963ac	0.22791928
101	0x3c7ba82b	0.015359919
102	0x3e5ef330	0.21772456
103	0x3b52562d	0.0032094822
104	0xbe83d40a	-0.2574771
105	0x3e1695c9	0.14705576
106	0xbe8b3607	-0.27189657
107	0xbd950a11	-0.07277311
108	0x3d3ffefe	0.04687404
109	0xbeb56a67	-0.3543274
110	0x3d410606	0.047124885
111	0x3e6d1794	0.23153526
112	0xbeaf8691	-0.34282354
113	0xbd80d240	-0.06290102
114	0xbdca6a82	-0.09883596
115	0xbdd44f94	-0.10366741
116	0x3e8b2c23	0.2718211
117	0xbe424c26	-0.18974361
118	0x3c220552	0.009888964
119	0xbcf16928	-0.029469088
120	0xbe2bbafa	-0.16770545
121	0xbe577932	-0.21042326
122	0x3e727905	0.23678978
123	0x3bd90f00	0.0066241026
124	0xbe0f31d2	-0.13983849
125	0x3d3bc8e6	0.04584589
126	0x3e945dd4	0.28977835
127	0x3e02d1fa	0.12775412
128	0xbedc084e	-0.42975086
129	0xbe30abf9	-0.17253102
130	0xbc0b826d	-0.008514983
131	0xbcf67158	-0.030083343
132	0xbe280460	-0.16407919
133	0xba8166dd	-0.0009872575
134	0x3e5387cd	0.20657273
135	0xbdeb919a	-0.11502381
136	0xbc829c55	-0.015943686
137	0xbe164f2d	-0.1467864
138	0xbe0ab78b	-0.13546579
139	0x3d21f2a4	0.03953804
140	0xbe2d2b2f	-0.16911004
141	0x3de620e4	0.11236742
142	0xbeb33929	-0.35004547
143	0xbd6652ac	-0.056231186
144	0x3cf06600	0.029345512
145	0x3e3441b5	0.1760319
146	0xbea57709	-0.3231738
147	0xbdaa1902	-0.08305551
148	0x3dbbc664	0.091686994
149	0xbe14b92b	-0.14523761
150	0xbeb01bd1	-0.34396222
151	0xbe6be328	-0.23035872
152	0x3dc83510	0.09775746
153	0xbe423cf7	-0.18968569
154	0xbdf25c23	-0.1183398
155	0xbe8d40c2	-0.2758847
156	0x3c574fa4	0.013141546
157	0x3d0f64d9	0.035008285
158	0x3e13fbb3	0.14451484
159	0xbe647a93	-0.22312383
160	0xbd90ab5e	-0.07063936
161	0xbe1157ce	-0.14193651
162	0xbd1978e8	-0.03746882
163	0xbe0ae3b4	-0.13563424
164	0x3e157c4b	0.14598195
165	0x3e1529ed	0.14566775
166	0x3d865d9f	0.065608256
167	0x3d9c1fb6	0.07623236
168	0xbf053729	-0.5203729
169	0xb7802670	-1.5276688e-05
170	0x3d1fee43	0.039045583
171	0xbebb5216	-0.36586064
172	0xbe83c114	-0.25733244
173	0xbdc4caf1	-0.096090205
174	0xbe9a1845	-0.3009664
175	0x3d0abf1d	0.033873666
176	0x3d40c3be	0.047061674
177	0x3e197cbf	0.14988993
178	0xbd30030b	-0.042971652
179	0x3eb5f7a0	0.35540485
180	0xbea2d3c6	-0.31802195
181	0xbe683dd3	-0.22679834
182	0x3e4d4b63	0.20048289
183	0x3d44f860	0.04808843
184	0x3e9b5919	0.30341414
185	0xbd82b32a	-0.06381829
186	0xbe4318ef	-0.1905248
187	0xbead0a50	-0.3379693
188	0xbe430661	-0.19045402
189	0xbce64964	-0.028111167
190	0xbc3a26df	-0.011361807
191	0x3d7a0c8c	0.061047122
192	0xbe0072dc	-0.12543815
193	0x3ebd34b0	0.3695426
194	0x3e49bdc3	0.19701295
195	0xbe8c150b	-0.27359805
196	0xbe19d9ca	-0.15024486
197	0xbe4b8af8	-0.19877231
198	0xbe2ec344	-0.17066675
199	0xbd2c82fb	-0.0421171
200	0xbd12c572	-0.03583283
201	0xbe85b849	-0.2611716
202	0x3dbfca81	0.093647964
203	0xbe0f039b	-0.13966219
204	0xbe7c49c6	-0.24637517
205	0xbdf07f1b	-0.117429934
206	0x3eb05631	0.3444076
207	0xbe7ad111	-0.24493815
208	0x3dc90477	0.09815305
209	0x3e04b833	0.12960891
210	0xbe3467d9	-0.1761774
211	0xbe2f9d1a	-0.17149773
212	0xbe534281	-0.20630838
213	0xbe0f0cd1	-0.13969733
214	0xb81980e9	-3.65981e-05
215	0xbeaf4482	-0.34231955
216	0x3d32109b	0.043472867
217	0x3d45a3f1	0.04825205
218	0x3da6e331	0.08148802
219	0x3ea51a6b	0.32246718
220	0xbbc7e4f6	-0.0061002923
221	0xbe59dba7	-0.21275197
222	0xbdc3efbd	-0.09567211
223	0x3dd4c2ef	0.10388743
224	0xbdaa1f0a	-0.083067015
225	0x3e20c7ce	0.1570122
226	0x3da337be	0.07969616
227	0xbe453828	-0.19259703
228	0xbd9a164d	-0.07523785
229	0xbdc3083c	-0.09523055
230	0x3d91fb98	0.07128066
231	0xbc0ce11c	-0.008598592
232	0xbe17369d	-0.14766927
233	0xbe0cfa14	-0.13767272
234	0x3eb50183	0.35352716
235	0x3be5cf30	0.007013224
236	0xbdd3baae	-0.10338341
237	0x3ed3a7b4	0.41338885
238	0xbea2aca2	-0.31772333
239	0xbd15eca7	-0.036602642
240	0x3e42f2f9	0.19037999
241	0xbe50ff52	-0.20409897
242	0x3d35311a	0.04423628
243	0xbddfc0ce	-0.109254465
244	0xbe05e4cf	-0.13075565
245	0xbe6fc34e	-0.23414347
246	0x3d1d068c	0.03833632
247	0xbcb64c2d	-0.02225312
248	0xbd59fe8b	-0.053221267
249	0xbe20b91d	-0.15695615
250	0xbda717c5	-0.081588306
251	0x3e340653	0.17580537
252	0x3dcea1fc	0.1008949
253	0xbec08b02	-0.37606055
254	0x3c616dfa	0.013759131
255	0x3a6490af	0.00087190693

linear2.bias f4 [4]
0	0x3d8abf6a	0.067747906
1	0x3d91c811	0.07118238
2	0xbcd70016	-0.026245158
3	0x3d7b3992	0.0613342
