neural-net/best_instance_dqn_400gen.pth (torch, 14751 bytes, 4 tensors)

linear1.weight f4 [256, 8]
-0.36851034 -0.12677066 -0.15690583 -0.26608458 -0.79086894 -0.7868133 -0.18188995 0.589462
-0.21472542 -0.106718406 -0.1975623 -0.21094884 -0.23563017 -0.39490795 0.22266977 0.11696696
0.04397972 0.23320107 0.2016095 -0.3094158 -0.2016006 -0.21485625 -0.22938494 -0.44874665
-0.45366558 -0.4689327 0.09793689 0.011774791 -0.07515852 0.18171372 0.08914426 0.20217416
0.1781114 0.1592763 0.22887549 -0.39346796 -0.9761867 -1.0544132 0.25608113 0.36555576
-0.0062143994 -0.46662328 -0.69095105 -0.19931236 0.1089721 -0.27826032 -0.6482567 -0.27851424
-0.22808467 -0.035080478 -0.50659245 -0.034433153 -0.5648098 -0.57104284 0.14659412 -0.3133381
0.14811146 -0.01920924 -0.1605227 -0.22991084 0.08883262 -0.19047123 -0.28105512 -0.097058296
-0.17440319 -0.102818646 -0.38823247 -0.2178602 -0.59606797 -0.6422098 0.17473382 0.16347434
0.039955333 0.16468634 -0.42396343 0.3312152 -0.1518336 -0.6256763 -0.07221354 0.13604206
-0.09262731 -0.07487873 0.27853063 -0.342936 -0.40878284 -0.47913527 0.04616279 -0.37120086
-0.33338818 -0.11986647 0.095196754 -0.01493854 0.09161597 -0.06383063 0.18902798 -0.0075660856
-0.15351614 -0.25626805 -0.2033797 -0.6311984 -0.7078111 -0.5086174 -0.49327233 0.08387179
0.104571246 -0.0923903 -0.256933 0.0959467 -0.69785756 -0.22943555 0.13651632 -0.053315822
-0.5786961 0.0889518 -0.37428686 0.22760923 0.41018692 -0.67792684 -0.23666489 0.078173794
-0.19716933 0.0020500165 0.121685095 -0.11512094 -0.36754787 -0.5565778 -0.5050796 -0.2621357
0.3831085 -0.5685047 -0.74225485 -0.77597904 0.43403596 -0.28765467 -0.912028 -0.9153465
-0.25230345 -0.2939555 0.09581946 -0.3648019 -0.121122494 -0.2512394 -0.13727994 0.058634255
-0.1190513 -0.09481705 0.09947866 -0.062751696 -0.08709138 -0.4813044 -0.3229467 -0.048687205
-0.108627 0.069409505 0.02989293 0.12978677 -0.035470355 -0.13915515 0.15082484 0.0229281
0.13987523 0.14260145 0.10360323 -0.16259964 -0.5193106 -0.35542554 -0.37956277 -0.2690715
-0.4461033 0.4365826 0.53743243 -0.07486052 0.59034944 -0.41725335 0.12759496 -0.53842205
-0.61238587 0.09062903 -0.10140603 0.28852546 0.21512115 -0.6341065 -0.19444032 0.0076738163
-0.11501044 0.22350094 -0.044562593 0.023879973 0.09100974 -0.59049326 0.08719041 -0.06584642
0.15281184 -0.3788362 0.09928685 0.2586452 -0.30800217 -0.0071204393 -0.3618365 -0.09357089
0.031839218 -0.45918417 0.17641687 0.115993954 0.18012416 0.42838937 -0.54606754 -0.438701
0.003599915 -0.17171384 -0.339823 -0.19165285 -0.34881055 -0.34696212 -0.27266967 0.041993234
-0.037246637 -0.8798935 0.1848129 -0.14766943 -0.098481685 -0.24873339 -0.8417575 -0.39065388
-0.2011421 0.026190303 -0.58054256 0.31588012 -0.7523073 -0.905588 0.36318728 -0.53775626
-0.051753044 -0.289373 -0.091332376 0.017714709 -0.29135796 -0.25688592 -0.12711266 0.23936412
-0.5702847 -0.8064304 -0.26094055 -0.0015334819 0.3311284 -0.32908624 -0.30531964 -0.06670391
-0.23429513 -0.4160524 0.7600707 0.34619746 0.4193702 0.6722127 0.03311865 -0.32768503
00000000: 63ad bcbe 2bd0 01be ecab 20be 3d3c 88be
00000010: 6376 4abf 996c 49bf 5c41 3abe fbe6 163f
00000020: fbe0 5bbe 2e8f dabd c64d 4abe f902 58be
00000030: 0949 71be 6031 cabe 8b03 643e 608c ef3d
00000040: 1424 343d 43cc 6e3e b972 4e3e bf6b 9ebe
00000050: 6370 4ebe 4703 5cbe e3e3 6abe 1fc2 e5be
00000060: db46 e8be f217 f0be 2393 c83d 0eeb 403c
00000070: b6ec 99bd 2913 3a3e 4491 b63d be06 4f3e
00000080: d662 363e 5419 233e 565e 6a3e a274 c9be
00000090: 5fe7 79bf 03f7 86bf 111d 833e 202a bb3e
000000a0: 29a2 cbbb 3fe9 eebe 2be2 30bf 8a18 4cbe
000000b0: c42c df3d 2378 8ebe 27f4 25bf 6b99 8ebe
000000c0: 078f 69be 8cb0 0fbd 0bb0 01bf c709 0dbd
000000d0: 6097 10bf dd2f 12bf c51c 163e da6d a0be
000000e0: 88aa 173e b25c 9dbc 1060 24be bf6d 6bbe
000000f0: e0ed b53d e40a 43be 75e6 8fbe 80c6 c6bd
00000100: c096 32be 9592 d2bd 68c6 c6be bf16 5fbe
00000110: e997 18bf dd67 24bf 6ced 323e d165 273e
00000120: 34a8 233d 89a3 283e bc11 d9be 0a95 a93e
00000130: 447a 1bbe 522c 20bf b1e4 93bd 9c4e 0b3e
00000140: 63b3 bdbd 055a 99bd 919b 8e3e 4f95 afbe
00000150: fc4b d1be 3851 f5be 3215 3d3d 0a0e bebe
00000160: dbb1 aabe 8d7c f5bd 84f6 c23d c7c0 74bc
00000170: 27a1 bb3d a2b9 82bd 8d90 413e edec f7bb
00000180: 5633 1dbe 9135 83be c542 50be 3896 21bf
00000190: 1c33 35bf c034 02bf 318e fcbe f9c4 ab3d
000001a0: 7329 d63d 2037 bdbd b98c 83be b47f c43d
000001b0: cba6 32bf 27f1 6abe efca 0b3e b161 5abd
000001c0: 6d25 14bf 5c2c b63d 87a2 bfbe 6512 693e
000001d0: 0504 d23e 9d8c 2dbf 4858 72be 9519 a03d
000001e0: c2e6 49be 9259 063b 0936 f93d 87c4 ebbd
000001f0: 3c2f bcbe e27b 0ebf e64c 01bf a736 86be
00000200: cc26 c43e 8689 11bf 6a04 3ebf 90a6 46bf
00000210: f639 de3e 7947 93be ab7a 69bf 2654 6abf
00000220: eb2d 81be 5681 96be fe3c c43d 51c7 babe
00000230: 120f f8bd 73a2 80be 1d93 0cbe 792a 703d
00000240: 2bd1 f3bd 712f c2bd 78bb cb3d f683 80bd
00000250: f75c b2bd 886d f6be 4559 a5be 3c6c 47bd
00000260: d577 debd 9226 8e3d 05e2 f43c d3e6 043e
00000270: 5d49 11bd b07e 0ebe d471 1a3e b6d3 bb3c
00000280: 743b 0f3e 1d06 123e ee2d d43d 8580 26be
00000290: 8af1 04bf 56fa b5be 0d56 c2be bdc3 89be
000002a0: a767 e4be c187 df3e 2c95 093f 7950 99bd
000002b0: 2421 173f 3ba2 d5be 41a8 023e 07d6 09bf
000002c0: 52c5 1cbf b69b b93d f7ad cfbd 9cb9 933e
000002d0: b848 5c3e ce54 22bf 5d1b 47be a374 fb3b
000002e0: 988a ebbd 6edd 643e 4487 36bd ef9f c33c
000002f0: 5163 ba3d 912a 17bf e390 b23d 7dda 86bd
00000300: b57a 1c3e d2f6 c1be e756 cb3d 256d 843e
00000310: 76b2 9dbe 9352 e9bb a242 b9be 18a2 bfbd
00000320: d769 023d 301a ebbe a0a6 343e 3d8e ed3d
00000330: 7872 383e da55 db3e 15cb 0bbf 6b9d e0be
00000340: 8dec 6b3b c1d5 2fbe 48fd adbe a540 44be
00000350: 4c97 b2be 05a5 b1be 5c9b 8bbe 1901 2c3d
00000360: ee8f 18bd b340 61bf 983f 3d3e a836 17be
00000370: c4b0 c9bd f7b3 7ebe 6b7d 57bf c903 c8be
00000380: 32f8 4dbe 0c8d d63c 709e 14bf 0abb a13e
00000390: 3697 40bf 9dd4 67bf aff3 b93e 65aa 09bf
000003a0: 00fb 53bd b328 94be 780c bbbd 701e 913c
000003b0: df2c 95be 8d86 83be d229 02be de1b 753e
000003c0: 2efe 11bf 3972 4ebf 009a 85be 1dff c8ba
000003d0: a989 a93e fe7d a8be db52 9cbe 0f9c 88bd
000003e0: 10eb 6fbe d204 d5be fe93 423f cb40 b13e
000003f0: b1b7 d63e 2216 2c3f 6ca7 073d 55c6 a7be

linear1.bias f4 [256]
0.20894033 -0.13568033 -0.38381943 -0.5353368 0.5190577 -0.11545667 -0.12289029 -0.28460455
0.28352067 -0.47348604 -0.07252864 -0.39316192 0.06962148 -0.35651928 -0.07603793 0.1204028
0.018348627 -0.15445377 -0.051738657 -0.41002792 -0.13623892 -0.22296976 -0.62114316 -0.49660704
-0.53634846 -0.23808818 -0.05309171 0.028955147 0.08943164 -0.27373037 -0.33510008 -0.50832707
0.01907852 -0.27839366 -0.23155542 -0.42435193 -0.42115355 -0.008200033 -0.5100357 -0.6551997
-0.87515175 -0.3686039 -0.29611224 -0.1643163 -0.07711681 -0.3055045 -0.18800211 -0.44872016
-0.17531541 0.010823993 -0.2964958 -0.37244493 -0.028270045 -0.1232685 -0.37133598 -0.15807053
-0.179872 -0.17200741 -0.17243385 -0.015033998 0.047391724 -0.31262183 -0.021186354 -0.7004484
0.0034909165 -0.5379237 0.21366848 -0.11182352 0.01257878 -0.19522677 -0.56340027 0.5756855
-0.41851825 -0.6866443 -0.31312802 -0.49505058 -0.61127496 -0.772704 -0.24026763 -0.03762194
-0.16599125 -0.014945602 -0.24735911 -0.4352155 0.62951463 -0.15785696 0.026205603 -0.48279724
-0.48074648 0.08871005 -0.10983633 -0.20590062 -0.062024105 0.057797447 0.0351966 -0.22391611
0.44783056 -0.1507643 0.034955684 -0.24538535 0.52637553 -0.36894643 -0.16139409 0.07543766
-0.0024544233 -0.28881052 -0.48302937 -0.7175529 -0.169899 -0.02443478 -0.5276742 -0.48460248
-0.34673536 -0.22185622 -0.12124669 -0.37337855 -0.48282763 -0.053263467 -0.15531984 -0.031753927
0.05484562 -0.14855465 0.4300379 -0.42919683 -0.3047672 -0.5346048 0.20505482 -0.021198854
-0.22435884 -0.41734797 0.12745519 -0.24803944 -0.56873477 -0.7344251 -0.37765932 0.11405176
0.0348616 -0.81259674 0.08322682 -0.4639724 -0.9152424 -0.05382575 -0.23244157 -0.39419127
-0.47000235 -0.20209748 -0.623177 -0.77910566 -0.09935551 -0.16200365 -0.16724594 -0.6137075
0.25870603 0.08058347 -0.2911755 -0.11270446 -0.8127596 -0.12928855 -0.6330139 -0.30866817
-0.5272494 -0.50604427 0.2964498 -0.3245005 -0.47618565 -0.27949363 -0.39825374 -0.37932545
-0.45847458 0.3224309 -0.17750624 0.004794565 -0.2739854 -0.53079 0.050579652 -0.25907716
-0.5058696 -0.13864066 -0.02014121 -0.15451044 0.021578427 -0.45001927 -0.14832161 -0.3657778
0.1545096 -0.045557007 -0.2742451 -0.46337938 -0.063614964 0.12831582 -0.40120843 -0.42914802
-0.43720207 -0.50179833 -0.02528169 -0.7154533 -0.11626592 -0.34657776 -0.090332225 -0.3770805
-0.021036917 -0.20801082 -0.14668402 -0.91772413 -0.46376306 0.025698313 -0.11695332 -0.5931263
0.036369666 -0.23860982 -0.21616171 0.35253608 0.012741019 -0.015595415 -0.5876013 -0.1318291
-0.051207073 -0.6274921 -0.17946206 0.1690006 -0.32496345 -0.10547254 -0.12281685 0.19491018
-0.09005111 -0.048483513 -0.36580813 -0.267757 -0.75714463 -0.57610595 -0.29075238 -0.06469445
-0.28259012 -0.06011994 0.11068297 -0.3911995 -0.717183 -0.9292528 -0.3488076 -0.3666263
-0.38834718 -0.0070506614 -0.314776 -0.76455563 -0.5051892 -0.30866545 -0.6363402 -0.36668676
-0.40523726 0.22275697 -0.1945663 -0.71789366 -0.6847488 -0.29973277 -0.5141619 -0.5150882
00000000: 74f4 553e c9ef 0abe fb83 c4be d50b 09bf
00000010: f7e0 043f 8c74 ecbd e8ad fbbd b0b7 91be
00000020: 9f29 913e c36c f2be e589 94bd 854c c9be
00000030: b595 8e3d b289 b6be c6b9 9bbd be95 f63d
00000040: dc4f 963c 2129 1ebe eaeb 53bd 2eef d1be
00000050: 3782 0bbe 2f52 64be 3d03 1fbf 4743 febe
00000060: 224e 09bf 63cd 73be b176 59bd 5833 ed3c
00000070: f027 b73d 6326 8cbe 3d92 abbe b921 02bf
00000080: 8e4a 9c3c 9d89 8ebe dd1c 6dbe a844 d9be
00000090: 70a1 d7be 6e59 06bc b391 02bf 2bbb 27bf
000000a0: f209 60bf a6b9 bcbe 069c 97be 8842 28be
000000b0: 6bef 9dbd 166b 9cbe a083 40be a6be e5be
000000c0: e285 33be 1e57 313c 4cce 97be 1ab1 bebe
000000d0: 9596 e7bc 3274 fcbd c01f bebe 3edd 21be
000000e0: 5e30 38be b622 30be 8092 30be 2851 76bc
000000f0: d31d 423d f80f a0be 018f adbc 9650 33bf
00000100: dcc7 643b 5eb5 09bf e9cb 5a3e bb03 e5bd
00000110: 3a17 4e3c 87e9 47be 003b 10bf 2060 133f
00000120: 0648 d6be ecc7 2fbf 5152 a0be 4577 fdbe
00000130: 847c 1cbf eecf 45bf b808 76be 7719 1abd
00000140: 9cf9 29be 66de 74bc b54b 7dbe 91d4 debe
00000150: df27 213f 41a5 21be 22ad d63c 3331 f7be
00000160: 6724 f6be 9dad b53d dff1 e0bd 9dd7 52be
00000170: fd0c 7ebd 04bd 6c3d 4f2a 103d 444a 65be
00000180: 0c4a e53e f561 1abe b12d 0f3d 4c46 7bbe
00000190: 8cc0 063f 8ce6 bcbe 7e44 25be 0f7f 9a3d
000001a0: 64da 20bb f9de 93be a04f f7be 8cb1 37bf
000001b0: 01fa 2dbe 732b c8bc a815 07bf d11d f8be
000001c0: 4c87 b1be 472e 63be 2f50 f8bd 792b bfbe
000001d0: 2f35 f7be cb2a 5abd 2a0c 1fbe 6810 02bd
000001e0: cda5 603d b61e 18be ed2d dc3e b0bf dbbe
000001f0: 720a 9cbe dcdb 08bf e4f9 513e 38a9 adbc
00000200: 53be 65be a2ae d5be 9d83 023e 0dfe 7dbe
00000210: 9a98 11bf 4903 3cbf 905c c1be f893 e93d
00000220: 09cb 0e3d 5706 50bf d372 aa3d ca8d edbe
00000230: 534d 6abf 6478 5cbd 2a05 6ebe 70d3 c9be
00000240: 26a4 f0be a4f2 4ebe 8788 1fbf 7873 47bf
00000250: e77a cbbd 49e4 25be 8542 2bbe ef1b 1dbf
00000260: 1e75 843e f208 a53d f514 95be 99d1 e6bd
00000270: 0311 50bf 3864 04be 330d 22bf c109 9ebe
00000280: d1f9 06bf 1e8c 01bf 45c8 973e ee24 a6be
00000290: 9bce f3be ca19 8fbe eae7 cbbe f236 c2be
000002a0: 2ebd eabe aa15 a53e 32c4 35be ba1b 9d3b
000002b0: d047 8cbe dae1 07bf 9c2c 4f3d c3a5 84be
000002c0: ac80 01bf d1f7 0dbe 2eff a4bc fc37 1ebe
000002d0: 3ec5 b03c ed68 e6be 9fe1 17be 3a47 bbbe
000002e0: c437 1e3e fc99 3abd db69 8cbe 1040 edbe
000002f0: 9048 82bd 3965 033e 316b cdbe 4ab9 dbbe
00000300: f3d8 dfbe db75 00bf 8c1b cfbc f327 37bf
00000310: d41c eebd a472 b1be 1a00 b9bd b210 c1be
00000320: 9d55 acbc ca00 55be 5634 16be f8ef 6abf
00000330: 5a72 edbe 4585 d23c 3985 efbd 20d7 17bf
00000340: 5cf8 143d 2256 74be 7f59 5dbe 9c7f b43e
00000350: b5bf 503c e983 7fbc 0a6d 16bf 35fe 06be
00000360: 82be 51bd 52a3 20bf e7c4 37be 7e0e 2d3e
00000370: 9c61 a6be fd01 d8bd 6787 fbbd 8996 473e
00000380: b76c b8bd a696 46bd 344b bbbe 7217 89be
00000390: 3bd4 41bf ae7b 13bf 7fdd 94be 867e 84bd
000003a0: a7af 90be 5440 76bd c1ad e23d 4d4b c8be
000003b0: 4e99 37bf 83e3 6dbf e996 b2be 71b6 bbbe
000003c0: 71d5 c6be 3c09 e7bb 522a a1be ebb9 43bf
000003d0: 1454 01bf 6609 9ebe 31e7 22bf 5ebe bbbe
000003e0: 427b cfbe 671a 643e 633c 47be e1c7 37bf
000003f0: b34b 2fbf 9376 99be 1da0 03bf d2dc 03bf

linear2.weight f4 [4, 256]
-0.15530983 -0.003993484 0.02182481 0.053972818 0.2619234 0.11895452 0.0011538926 0.03719075
0.13165213 -0.0946719 -0.014969007 -0.017415823 0.47699746 0.005954117 -0.30301464 0.13258058
0.4760022 0.28507292 0.016521547 -0.0033059453 0.005902835 -0.38000402 -0.26388636 -0.12646303
-0.067085594 0.40682703 -0.02188494 0.31427243 0.3408788 -0.046190664 0.12099419 0.014845739
-0.37257305 -0.18575095 -0.051484216 0.07895993 0.0769766 -0.039839905 0.046895366 -0.056707017
-0.15964183 0.11469901 0.39664614 0.15876524 0.045210578 -0.052982334 0.14356598 -0.067388386
-0.022780873 0.97755957 -0.034842186 0.053334206 0.026225336 -0.04527486 -0.051083896 -0.05165956
-0.64513135 0.0057680737 0.54475003 -0.575006 0.040277414 0.00039174687 0.16179995 -0.033757713
-0.012807691 0.052468766 0.18190925 -0.038243026 0.46713838 -0.06894111 -0.039601307 -0.023424892
-0.51955926 -0.052776698 -0.1022341 -0.29161635 -0.042724192 -0.17698164 0.63090086 0.39339617
0.5683168 0.87946606 0.11044091 -0.20038843 0.17214122 0.06708268 -0.06593721 0.015995543
0.19769019 -0.38808957 0.041037623 0.010745384 0.09908862 0.13380426 0.15370235 -0.005659189
0.09956877 -0.10734199 -0.018604456 0.0026730523 -0.02848281 -0.163315 -0.0039159907 -0.04784465
0.0957607 -0.011643229 -0.34963647 0.10657878 -0.12450091 0.3189195 -0.2450609 0.17943196
0.0146875335 -0.14476083 0.0065042083 0.05969482 -0.08070394 0.0040843063 0.0027754677 -0.16664058
0.5305284 -0.32030433 0.23435599 -0.10699583 -0.029902803 -0.030427037 0.19893931 0.026631773
-0.058230028 -0.1931784 0.24356073 0.08603854 -0.014027305 0.036596254 0.0022635008 0.5022649
-0.04210791 -0.17856948 0.6648466 -0.19576925 -0.278712 -0.016455522 2.228936e-08 0.032032654
1.228252 -0.008341866 -0.022940064 0.02493852 -0.30132735 -0.046343476 0.12733932 0.08109408
0.01058215 0.11835032 -0.08857404 0.02388256 0.19810358 0.3660443 -0.014264017 0.07896067
-0.12936097 0.019497965 -0.063865334 0.0010689265 0.18516614 -0.019007614 0.08977303 0.00080727093
-0.13282344 0.08647585 -0.19477545 -0.00028352265 -0.10998984 -0.09724205 -0.17888667 0.22060826
-0.3106343 0.0010538871 -0.21776314 0.45634446 0.61260176 -0.02367369 0.017187392 -0.031794883
-0.07628237 0.0497909 -0.11528715 0.13677648 -0.08525865 0.32649454 -0.06650035 0.62567794
0.006080736 -0.052703228 0.27009556 -0.39669752 -0.107788965 0.5036153 -0.23898938 0.008120346
-0.025093386 -0.047869906 0.59188426 -0.12566294 -0.073088765 0.59275585 0.3401278 0.4855509
0.20324382 0.06072408 -0.23453233 0.20981324 0.4380854 0.0003897958 -0.3883952 -0.0052833296
0.09166667 -0.28287643 0.14418197 0.35636148 -0.32356688 -0.14152779 -0.063788906 0.032552335
0.19433473 0.04200024 -0.0048418166 -0.05362299 -0.033124655 -0.5953338 -0.11683099 -0.087306686
-0.25775906 0.03098152 0.29301953 0.092524074 -0.14364739 -0.10314672 -0.113761246 -0.01942267
0.15019666 -0.021730212 0.09204203 -0.3688712 -0.037794165 -0.0683857 -0.11620702 0.6774981
-0.019924706 0.18722853 0.06707949 -0.011196706 0.011515446 -0.03700965 -0.09827042 0.10556662
00000000: 8a09 1fbe c6db 82bb f2c9 b23c 9a12 5d3d
00000010: d31a 863e 6d9e f33d 363e 973a 5455 183d
00000020: d1cf 063e 57e3 c1bd 9140 75bc a1ab 8ebc
00000030: 0339 f43e c11a c33b bc24 9bbe 34c3 073e
00000040: 8fb6 f33e 14f5 913e 3258 873c 8fa8 58bb
00000050: 926c c13b e38f c2be 1d1c 87be 867f 01be
00000060: 2c64 89bd a24b d03e 0c48 b3bc 51e8 a03e
00000070: ab87 ae3e 6c32 3dbd cdcb f73d 8b3b 733c
00000080: e5c1 bebe 7f35 3ebe 1de1 52bd beb5 a13d
00000090: e8a5 9d3d 2b2f 23bd 5b15 403d 9e45 68bd
000000a0: 2679 23be 51e7 ea3d 3415 cb3e 5b93 223e
000000b0: ba2e 393d 0104 59bd f602 133e ec02 8abd
000000c0: f49e babc 5841 7a3f aeb6 0ebd f874 5a3d
000000d0: 84d6 d63c 2272 39bd 593d 51bd fa98 53bd
000000e0: 5427 25bf 1c02 bd3b bd74 0b3f 9833 13bf
000000f0: eef9 243d 6063 cd39 e3ae 253e 8745 0abd
00000100: 59d7 51bc 7de9 563d 6b46 3a3e b8a4 1cbd
00000110: c32c ef3e ff30 8dbd fb34 22bd 8fe5 bfbc
00000120: d601 05bf 612c 58bd 1d60 d1bd bd4e 95be
00000130: 90ff 2ebd ad3a 35be b882 213f 396b c93e
00000140: 367d 113f b024 613f d82e e23d a032 4dbe
00000150: ca45 303e a562 893d 170a 87bd 1609 833c
00000160: 4c6f 4a3e adb3 c6be 1117 283d 680d 303c
00000170: f9ee ca3d fc03 093e 2664 1d3e b870 b9bb
00000180: b6ea cb3d 1ed6 dbbd 5f68 98bc 602e 2f3b
00000190: c854 e9bc 0c3c 27be b651 80bb c0f8 43bd
000001a0: 301e c43d 3ec3 3ebc 8d03 b3be fa45 da3d
000001b0: 55fa febd 6b49 a33e 3ff1 7abe 03bd 373e
000001c0: fba3 703c 2f3c 14be 4121 d53b 8e82 743d
000001d0: 1b48 a5bd a5d5 853b 9fe4 353b d4a3 2abe
000001e0: b6d0 073f eefe a3be 04fb 6f3e a120 dbbd
000001f0: b9f6 f4bc 1f42 f9bc bfb6 4b3e e02a da3c
00000200: 9c82 6ebd 8fd0 45be fc67 793e f934 b03d
00000210: c8d2 65bc f4e5 153d 3e57 143b 6f94 003f
00000220: 5879 2cbd ebda 36be 6333 2a3f bc77 48be
00000230: 57b3 8ebe bbcd 86bc d276 bf32 ac34 033d
00000240: 5d37 9d3f 52ac 08bc cdec bbbc de4b cc3c
00000250: 9447 9abe a8d2 3dbd 3d65 023e a714 a63d
00000260: c160 2d3c a761 f23d 4e66 b5bd 5ca5 c33c
00000270: aadb 4a3e 296a bb3e a0b3 69bc 22b6 a13d
00000280: 3477 04be 32ba 9f3c d4cb 82bd 391b 8c3a
00000290: 319c 3d3e dbb5 9bbc ecda b73d 099f 533a
000002a0: de02 08be 401a b13d 3773 47be c4a5 94b9
000002b0: 5a42 e1bd d726 c7bd 112e 37be 22e7 613e
000002c0: 750b 9fbe 9522 8a3a 4dfd 5ebe fba5 e93e
000002d0: 78d3 1c3f 54ef c1bc 93cc 8c3c 5a3b 02bd
000002e0: ee39 9cbd 8bf1 4b3d ab1b ecbd 220f 0c3e
000002f0: 169c aebd 4b2a a73e 5631 88bd 6e2c 203f
00000300: e940 c73b 57df 57bd f749 8a3e f01b cbbe
00000310: 76c0 dcbd efec 003f a2b9 74be 330b 053c
00000320: a590 cdbc 3c13 44bd ba85 173f c9ad 00be
00000330: 90af 95bd d9be 173f 3b25 ae3e 219a f83e
00000340: 261f 503e d0b9 783d 3e29 70be 48d9 563e
00000350: bb4c e03e 825d cc39 bcdb c6be c81f adbb
00000360: bcbb bb3d 2ed5 90be 70a4 133e 0375 b63e
00000370: 8faa a5be a9ec 10be c2a3 82bd 9955 053d
00000380: afff 463e 7208 2c3d 1aa8 9ebb c8a3 5bbd
00000390: b8ad 07bd cc67 18bf 1645 efbd d9cd b2bd
000003a0: fff8 83be f5cc fd3c a806 963e 437d bd3d
000003b0: 4d18 13be 963e d3bd a8fb e8bd 4b1c 9fbc
000003c0: 27cd 193e 8f03 b2bc 8880 bc3d b0dc bcbe
000003d0: 0ece 1abd cd0d 8cbd f2fd edbd 8470 2d3f
000003e0: 2339 a3bc d6b8 3f3e f960 893d 6472 37bc
000003f0: 48ab 3c3c 6e97 17bd 0142 c9bd 5033 d83d

linear2.bias f4 [4]
0.21959217 0.10367679 -0.033509094 -0.047314484
00000000: c5dc 603e 7f54 d43d d540 09bd d5cc 41bd
