neural-net/best_instance_dqn.pth (torch, 14751 bytes, 4 tensors)

linear1.weight f4 [256, 8]
00000000: 7cb8 63be be86 8fbe aede 86be 6034 df3d
00000010: a387 bfbd d228 243f 8b8f cdbe 38a3 e5bd
00000020: 6574 893d c98c 733d 4a6c e03d 9857 9b3e
00000030: c214 b03e dd92 7dbe 94b4 1dbc f7a2 82be
00000040: fd53 6a3e 5bcd 2cbe 70a8 a3bd 6756 c53e
00000050: ef24 ebbc 1011 93be 0227 1f3e 24b4 abbe
00000060: 6c54 893e a4a5 e43e 877f 113e 2031 ea3c
00000070: 8ac9 65be 9429 d6be 09a1 f93c 8247 183f
00000080: d8e0 c43d ace8 a8be 6eb5 72be 2020 eabc
00000090: 5a48 36be 6dcf 13be 18f4 903d 872a 02be
000000a0: 70d7 0f3d f2a6 65be e64b 8bbe cce7 adbd
000000b0: 9c85 95bd 42ef 92be d1f7 a9be 5bdd 66be
000000c0: 5ecc 78bd 4958 30be 9929 f93d d732 d23e
000000d0: 58b4 693e 4904 e33e 7edb c0be bea7 37be
000000e0: bbd2 26bc 78cf 6cbe 1f69 a9be 4022 963e
000000f0: 7215 6f3e 84e0 29be ea7d cabd fc78 963e
00000100: baa7 6fbe 9d66 94be f97b 3ebe 855f fb3d
00000110: 9fb8 5e3e befc 983e 7910 eabd 26c0 0d3e
00000120: 7f7b dd3d 1216 763e 0c49 933e 346e 89be
00000130: 2b43 33bd 3412 6dbd ebc2 9b3e 98a3 373f
00000140: 5e49 93be ec06 4cbe 1abd e6bd f3f1 dbbe
00000150: 4fa3 6c3e a397 253e a4da bf3e eb10 103f
00000160: 5d63 4bbe c449 fcbd ead3 a9be 0022 11bb
00000170: eaec f6bd cdf1 43be 10e1 8ebe f873 03bd
00000180: d8fd b03e 10b4 87be 0147 7b3e 266a 363d
00000190: 6bca 333d 3c4c 983d d5dd 6bbe acf8 e83e
000001a0: 1eef 2f3e 6eb6 8abe 63a8 d23e 3b53 2abc
000001b0: bdba ee3e c8bc 643e ad83 fe3a c891 503e
000001c0: bd2d 96be 3405 bf3e 08f5 05be f2c6 813e
000001d0: 57a6 a43d 2f31 ff3e 9975 393d abcb acbd
000001e0: 805d 963c dd5c c63e 7b6f 5ebd 2eee d83d
000001f0: 4f73 0bbe 6bd7 f43e 1503 473e 46cd 423e
00000200: 917b ae3e 2925 63be 2717 abbd 4d53 9a3d
00000210: 876e 46be c053 e43e 9cc1 403e c30e 8b3e
00000220: c1ec e6bd 1bc5 02be 8c1a 30be 5f79 c03e
00000230: 6fe9 11be 483b bf3d a1fb d3be 4dfb f23d
00000240: b2e5 0a3d ff2e 1f3d 4812 eabe 9bc6 b63c
00000250: e74c 1cbc 5126 653e 97e4 8bba c046 0d3f
00000260: 166f 38be 7061 ecbe 0185 053f 48e6 ccbe
00000270: f746 4ebe c485 e7bd 0304 c3be b291 ec3e
00000280: 4032 db3e 26f1 dd3e 1b04 dc3e 3cd2 b4be
00000290: 20a2 b0be 7486 bbbe 5045 073f 8578 033f
000002a0: 6876 f9bc 1063 2f3e 5541 ea3d 2f0f 81be
000002b0: 5bd4 8c3e 612c 7dbe 83d0 423d 6923 2bbd
000002c0: 1c02 443e 6573 afbe 3813 9dbc 0a80 b1be
000002d0: 75f8 213f 7eb5 b63e 45b1 bf3e 3721 48bd
000002e0: aeb2 d03e 70e2 9bbe 8bd4 0a3e 4ee4 d03d
000002f0: 3c5b 1f3f 576d 003f 2bcd 8a3d e98d 17bd
00000300: 38a2 12bd 14c6 8fbe 1016 053e 6b55 92be
00000310: d4c7 c4bd e282 ebbd ef74 29be 08ee a43d
00000320: 5a40 1d3d 2303 fb3d 866a fd3d c7c7 59be
00000330: e249 c63e c157 163e 3b96 02be 6839 2bbe
00000340: a011 2abd 1613 083e c0fa d7bb 4082 e03b
00000350: a562 00be 3983 31be 6ee2 0b3e 18b2 5abd
00000360: 42ff 36be 5fc1 4dbe 06f5 4a3e b03a 68ba
00000370: 4def 243e d064 503e 44dd acbe 0384 a1be
00000380: 5cde cc3e 5b71 57be b5d0 c73d 2b5a 713d
00000390: bba9 a53e 1de4 6cbd 434e c0be c8c1 53be
000003a0: e721 00be 579c f13e e432 05be c101 12be
000003b0: 9bfc c2bd d491 fd3e 21b6 c9be ee9e f8be
000003c0: fca3 853e ea21 c63d d592 adbe 38a2 203e
000003d0: 922c 593c 0d9b 96bd 699f 323e 66a1 ec3d
000003e0: b8b5 ad3e ab82 dabe 7095 8d3e 1c47 643d
000003f0: 3bea 893e 3756 54be 7de4 abbe a3bd 19be
-0.22238344 -0.28032488 -0.26341766 0.108986616 -0.093520425 0.64124787 -0.40148577 -0.11212772
0.067116536 0.059460435 0.109581545 0.30340266 0.34390837 -0.24763055 -0.009625573 -0.25514957
0.22883601 -0.16875212 -0.07991111 0.38542482 -0.028704135 -0.28723955 0.15542224 -0.33535874
0.2682222 0.44657624 0.14208804 0.028587878 -0.22440162 -0.41828597 0.030472295 0.5948411
0.09613198 -0.32990015 -0.23702022 -0.028579772 -0.17801037 -0.14434595 0.07077807 -0.12711535
0.035117567 -0.22426966 -0.27206343 -0.08491477 -0.073008746 -0.28698164 -0.3319688 -0.22545378
-0.060741775 -0.17221178 0.12166137 0.41054413 0.22822702 0.44339207 -0.3766746 -0.17935082
-0.010182078 -0.23126018 -0.33088014 0.29323006 0.23348024 -0.16589552 -0.098872975 0.2938918
-0.23403826 -0.28984538 -0.1860198 0.12274078 0.21750115 0.29880327 -0.11428923 0.1384283
0.10814571 0.24031857 0.28766668 -0.2684189 -0.04376523 -0.057878688 0.30422148 0.71734
-0.28766912 -0.19924515 -0.11266537 -0.4295803 0.23109172 0.16171126 0.37471497 0.56275815
-0.19862123 -0.12318757 -0.3316949 -0.002214551 -0.120569065 -0.19135208 -0.27906084 -0.03209302
0.34568667 -0.26504564 0.24538805 0.044534825 0.043894213 0.074364156 -0.23033841 0.45502222
0.1718106 -0.27092308 0.41144094 -0.01039582 0.46626845 0.2233764 0.0019417905 0.20368111
-0.2933177 0.37308657 -0.13081753 0.25347096 0.08039539 0.49842212 0.045278165 -0.08437284
0.018355131 0.38742724 -0.054305535 0.10592304 -0.13618205 0.478206 0.1943477 0.19023618
0.3407865 -0.22182144 -0.08354025 0.075354196 -0.193781 0.44595146 0.18823856 0.271597
-0.11275626 -0.12770502 -0.17197627 0.375926 -0.14249204 0.09337479 -0.41402915 0.11864338
0.03391046 0.03886318 -0.45717072 0.0223115 -0.009539819 0.22377898 -0.0010672983 0.5518608
-0.18011126 -0.4616809 0.5215607 -0.4001944 -0.20144258 -0.11304811 -0.38088998 0.46204907
0.42811775 0.43348044 0.42971882 -0.35316646 -0.34498692 -0.36626017 0.5284014 0.51355773
-0.030451968 0.17127633 0.11438242 -0.25206897 0.27505764 -0.2472396 0.047562134 -0.041781817
0.1914143 -0.34267727 -0.019174203 -0.34668 0.6326974 0.35685343 0.37439933 -0.0488598
0.40761322 -0.30446196 0.13557641 0.10199796 0.6224859 0.5016684 0.06777414 -0.03700057
-0.035799235 -0.2808081 0.12996697 -0.28580794 -0.09608427 -0.11499573 -0.16548513 0.08053213
0.03839145 0.12256458 0.12373833 -0.21267615 0.38728243 0.14681913 -0.12752621 -0.16721117
-0.041520715 0.1328853 -0.006591171 0.0068514645 -0.1253763 -0.17335214 0.13660595 -0.0533925
-0.1787081 -0.20093296 0.19820032 -0.0008858843 0.16106911 0.20350957 -0.33762562 -0.3154603
0.40013397 -0.21039335 0.097566046 0.05892388 0.32356057 -0.057834733 -0.3755971 -0.2067939
-0.12512933 0.4718959 -0.13007694 -0.14258482 -0.09520837 0.4952532 -0.39396766 -0.48558754
0.26101673 0.09674437 -0.33901086 0.15686882 0.013255255 -0.07353792 0.17443623 0.11554222
0.33927703 -0.42677817 0.27653074 0.055731878 0.26936516 -0.20736013 -0.3357276 -0.15013747

linear1.bias f4 [256]
00000000: 44b8 9b3e f07c 9a3d 0b11 a23e c213 a7bc
00000010: e7c7 83be 70c8 9ebe 8212 d8bc 41e6 debe
00000020: 5361 75bd 0785 023e 18a4 6a3d be45 67be
00000030: c416 5c3e 6136 a53d 10b3 05bd 3f79 9e3d
00000040: bbf6 83be a458 2c3a 929b bfbc 9c34 0dbe
00000050: e83a 48bd 08af 7cbe a8cb 77bc 1004 14be
00000060: 2ead a4be cc7c b23e 6016 90be 4cef cebe
00000070: 2411 36be afa6 873d c675 043e 5784 763e
00000080: 9e9f 4d3c d441 39bd f8b8 b53c 2eab 9d3e
00000090: 9c32 b3bd 4923 2e3e 59ac 63be 8028 a0bd
000000a0: 10f7 453e 30b6 64be e85f b3be 5682 67bc
000000b0: 08e7 f53c e980 de3e 06ac 45bb 1ed5 a1bd
000000c0: c038 d03d 9b06 bebe eebf 003e dee4 cf3d
000000d0: 863d d9bd 4b5b 9cbd 75a9 533e f94a 9bbe
000000e0: 60ef 6e3e 4578 8fbe a4bb 91be 8a9b 9abe
000000f0: 1a22 17be 4e31 3dbe 45e1 18be 31f4 693d
00000100: 9b26 493e d304 a63e b685 adbe d48c 1f3d
00000110: 6c32 67be 54d2 c1be 4ed5 26be 74fd 733e
00000120: ee26 10be 46af d33d f15d c6bd a4ea 34be
00000130: 8b87 073e be25 6e3e c1fc 08be b5a4 c13d
00000140: 4f63 2cbe 5ff4 1d3e 27d3 2d3e bc96 babc
00000150: 963e 333e 9b3d 3d3e 0df3 f6bd f7e1 7e3d
00000160: c12a 66be 20a7 e23d 9ede d0bc ea56 e13d
00000170: ad28 40be 240b 06bd 46e3 953e 11b5 be3e
00000180: 0235 82be 6208 d23d 1802 86bd b807 adbe
00000190: f28a 7f3e 64ac 04bd 2e87 35be c571 e9bc
000001a0: 8f5a e5bc 0eaf a9bd 577f 72be 7ac0 27be
000001b0: f4cc 2dbe 20e5 fcbd 3555 373c dc5d a2be
000001c0: 59c8 573e caca 1c3e 0dc1 0d3e 51b5 08be
000001d0: 3f2f 873e 48bf 9bbe fbdb b33e 7656 24be
000001e0: ff49 d7bd 8db1 00be 96c2 9dbe a176 32be
000001f0: 2769 c03d 7004 80b9 9ad1 d23d c9ff c53d
00000200: b8be 30be 0d12 f1bd 06ce a5bd c547 11be
00000210: 18a9 9e3e 321b 02bd 5ac5 9d3e cf44 71be
00000220: a0cf f1bd 6f40 163e f221 273d a970 443e
00000230: f441 513e 7e3f 52be 13b7 a63d 5f85 0a3e
00000240: edcb 13be 0f05 073e 703c ba3c 14b6 8b3e
00000250: 9584 43bb 369e c03e c4f0 2b3c 3e03 8dbe
00000260: 46d3 b2bd f17f c93d 6f19 5f3d 4615 89bd
00000270: f892 fd3d 1174 55be 8451 0cbd 855f 9bbe
00000280: b62a 3c3d 73a6 823d 6a41 b9bd 9f32 99be
00000290: 8df9 f6bd cb81 8dbe 2465 15be 70af d2bd
000002a0: c671 32be b748 0ebe 9a9c 3f3d 5551 8ebe
000002b0: 3c6c 5aba 399a 7b3d 5f84 b43e a0fa c2bd
000002c0: d683 543e 0ff4 1bbb dcea 073e 61d6 3c3d
000002d0: 8f74 ef3d 7c67 fa3d fb63 bb3e dbe1 8abd
000002e0: b42b 813b 268e aabe e393 d6be 3150 c23e
000002f0: 6e60 893e ccf8 2a3e 812e eebd ec54 afbe
00000300: 0b19 01be 11d8 e7bd 9e01 81bd b02e bfbe
00000310: 806c 62be 4277 0bbe fb6c a3bd d7f4 f83d
00000320: 68a3 11be 0fc7 433e aa79 da3d c356 85bd
00000330: b656 79bb 7ab1 a9bc 215c 6ebe fd2b ebbc
00000340: bba5 52be e438 053e 0760 ecbc 4ce2 91bd
00000350: 2bb7 0bbc aa2d bdbe d640 e63d 3c16 543e
00000360: 7cad 9ebd 4241 0d3d 72f1 b43e 2992 46be
00000370: a3ea 6ebe 540d 203d b32b b83e 22c2 0bbd
00000380: a755 d9be cd63 70bd 4f62 9dbe ef0f 0e3e
00000390: 3401 e83d e0ab eabd 2a68 a13e 3df1 a43d
000003a0: 0e6e 103e ed08 1dbe 0655 dabc b56b 52bd
000003b0: 0948 ba3e 7eae 733d f508 98bd 9481 283e
000003c0: b62f b73d 78df b63c aa71 2a3e ba1a 85be
000003d0: c24b 87be 032a 8d3d 819c 27be d585 09be
000003e0: b7dd 093d f90f b6be 3006 9b3d 593d ad3d
000003f0: d825 7abe 5c29 51be 2e93 1ebc 0e84 933e
0.3041402 0.07543361 0.31653628 -0.020395163 -0.2573845 -0.31012297 -0.026376013 -0.43535045
-0.05990727 0.12746058 0.0572854 -0.22585198 0.2149306 0.080670126 -0.03264147 0.077379696
-0.25774178 0.0006574488 -0.023389611 -0.137896 -0.048884302 -0.24676144 -0.015124239 -0.14454675
-0.32163376 0.34860837 -0.2814207 -0.40416944 -0.17779976 0.06623589 0.12935552 0.24073921
0.012550263 -0.045228794 0.022182927 0.30794662 -0.08749887 0.17005648 -0.22233714 -0.07820225
0.19332528 -0.22335124 -0.35034108 -0.014130196 0.03001739 0.43457726 -0.0030162348 -0.07901977
0.10167074 -0.37114415 0.12573215 0.10151075 -0.10607438 -0.076346 0.20670111 -0.30330637
0.23333502 -0.28021446 -0.2846347 -0.30196792 -0.14759102 -0.1847584 -0.14929684 0.057117645
0.19643633 0.32425556 -0.33891076 0.038952664 -0.22577828 -0.3785578 -0.16292307 0.23827153
-0.1407735 0.10336165 -0.09685887 -0.17667633 0.132353 0.23256585 -0.13377668 0.094552435
-0.16834758 0.15425251 0.1697508 -0.022776954 0.17504343 0.18480532 -0.12058077 0.062227216
-0.22477247 0.11067033 -0.025496777 0.11002906 -0.18765517 -0.03272547 0.29274958 0.37247518
-0.25431067 0.10255505 -0.06543368 -0.3379495 0.24955347 -0.032390967 -0.17727348 -0.028496632
-0.027997283 -0.08285342 -0.23681389 -0.16382018 -0.16972715 -0.123483896 0.0111897485 -0.31712234
0.2107252 0.15311733 0.13843174 -0.13350417 0.26403233 -0.30419374 0.3512877 -0.16048607
-0.105121605 -0.1256773 -0.3081252 -0.17428066 0.09395056 -0.0002441737 0.102938846 0.09667928
-0.17260253 -0.11771021 -0.080959365 -0.14187534 0.30988383 -0.031764217 0.3081463 -0.23561405
-0.118071795 0.14673017 0.040803857 0.19183601 0.20435315 -0.20532033 0.081403874 0.1352744
-0.1443326 0.13185523 0.022733897 0.27287352 -0.0029833664 0.37620705 0.010494415 -0.27541536
-0.087317035 0.09838856 0.054467615 -0.06693511 0.12381548 -0.20845057 -0.034257427 -0.30346313
0.04593917 0.06379404 -0.0904568 -0.29921433 -0.12059317 -0.27638087 -0.14589363 -0.10287368
-0.17426214 -0.13894926 0.046780206 -0.27796426 -0.0008332168 0.061426375 0.3525724 -0.09520459
0.20753416 -0.0023796593 0.13273185 0.046102885 0.11692154 0.12226769 0.36599717 -0.0678136
0.0039419774 -0.33311576 -0.41909704 0.37951806 0.26831383 0.16696471 -0.11629964 -0.34244478
-0.1260721 -0.11320508 -0.062991366 -0.37340307 -0.22111702 -0.13619712 -0.07979771 0.121560745
-0.14222491 0.19118904 0.10667737 -0.06510689 -0.0038046069 -0.02071451 -0.23277332 -0.028707499
-0.20571034 0.13009983 -0.028854383 -0.07123241 -0.008527557 -0.369489 0.11242835 0.20711607
-0.07747933 0.034486063 0.35340458 -0.19391693 -0.23331694 0.03907521 0.3597084 -0.034120686
-0.4244816 -0.058688927 -0.30739066 0.13873266 0.113283545 -0.11458564 0.31524783 0.08053825
0.14104483 -0.15335436 -0.02665187 -0.05137225 0.36383083 0.05949258 -0.074235834 0.1645568
0.08944647 0.022323355 0.16644922 -0.25996953 -0.26424986 0.06892779 -0.16368295 -0.13429959
0.03365871 -0.3555906 0.075695395 0.08458967 -0.24428499 -0.20425934 -0.009678645 0.28811687

linear2.weight f4 [4, 256]
00000000: 78fc 05be 9274 043d 9bf1 f23d 670f 95bb
00000010: 18c3 3b3d a451 d13c e07e 6fbe 9f75 71bd
00000020: b7c1 39be 4e98 53bd 6ff0 1cbe bad5 4ebd
00000030: 070e dcbd 22f2 88be 2d7d 193d 91e9 54bd
00000040: d956 2cbe 2332 3dbd cd75 22be 1d07 043e
00000050: cd34 803d d66b babd 3056 4bbe 6fa5 92be
00000060: 0cd5 983c d40b 55be 022f 513d 0671 47bc
00000070: 2d40 6d3e 845a 3c3e d34c ca3c 4970 a1bc
00000080: 89bb 3abe 270f 46be fb9c 11be 420d a2be
00000090: fa9e 7dbe df43 a23c 4c8a 0abd c57a 8dbe
000000a0: cfbe cdbd 3649 c4bd 3425 0fbd a84c d53b
000000b0: cdd5 2b3d 79f4 8f3e 41d8 f13c a962 7a3e
000000c0: d464 d2bd f28f 20bd b5f4 8dbd 32f8 a03d
000000d0: 1031 883d 1ad7 aa3b de9d d6bd 987e 363c
000000e0: cc81 66bc cb32 c8bb 514f eabd c96c 06bd
000000f0: edec 553e d468 eabd 48c4 07bd a91b b4be
00000100: ae71 223e a800 5b3d 9eec 6e3d b4b8 253e
00000110: ccf3 2fbe e3b1 b53d 08bf 9dbd 8ce8 5fbe
00000120: 6d60 503d 6672 0e3d f13f 44be 7b87 86be
00000130: ba85 debd 8339 833d 9711 69be 276f 78bd
00000140: 4073 033b ab12 703c cd80 2cbd 3bfa f0bd
00000150: 78c8 5c3e 5047 28bc 3cc4 f5bd b6fa b63c
00000160: 2ffe 5bbe b13c c5bd 7025 e7ba aacf 1dbd
00000170: 0969 38be 69af d8bd 7f9d dc3c 2892 de3d
00000180: 48cc 71bd de1a 16bc fb09 adbd 74f0 95bd
00000190: 97a8 37bd dddc 39be 43c7 0dbe a24e d1bd
000001a0: 1c68 e8bd ec90 1ebe ca0b 56bd b1af c2bd
000001b0: b1da 5fbd 139a a8bd e763 8f3e daee 6abe
000001c0: 3912 913d 388b 65be d59f 43bd 33d1 a13b
000001d0: a28a 493e 5b97 163e 6061 943e ac78 b4bd
000001e0: 49ff 47be 5973 ab3c 9efe 5f3d 85f5 403d
000001f0: 64c3 9dbd 2eda b4bd f06c 46bb e7cf 2f3d
00000200: 04cb f8bd ee36 93be 787e a93d ae34 99bd
00000210: 6d9c 9bba 6898 503a bd03 9c3b f73e 463e
00000220: d2a4 863d 0766 febc 0e5c 3dbd 2030 df3d
00000230: 9197 9b3d b16a 77be c805 afbd a9a4 6bbe
00000240: ad43 d8bd 53fb 1bbd 76b8 c6bd 55a7 a7bd
00000250: 6806 ea3d 192a 483e ead2 cc3d 18b7 6abd
00000260: a00a 61be dccf 0a3d f3b6 093e 3c55 f3bc
00000270: 173d 0d3d 77ef 2d3d 0d7b 163d 32ab cdbd
00000280: e395 003c 15ca 1a3c d7a1 df3d 9804 f93c
00000290: 4b57 b1be 7e6a 413d eebe 78be d0e6 163d
000002a0: bc7e 34be 3c90 493d c43a fabd 4599 15be
000002b0: afbd 3cbe 5fb2 20ba 8753 58bd 5e2f b9bd
000002c0: df1e 203e 927b 703d 8d95 99bd 4337 973d
000002d0: 380a 83bd c69a 70bd b674 aabd cb5b 85bd
000002e0: 7368 12be ed32 7ebe 1fb7 9abe 1693 6dbd
000002f0: 9e27 45be 92ad d23d ced3 2dbe fa58 42bd
00000300: 1017 c2bd d421 833c 1f68 42be 6b44 85bd
00000310: e17b 02be bf3a 96be 7f76 65bd 006e bdbd
00000320: 431b 0ebe c469 1f3c c501 5bbd 151c 74be
00000330: 3b80 2c3c 5c08 703d bbbe b8bc 2386 bcbd
00000340: e62d 68bd 0863 683d e0f0 4bbe 610f ffbd
00000350: d690 05be 682c a9bd 9b1b a43e 02d2 6e3d
00000360: c6a6 10be b04a 8cbc 8fd8 1abe c696 1a3e
00000370: c8df 783c f1f2 fbbd 5147 8bbd bae4 64be
00000380: 4bad 12be 67e2 b3bd 7d06 303d cca9 b93b
00000390: 77ac 4ebe 6adb a4bd fcbf 55be 3254 433d
000003a0: 8fd0 353d d5a3 80bd b470 ac3d 3fe1 70be
000003b0: f411 a43e 5032 113d be75 61be e857 24be
000003c0: 3771 263e 6893 37bd dcd3 193e fc3d 85bc
000003d0: 5d63 23be 92b4 0bbe e029 81bd a3e8 5fbd
000003e0: a943 8ebe 949b 30be 4309 983e 6c98 9e3e
000003f0: 128a 99be 027e 75bd a317 f2bc 2ab4 c23d
-0.1308459 0.032337733 0.11862489 -0.0045489552 0.045840353 0.025551625 -0.23388243 -0.058950063
-0.18140303 -0.05165892 -0.15326093 -0.050496794 -0.10744863 -0.26747233 0.037472893 -0.05198056
-0.16830005 -0.046190392 -0.1586525 0.12893339 0.06260071 -0.09102599 -0.19857097 -0.2864184
0.018656276 -0.20805293 0.05107022 -0.012172943 0.23169012 0.18393904 0.024694836 -0.019706862
-0.18235601 -0.19341718 -0.1422004 -0.3165074 -0.24767676 0.019807754 -0.033823296 -0.27632728
-0.100461595 -0.095842764 -0.03494759 0.0065093823 0.041951943 0.28116205 0.029522063 0.24451698
-0.10273138 -0.039199777 -0.0693144 0.078598395 0.06649983 0.0052136304 -0.104793295 0.011138581
-0.014069032 -0.0061095706 -0.1144091 -0.03281859 0.20891161 -0.11445776 -0.033146173 -0.35177353
0.15863678 0.053467423 0.058331124 0.1618374 -0.17182845 0.0887182 -0.07702452 -0.21866053
0.05087321 0.034777068 -0.19165017 -0.26275238 -0.1086535 0.06407454 -0.22760616 -0.060652878
0.0020057708 0.014652888 -0.04211502 -0.11766478 0.21560848 -0.0102709085 -0.12000319 0.022336345
-0.21483682 -0.096307166 -0.0017635059 -0.038528122 -0.18008818 -0.10580332 0.026930569 0.10867721
-0.05903271 -0.009161679 -0.08449169 -0.073212534 -0.044838514 -0.18150659 -0.13845544 -0.10220076
-0.11347982 -0.15484971 -0.052257337 -0.09506167 -0.05465192 -0.08232512 0.28005907 -0.22942677
0.07083554 -0.22416389 -0.04775985 0.0049382686 0.1968179 0.14706175 0.2898054 -0.08812079
-0.19530977 0.020929025 0.05468618 0.047109146 -0.077032834 -0.08830677 -0.0030277334 0.04292288
-0.12148097 -0.28752846 0.08276075 -0.07480751 -0.001187218 0.00079572806 0.004761188 0.19359957
0.06574406 -0.03105451 -0.04623037 0.10897851 0.075972684 -0.24161793 -0.085460246 -0.23012032
-0.10559783 -0.03808148 -0.09703152 -0.08186213 0.11427003 0.19547309 0.10001166 -0.057303518
-0.2197671 0.033889636 0.13448696 -0.029703729 0.034482088 0.0424647 0.036738444 -0.100424185
0.007848236 0.009447594 0.109195404 0.030397698 -0.34636912 0.0472207 -0.24291584 0.036841214
-0.1762647 0.04920982 -0.1221824 -0.14609249 -0.18431734 -0.0006130095 -0.052814033 -0.09042238
0.15636776 0.058711596 -0.07499228 0.07383587 -0.063984334 -0.058741353 -0.08323042 -0.06511649
-0.14297657 -0.24824114 -0.30217835 -0.0580016 -0.19253394 0.10287012 -0.16975328 -0.047448136
-0.09477055 0.016007341 -0.18985032 -0.0650719 -0.12742569 -0.29341695 -0.05602121 -0.092494965
-0.13877587 0.009729806 -0.053468484 -0.23838837 0.010528619 0.058601722 -0.022551885 -0.09205272
-0.056684397 0.05673507 -0.19916105 -0.12454105 -0.13043532 -0.08260423 0.3205231 0.058305748
-0.14126119 -0.017125458 -0.15121673 0.15096578 0.015190072 -0.12302197 -0.06800712 -0.22352877
-0.14323919 -0.08783417 0.042974938 0.0056659933 -0.20182978 -0.080496624 -0.20874017 0.047687717
0.04438835 -0.062812485 0.08419934 -0.23523425 0.32044947 0.035448372 -0.22017571 -0.16049159
0.16254126 -0.044818312 0.15022224 -0.016264908 -0.15955873 -0.13643101 -0.06306815 -0.05466522
-0.27785996 -0.17246848 0.29694566 0.30975664 -0.29988152 -0.059934624 -0.029552286 0.0950702

linear2.bias f4 [4]
00000000: 4bff 7e3d dcd0 31bc 00ad 91ba 42fe fd3d
0.062255185 -0.010853019 -0.001111418 0.124020115
