neural-net/best_instance_dqn.pth (torch, 14751 bytes, 4 tensors)

linear1.weight f4 [256, 8]
0	0x3ddb2d4a	0.107019976
1	0xbe2c2ad0	-0.16813207
2	0x3d32cdce	0.043653302
3	0xbddccea2	-0.107815996
4	0xbe1432a5	-0.14472444
5	0x3e2ac9a0	0.16678476
6	0x3d100440	0.035160303
7	0xbf3527e8	-0.7076402
8	0xbdb23560	-0.08701587
9	0xbd9264dc	-0.07148144
10	0x3d328ca7	0.043591168
11	0x3c005e6f	0.007835015
12	0xbd0a310f	-0.033738192
13	0xbe8a9ae4	-0.27071297
14	0x3c940d3a	0.018072713
15	0xbcc148e0	-0.02359432
16	0xbe198143	-0.14990716
17	0xbdac5643	-0.084148906
18	0x3c09651d	0.008385924
19	0x3eb60157	0.35547897
20	0x3f3d1778	0.73863935
21	0x3f2f2859	0.6842094
22	0x3e87ee7c	0.26549137
23	0x3f1b5100	0.6067047
24	0xbef08506	-0.4697649
25	0xbde97098	-0.11398429
26	0xbdcdc616	-0.100475475
27	0xbe91b801	-0.28460696
28	0xbe4573ce	-0.19282457
29	0x3dcc6a7b	0.09981247
30	0xbe2b5156	-0.16730246
31	0xbe7280ec	-0.23681992
32	0xbefda545	-0.49540153
33	0x3e58170f	0.21102546
34	0xbdeccf85	-0.11563019
35	0xbc9c34d6	-0.019068163
36	0xbe9ba45a	-0.30398828
37	0x3d08678c	0.033301875
38	0xbe999f17	-0.30004188
39	0xbea04b80	-0.31307602
40	0x3e83f045	0.2576925
41	0xbf0a3cce	-0.5399903
42	0x3e7d956f	0.24764036
43	0xbcec769a	-0.028865147
44	0xbec608d1	-0.386786
45	0x3f118baf	0.56853765
46	0x3e026bb3	0.12736396
47	0x3d335f42	0.043792017
48	0xbec33d46	-0.38132685
49	0xbf096308	-0.53666735
50	0xbf29f8b6	-0.6639513
51	0x3d46dfd7	0.048553314
52	0xbef04e3c	-0.46934688
53	0xbf476779	-0.7789226
54	0x3f1b8cb7	0.6076159
55	0xbdc4f1db	-0.09616443
56	0xbe48f4b6	-0.196246
57	0x3e098b0c	0.13431948
58	0x3e26a555	0.16274007
59	0xbdc5c96a	-0.09657557
60	0xbe53a24d	-0.20667382
61	0xbdf534a6	-0.119729325
62	0xbeb58fa6	-0.35461158
63	0xbe1b58fe	-0.15170667
64	0xbf13921c	-0.5764482
65	0x3dd1f7d7	0.1025235
66	0xbe10c40d	-0.14137287
67	0x3c53bb2f	0.012923046
68	0xbeb79020	-0.35852146
69	0x3e508676	0.20363793
70	0xbedc0b85	-0.4297754
71	0xbef748ba	-0.48297673
72	0xbe63d090	-0.22247529
73	0xbe0223e6	-0.12709007
74	0x3cb356e0	0.021892011
75	0xbe840cbf	-0.25790974
76	0xbd266a28	-0.040628582
77	0xbcc1d4f0	-0.023661107
78	0xbdd46352	-0.10370506
79	0x3e67cac2	0.2263594
80	0x3ca1b7a5	0.019740889
81	0xbe0325ee	-0.12807438
82	0xbe4a9f27	-0.19787274
83	0xbf196f9e	-0.5993594
84	0xbf174051	-0.59082514
85	0xbecf6404	-0.40505993
86	0xbed85a82	-0.42256552
87	0x3e289286	0.16462144
88	0xbeaaa0b8	-0.33325744
89	0x3d8fb56d	0.07017026
90	0xbe8ba978	-0.27277732
91	0x3e1a7a7f	0.15085791
92	0xbdf38cfe	-0.118921265
93	0x3d0da320	0.034579396
94	0xbe0bc832	-0.13650587
95	0x3e1669c9	0.14688791
96	0xbf77a0fe	-0.9673003
97	0x3eca3053	0.39489993
98	0x3ec3dd48	0.38254762
99	0x3f0251d7	0.5090613
100	0x3eef0c42	0.4668904
101	0xbf4640c6	-0.77442586
102	0xbe537aae	-0.20652267
103	0xbcee2644	-0.02907098
104	0xbeb39dd4	-0.3508135
105	0xbebc2855	-0.3674952
106	0x3d330960	0.043710113
107	0x3e2aa4e6	0.16664466
108	0x3f02a315	0.51030093
109	0x3e8a8dda	0.2706135
110	0xbf07daa7	-0.5306801
111	0xbeabbe7a	-0.3354376
112	0xbef167ee	-0.47149605
113	0x3e9be530	0.30448294
114	0xbe80d755	-0.25164285
115	0xbe6165a5	-0.2201143
116	0x3eac8481	0.33694842
117	0xbd55a31c	-0.052157506
118	0xbe779ca3	-0.24180846
119	0xbf14b56f	-0.58089346
120	0xbd8b4383	-0.06799986
121	0xbe9df70c	-0.30852544
122	0x3d02c932	0.031930156
123	0xba87cc61	-0.0010360592
124	0x3e10659d	0.14101262
125	0x3eac9de0	0.337142
126	0x3dc5182a	0.096237496
127	0x3dee9b04	0.11650661
128	0xbe24fde0	-0.1611247
129	0x3e1b9f07	0.15197383
130	0xbedb976b	-0.4288896
131	0x3dc12a81	0.09431935
132	0xbecdba1a	-0.40181047
133	0xbf046953	-0.5172321
134	0x3c38e4b5	0.011284997
135	0x3e62955e	0.22127292
136	0x3f0f42e2	0.5596143
137	0xbd357d0a	-0.0443087
138	0xbdf90736	-0.121595785
139	0x3db00550	0.08594763
140	0xbf360e46	-0.7111553
141	0x3e373ca1	0.17894222
142	0xbb82242a	-0.0039715962
143	0x3f2f57c0	0.6849327
144	0xbead65b3	-0.33866653
145	0x3cc249b9	0.023716794
146	0x3e785d43	0.24254327
147	0x3d9f6e03	0.07784655
148	0xbdd1aec5	-0.10238413
149	0xbe33f5de	-0.1757426
150	0xbd1904f1	-0.037358228
151	0xbe4113fa	-0.18855277
152	0xbf17499f	-0.5909671
153	0xbde03f12	-0.1094953
154	0xbf2a3db4	-0.665004
155	0x3d452462	0.0481304
156	0x3e58f1d8	0.21186006
157	0xbe994361	-0.2993422
158	0x3dc49e2f	0.096004836
159	0x3ec203e4	0.37893593
160	0xbe932d2f	-0.2874541
161	0x3efbd5d2	0.4918657
162	0xbdf0022d	-0.11719165
163	0x3f15bd1f	0.584917
164	0x3f31441d	0.6924456
165	0xbeca17a2	-0.39471155
166	0xbe1a1d39	-0.1505021
167	0x3ef3c655	0.47612253
168	0xbf1675f4	-0.5877373
169	0xbf09e4c1	-0.53864676
170	0xbe627512	-0.22114971
171	0x3d87ade1	0.06624962
172	0x3f1d6ee2	0.6149732
173	0x3f18a9b6	0.5963396
174	0xbcd9fb2c	-0.026609026
175	0x3e8989a1	0.26862815
176	0xbc79f88c	-0.015257012
177	0xbe297354	-0.165479
178	0x3eb37a11	0.35054067
179	0xbf3e032c	-0.7422359
180	0xbf5b1a9b	-0.8558747
181	0xbf268f46	-0.6506237
182	0xbeaad4c2	-0.33365446
183	0x3f227e4f	0.6347398
184	0x3d9f04e9	0.077646084
185	0xbf11927f	-0.5686416
186	0x3db0aa87	0.086262755
187	0xbe002271	-0.12513138
188	0x3d1f07fb	0.03882597
189	0x3c1945ef	0.009355052
190	0xbed81e66	-0.42210692
191	0xbf09123e	-0.5354346
192	0xbe3f85ef	-0.18703435
193	0xbce61b1b	-0.028089097
194	0xbe2649e5	-0.16239126
195	0xbca2363b	-0.01980125
196	0x3d904158	0.07043713
197	0xbefb7b2c	-0.4911741
198	0x3e492e58	0.19646585
199	0x3e826212	0.25465447
200	0x3e473f57	0.19457756
201	0xbe139d6a	-0.14415517
202	0x3dd74502	0.10511209
203	0x3e48234e	0.19544718
204	0x3f0d3203	0.55154437
205	0x3f093041	0.53589255
206	0x3e4b0d4d	0.19829293
207	0x3e90e108	0.28296685
208	0x3e4da0ee	0.20080921
209	0xbf5659ec	-0.8373096
210	0x3e6eaef1	0.23308922
211	0x3e441038	0.19146812
212	0x3f4ff6ce	0.8123597
213	0xbf3c93d4	-0.7366307
214	0xbf26e262	-0.6518918
215	0xbf336aab	-0.7008464
216	0xbe2be475	-0.16786368
217	0x3ddeb2d7	0.10873955
218	0xbe7c09ad	-0.24613066
219	0xbe2f964a	-0.17147174
220	0xbe7d9ab0	-0.2476604
221	0xbe953b5d	-0.29146853
222	0xbe7d2fbb	-0.24725239
223	0xbd764d8a	-0.06013254
224	0xbe378364	-0.17921215
225	0x3e204a2e	0.15653297
226	0x3e4c2ac6	0.19938192
227	0xbe92aaa7	-0.28645822
228	0xbc8a90a0	-0.016914666
229	0xbe6f7cad	-0.23387404
230	0xbea550ec	-0.322883
231	0xbe13d376	-0.14436135
232	0x3f176937	0.5914492
233	0x3dfd9a16	0.12382905
234	0x3ee74661	0.45170882
235	0x3eab3ddb	0.3344563
236	0xbee350a4	-0.4439746
237	0x3e71d63c	0.2361688
238	0xbcef321d	-0.0291987
239	0xbe739c6e	-0.23790142
240	0xbdf80079	-0.12109465
241	0xbe789766	-0.24276504
242	0x3ed13123	0.408578
243	0x3e894df1	0.26817277
244	0xbf4caf5d	-0.79955083
245	0xbf4ff58b	-0.81234044
246	0xbf1707b4	-0.5899613
247	0x3d9386fc	0.072034806
248	0xbea4f72a	-0.3221982
249	0xbed146fc	-0.4087447
250	0xbcefd86b	-0.029278
251	0xbd8d3482	-0.06894781
252	0xbe8c36ee	-0.27385658
253	0x3ea80271	0.32814363
254	0xbdc8c5de	-0.09803365
255	0xbeb2ca92	-0.34920174

linear1.bias f4 [256]
0	0xbe651f95	-0.22375329
1	0xbd915929	-0.07097084
2	0xbf1e5332	-0.61845696
3	0xbc02e4a7	-0.007989085
4	0xbea2a767	-0.31768343
5	0xbec5bb41	-0.38619426
6	0xbd973415	-0.07382981
7	0x3d9999f1	0.07500065
8	0x3db98194	0.09057918
9	0xbe88b173	-0.26697883
10	0x3ea72fcc	0.32653654
11	0xbee66e2f	-0.45005938
12	0xbeeb7b4a	-0.459925
13	0xbdb5fdf5	-0.08886329
14	0xbd65af44	-0.05607535
15	0xbf01ad8e	-0.5065545
16	0xbecea671	-0.4036136
17	0xbe30c3c3	-0.17262177
18	0xbea41a5b	-0.32051358
19	0xbecdd43a	-0.4020098
20	0xbed72498	-0.42020106
21	0xbda95d7b	-0.08269783
22	0xbd054c38	-0.03254339
23	0xbe54c25a	-0.20777264
24	0xbe9dd0b2	-0.30823284
25	0xbedea2dc	-0.43483627
26	0x3eddeaec	0.43343294
27	0xbd6c38d4	-0.057671383
28	0xbeb2ee0a	-0.34947234
29	0xbeb96fb3	-0.36218032
30	0x3e363de3	0.17797045
31	0xbbeb712f	-0.0071851234
32	0x3e4b913e	0.19879624
33	0x3d801172	0.062533274
34	0xbe4e692c	-0.20157307
35	0x3d10a4dd	0.035313476
36	0xbed5e3d1	-0.41775373
37	0xbc26bded	-0.010177118
38	0xbd2243e4	-0.039615527
39	0xbdc9f991	-0.09862054
40	0xbe897a65	-0.26851192
41	0x3cb59538	0.02216588
42	0xbe1ae79b	-0.15127413
43	0xbf341833	-0.70349425
44	0xbf0818eb	-0.5316302
45	0x3b828d66	0.003984141
46	0xbe520733	-0.20510559
47	0xbef5b0d0	-0.4798646
48	0xbe885cb1	-0.26633218
49	0xbe8885a8	-0.26664472
50	0xbe988da1	-0.29795554
51	0xbb5abdff	-0.0033377407
52	0xbecfe0bf	-0.40601155
53	0xbeacfda2	-0.33787256
54	0xbe661c4f	-0.22471736
55	0x3e8a33b9	0.26992586
56	0xbe81e8d0	-0.25372934
57	0xbeb4dd2b	-0.35324988
58	0xbe7b8e58	-0.24566019
59	0xbe00b553	-0.1256917
60	0xbe0a4723	-0.13503699
61	0xbf311ca5	-0.69184333
62	0x3dd0cb1f	0.10194992
63	0x3d69da42	0.057092912
64	0xbdbf9a55	-0.093556084
65	0xbe1295b8	-0.14314926
66	0xbea20c15	-0.31649843
67	0x3d4c8b6a	0.049937643
68	0x3e07ffaa	0.13281122
69	0xbe2b1a79	-0.16709317
70	0x3da817a2	0.082076326
71	0xbf139aef	-0.57658285
72	0xbed7b679	-0.42131403
73	0x3ba86917	0.005139481
74	0xbe397f5e	-0.18114993
75	0x3e3ab075	0.18231376
76	0x3cb6cdd6	0.022314947
77	0xbea61ac3	-0.32442293
78	0x3dc147c1	0.09437514
79	0xbe548c4c	-0.20756644
80	0xbe17c544	-0.14821345
81	0x3de31aa4	0.11089066
82	0xbd36ab67	-0.044597056
83	0x3e092ea9	0.13396706
84	0xbe6610da	-0.22467366
85	0xbec6b40b	-0.38809237
86	0xbe6f2523	-0.2335401
87	0x3e4bb3b1	0.19892766
88	0xbe7433b5	-0.2384785
89	0xbe949243	-0.2901784
90	0xbe8f6824	-0.2800914
91	0xbe42ce9a	-0.19024125
92	0x3e8ce108	0.27515435
93	0x3c8a93d6	0.016916197
94	0xbf28bca3	-0.65912837
95	0xbe5ceb2b	-0.21574084
96	0xbd55ebe1	-0.052226905
97	0x3f1cff40	0.6132698
98	0xbe153de9	-0.14574398
99	0xbe83c037	-0.25732586
100	0xbe42d61b	-0.19026987
101	0xbe2f1f45	-0.17101772
102	0x3d977338	0.07395023
103	0x3e7969ae	0.2435672
104	0xbdd6c580	-0.10486889
105	0xbf283edb	-0.6572091
106	0xbe6a8bfe	-0.22904965
107	0xbecfe4d4	-0.4060427
108	0xbe40465b	-0.18776838
109	0xbea82dc8	-0.32847428
110	0xbbbd04d2	-0.005768397
111	0xbea4dd1c	-0.32199943
112	0xbc1ab762	-0.009443136
113	0xbe1d2fd9	-0.15350284
114	0x3e8d4806	0.27594012
115	0x3ea097ab	0.31365713
116	0xbd561e73	-0.052275132
117	0xbea9b06f	-0.3314242
118	0xbebb3769	-0.36565712
119	0xbef66276	-0.48121995
120	0x3e28b7ef	0.16476415
121	0x3e20c123	0.15698676
122	0x3e49a244	0.19690806
123	0x3d38934f	0.04506236
124	0xbecc46ee	-0.39897865
125	0x3d132f66	0.035933875
126	0xbe942183	-0.28931817
127	0xbe81a576	-0.2532155
128	0xbea4b4fe	-0.32169336
129	0xbd8daa45	-0.06917242
130	0xbea2e32f	-0.31813952
131	0xbeb65cca	-0.35617667
132	0xbc7ce79a	-0.0154360775
133	0xbe8ff35f	-0.28115365
134	0xbdbab5ba	-0.09116693
135	0xbe802dd0	-0.25034952
136	0xbeb6c9ee	-0.35700935
137	0xbeeb1f3e	-0.45922273
138	0xbe3a9154	-0.18219501
139	0xbe0b65c1	-0.13613035
140	0x3dba96f1	0.09110821
141	0x3ccf8f81	0.025336983
142	0x3e837287	0.25673315
143	0xbc3abe4e	-0.011397911
144	0xbe391373	-0.18073826
145	0xbcdcb6e0	-0.02694267
146	0x3e356eca	0.17718044
147	0xbe82daab	-0.25557455
148	0xbe2323d6	-0.15931639
149	0x3dc99ee5	0.0984476
150	0xbedf9d0f	-0.43674514
151	0xbe529746	-0.20565519
152	0x3e529f24	0.2056852
153	0xbf3f4f91	-0.74730784
154	0xbe815c66	-0.25265807
155	0xbe7dc131	-0.24780728
156	0x3da2820f	0.07934963
157	0x3e6c8042	0.23095801
158	0x3e160e83	0.14653973
159	0x3ef919c3	0.48652467
160	0xbe4275ad	-0.18990202
161	0x3e5c6ac8	0.21525109
162	0x3ec01871	0.37518647
163	0xbf62c893	-0.885873
164	0x3e40d2e9	0.18830456
165	0xbeb02e79	-0.34410456
166	0xbeeade6c	-0.4587282
167	0x3de908c9	0.11378629
168	0x3f04074e	0.51573646
169	0xbe7241ba	-0.23657885
170	0xbecb4957	-0.3970439
171	0xbed86881	-0.4226723
172	0xbebeee21	-0.37291053
173	0x3c8f030c	0.017457508
174	0xbf0784f8	-0.5293727
175	0x3e816b55	0.252772
176	0x3e27ebb6	0.1639851
177	0xbe486b54	-0.19572192
178	0xbeb24f7e	-0.34826273
179	0x3e857d47	0.26072142
180	0xbe31f6c2	-0.17379287
181	0xbdc31bce	-0.09526788
182	0x3eba3e77	0.36375782
183	0xbeb132a5	-0.3460895
184	0xbf0d36f8	-0.55162
185	0xbce7d2f2	-0.028298829
186	0xbebada87	-0.36494848
187	0xbe691a66	-0.22763976
188	0xbf5e8e42	-0.8693582
189	0x3e00a257	0.12561928
190	0xbda3f30a	-0.080053404
191	0x3e5f6e39	0.2181939
192	0xbe745c96	-0.23863444
193	0xbee5ad02	-0.44858557
194	0xbe49c035	-0.19702227
195	0xbe87ab4e	-0.26497883
196	0xbe9aeb66	-0.3025772
197	0xbde0c917	-0.10975855
198	0xbcc5fb35	-0.024167636
199	0x3e84fbd6	0.25973386
200	0xbea5708c	-0.3231243
201	0xbf0b8cd2	-0.5451175
202	0xbf18d44a	-0.5969893
203	0xbe22dfe7	-0.15905724
204	0xbd89337d	-0.06699274
205	0xbe436637	-0.1908196
206	0xbdfb2b7b	-0.122641526
207	0xbf00235b	-0.5005395
208	0x3d4d98fc	0.050194725
209	0xbddedee8	-0.1088236
210	0xbe7764e4	-0.2415958
211	0xbea406db	-0.3203648
212	0xbf40b55a	-0.7527672
213	0x3da0a7a6	0.078444764
214	0x3d423a63	0.047418963
215	0x3e9a2c08	0.30111718
216	0xbe7e3b5a	-0.24827328
217	0x3e715f58	0.23571527
218	0xbf13d5d2	-0.5774814
219	0x3d7b56e3	0.06136216
220	0xbe435db4	-0.19078714
221	0xbeaacbb2	-0.33358532
222	0xbf16237b	-0.5864789
223	0x3dc20cb0	0.09475076
224	0x3cc3f593	0.02392081
225	0xbe3283f7	-0.17433153
226	0xbeb1f0c7	-0.3475401
227	0xbe29d138	-0.16583717
228	0xbef1a21c	-0.47193992
229	0xbe980e1a	-0.2969826
230	0xbe59f190	-0.21283555
231	0xbe5c81c8	-0.21533883
232	0xbd030faf	-0.03199738
233	0xbddf4587	-0.10901933
234	0xbda6c790	-0.08143532
235	0x3d1ea447	0.038730886
236	0x3e357552	0.17720535
237	0xbf1179c7	-0.5682644
238	0xbe499168	-0.19684374
239	0x3d1ceb00	0.03831005
240	0xbe9cfdc1	-0.3066235
241	0xbe253735	-0.16134341
242	0xbedde8d7	-0.43341705
243	0xbe976aea	-0.29573756
244	0x3ec2bbd0	0.38033915
245	0xbecc560a	-0.39909393
246	0xbe010c13	-0.12602262
247	0xbeb36660	-0.35039043
248	0xbeb74f9d	-0.35802928
249	0x3ca49062	0.020088378
250	0xbf3213c3	-0.69561404
251	0xbe99935d	-0.29995242
252	0xbf001f18	-0.50047445
253	0xbe98a9bb	-0.29816994
254	0x3f2a91be	0.66628635
255	0xbeb2fe5a	-0.3495968

linear2.weight f4 [4, 256]
0	0xbcb1b144	-0.021690972
1	0x3d093bf7	0.033504453
2	0xbe095a82	-0.13413432
3	0x3d91817b	0.071047746
4	0x3e062045	0.13098247
5	0xbdf96c8e	-0.12178908
6	0x3e834ed6	0.25646085
7	0x3d544745	0.05182578
8	0x3e95e13b	0.292734
9	0x3d103420	0.03520596
10	0x3dbd7f53	0.09252801
11	0x3e053de4	0.1301189
12	0xbea3c5d8	-0.3198688
13	0xbcbb6ac6	-0.022878062
14	0x3e548ddd	0.20757242
15	0xbd9fcee1	-0.07803131
16	0xbd89d897	-0.06730764
17	0xbe706ba3	-0.2347856
18	0xbada8bae	-0.0016673708
19	0x3e4249b8	0.18973434
20	0xbd8eee37	-0.069790296
21	0xbd8cb4a3	-0.06870391
22	0x3f025a45	0.5091899
23	0x3e597518	0.21236074
24	0xbc42415b	-0.011856402
25	0xbe8e8ab9	-0.27840212
26	0xbe633496	-0.22188029
27	0x3dc5f2a4	0.09665421
28	0x3d368ef2	0.044569917
29	0xbe3d9507	-0.1851388
30	0xbd9a0087	-0.07519632
31	0xbe1fefc4	-0.15618807
32	0x3e1c6025	0.15271051
33	0x3ee6e411	0.45095876
34	0xbe872c0f	-0.26400802
35	0x3dc2b7e0	0.095077276
36	0xbca20251	-0.019776495
37	0xbd0f214f	-0.034943875
38	0x3e288c8b	0.16459863
39	0x3f0ab3f6	0.5418085
40	0xbdb86a03	-0.09004595
41	0xbd1bb1ae	-0.038011245
42	0xbe478e5e	-0.19487903
43	0xbea973ac	-0.33096063
44	0x3b7fed68	0.0039051417
45	0xbca2b72a	-0.01986273
46	0xbcdd2a58	-0.02699773
47	0xbce93f03	-0.02847243
48	0xbe338314	-0.17530471
49	0xbda4eb01	-0.08052636
50	0xbd412700	-0.047156334
51	0x3d0d8fd4	0.034560993
52	0x3cb133b3	0.021631097
53	0xbe8b5fe7	-0.27221605
54	0xbd5fb3b7	-0.05461475
55	0x3ed6e62d	0.41972485
56	0xbde73c37	-0.11290782
57	0x3b6ed540	0.0036443025
58	0xbe01dd09	-0.12681974
59	0xbe4722e6	-0.19446906
60	0x3e8ca3f7	0.27468845
61	0xbe0f65fa	-0.14003745
62	0x3ae9f089	0.0017848174
63	0x3eaf66a9	0.3425801
64	0xbd26f07a	-0.04075668
65	0x3e4d9c68	0.20079195
66	0xbea526bf	-0.32256123
67	0xbd6ae553	-0.057347607
68	0x3d91fc84	0.07128242
69	0xbc5c2299	-0.013435983
70	0x3db75dbc	0.08953425
71	0xbdf8a292	-0.12140383
72	0x3bbf74fc	0.005842803
73	0x3e1dad0a	0.1539804
74	0x3e105c0e	0.14097616
75	0x3dc36079	0.09539885
76	0x3f05e633	0.5230438
77	0x3ccdfe61	0.025145711
78	0x3d74a2ab	0.059725445
79	0xbd72830c	-0.059207007
80	0x3d86a65f	0.065747015
81	0x3e0e3a75	0.13889487
82	0xbe807e86	-0.2509653
83	0x3ea099fc	0.3136748
84	0xbc9db6fa	-0.01925229
85	0xbe1383aa	-0.14405695
86	0x3e362684	0.1778813
87	0x3ea274fa	0.3172987
88	0xbea54a1e	-0.3228311
89	0xbd6266e7	-0.055273917
90	0xb934b2b7	-0.00017232714
91	0xbd156eb7	-0.03648254
92	0x3d28141e	0.04103481
93	0x3e0e0b71	0.13871552
94	0x3c826fa8	0.015922382
95	0x3e6b9bf7	0.23008715
96	0xbe523615	-0.20528443
97	0x3e8f7f7f	0.2802696
98	0x3eecf49e	0.46280378
99	0x3d644664	0.055731192
100	0x3c9dcb30	0.019261926
101	0xbc59d140	-0.013294518
102	0x3cd61c5b	0.026136568
103	0xbe928f52	-0.2862497
104	0xbe1fdbb1	-0.1561115
105	0xbe9f5861	-0.31122115
106	0x3d7ab6f6	0.06120964
107	0x3dbf6029	0.09344513
108	0x3eaec6aa	0.34135944
109	0xbde169e1	-0.11006523
110	0x3d4c836a	0.049930014
111	0xbd3758dc	-0.044762477
112	0xbd69064a	-0.056890763
113	0x3da897de	0.08232091
114	0x3d34a5d4	0.04410346
115	0x3deb050c	0.11475572
116	0xbd146b65	-0.036235232
117	0x3cce6eb6	0.025199275
118	0xbe29a0a3	-0.16565184
119	0xbdd0edd5	-0.10201613
120	0xbd187059	-0.037216518
121	0x3eb13d20	0.34616947
122	0x3eae6e26	0.34068412
123	0x3f037725	0.51353675
124	0xbbad52ba	-0.005289403
125	0x3f1e6458	0.6187186
126	0x3f17dd18	0.5932174
127	0x3e117da2	0.14208081
128	0xbe44b86d	-0.19210978
129	0xbe2bd0ec	-0.16778916
130	0xbe98d117	-0.29847023
131	0xbececdc9	-0.40391377
132	0x3ed0dd26	0.40793723
133	0x3ee6a13a	0.4504488
134	0x3dff6e00	0.12472153
135	0xbe45ae15	-0.19304688
136	0xbecaee3b	-0.3963488
137	0xbe5adc79	-0.21373166
138	0xbd1f62c7	-0.03891256
139	0xbbd0d88f	-0.006373472
140	0x3d3f9127	0.046769287
141	0xbdfc49b3	-0.123187445
142	0x3e9b71cf	0.30360267
143	0x3c89e3d3	0.016832268
144	0xbe2e0968	-0.16995776
145	0xbe3b810e	-0.18310949
146	0xbecaa816	-0.39581364
147	0xbe1cc50f	-0.15309547
148	0x3e940a2a	0.28914005
149	0xbd97e0f8	-0.07415956
150	0xbe58a4a1	-0.21156551
151	0x3da8dd7a	0.08245368
152	0x3ca1c98a	0.019749422
153	0xbe8c4671	-0.27397493
154	0xbe07c1b2	-0.13257483
155	0x3be395f0	0.006945364
156	0x3ec6ecbc	0.3885249
157	0xbdf41af5	-0.11919204
158	0x3ea81fe2	0.32836825
159	0x3e6ef7d3	0.23336725
160	0xbe8af414	-0.27139342
161	0x3d3650e1	0.044510726
162	0x3e1e947c	0.1548633
163	0xbed9e22e	-0.42555374
164	0xbd749f81	-0.059722427
165	0xbcdfd685	-0.02732397
166	0x3e03f60e	0.12886831
167	0x3e109a32	0.14121321
168	0x3e46f04e	0.19427606
169	0xbe512203	-0.2042313
170	0xbdabdfa8	-0.083922684
171	0x3d6d3165	0.057908434
172	0x3e8a0f23	0.26964673
173	0x3ed5adc1	0.41734126
174	0x3d83eea2	0.06442
175	0xbe85a144	-0.26099598
176	0x3edcfd98	0.43162227
177	0xbd135ef4	-0.035979226
178	0xbe4191f9	-0.1890334
179	0xbcba103b	-0.022712817
180	0xbd2b3e22	-0.0418073
181	0x3e8c07e0	0.27349758
182	0x3dc26234	0.09491387
183	0xbd99d870	-0.07511985
184	0x3e4d6cde	0.20061061
185	0x3e8974ac	0.26846826
186	0xbec32242	-0.38112074
187	0xbdbc24f4	-0.09186736
188	0xbea210a5	-0.31653324
189	0x3df62e74	0.12020579
190	0xbbcaeb72	-0.006192618
191	0xbdafa008	-0.085754454
192	0x3bc73199	0.0060789105
193	0xbd275f8c	-0.040862605
194	0xbcfaecd0	-0.0306305
195	0xbb578000	-0.003288269
196	0xbd93fdbd	-0.07226131
197	0xbc159955	-0.0091307955
198	0x3dbfa295	0.09357182
199	0xbde837f6	-0.11338799
200	0xb87137aa	-5.751072e-05
201	0x3e68daa3	0.22739653
202	0xbe4286fb	-0.18996803
203	0xbdd40bc9	-0.1035381
204	0xbdcfa3e1	-0.10138679
205	0xbc5e64dc	-0.013573851
206	0x3ec76266	0.3894226
207	0xbc2b35b0	-0.010449812
208	0xbee5b4ac	-0.44864404
209	0xbd7de0f8	-0.061982125
210	0xbd2d8303	-0.04236127
211	0xbce22c73	-0.027609086
212	0xbe2c8682	-0.16848186
213	0x3e58ae66	0.21160278
214	0x3d8ee37f	0.06976985
215	0x3e73e92f	0.23819421
216	0xbdf063eb	-0.11737808
217	0x3d59eefc	0.05320643
218	0xbdd68a5c	-0.10475609
219	0xbdefb2f2	-0.11704053
220	0xbd2aa078	-0.04165694
221	0x3ccf01ab	0.02526935
222	0x3bef77e8	0.007307995
223	0x3ca4d81a	0.020122577
224	0x3f2426a7	0.6412148
225	0xbcb075bd	-0.021540517
226	0xbd26378f	-0.04058033
227	0xbdcb9191	-0.09939874
228	0x3dc24b32	0.094869986
229	0xbc189d00	-0.0093147755
230	0xbd4bb835	-0.04973622
231	0xbca92e27	-0.02065189
232	0xbec5c455	-0.38626352
233	0x3eb6fec7	0.35741255
234	0x3bc7e05f	0.006099745
235	0xbcbac56b	-0.022799214
236	0x3e8661fe	0.26246637
237	0xbeba2085	-0.36352935
238	0xbec06c2b	-0.37582526
239	0xbca8a9a5	-0.020588705
240	0x3d174c3f	0.03693795
241	0x3f0ba19b	0.54543465
242	0xbe39d6d3	-0.18148355
243	0xbc5c0a77	-0.013430229
244	0x3efb61ec	0.49098146
245	0xbdcaf1d7	-0.099094085
246	0x3aa655a6	0.001269032
247	0x3c0341a6	0.008011257
248	0xbe051d86	-0.12999544
249	0x3e40e7cf	0.18838428
250	0xbe2b50ab	-0.16729991
251	0xbc77bc85	-0.01512063
252	0xbdb7c6e8	-0.08973485
253	0x3ea6a68f	0.3254895
254	0x3e0f5c92	0.14000157
255	0xbe3ee2d0	-0.1864121

linear2.bias f4 [4]
0	0x3c91e246	0.01780809
1	0x3e28e2c3	0.16492753
2	0x3d75e883	0.060036194
3	0xbc4a2878	-0.01233875
