neural-net/best_instance_dqn.pth (torch, 14751 bytes, 4 tensors)

linear1.weight f4 [256, 8]
00000000: 0488 773e 04dc dfbe dc62 903e 6d08 d9be
00000010: aa7a cabe 5e74 1ebf 667b 52be 0061 f53e
00000020: 74ca a33e 4442 adbd b54a ccbe ba2c d13d
00000030: 8f0a afbe 0f4a ba3e 3317 8e3d 831d 993c
00000040: af5c dd3e 18b7 95bd 85d1 4d3e fcf0 f93d
00000050: e8fa c83e e79a 97bd b096 b63e a13a b03e
00000060: a863 813d 4598 55be f5b5 63be 8aa1 3fbe
00000070: 89ea 24bd 658c b53e 13c3 b83e e1d0 5f3e
00000080: e06e 94bc c08e 733c 42bd 42be 20ab 0ebd
00000090: b606 a3be 2cd5 8e3d e030 5ebd 70b8 9abd
000000a0: c9e5 c7be 1b49 3fbe 77eb b7be a1a6 103e
000000b0: 63f1 c73e d0ec 583e 3004 fbbd a742 953e
000000c0: 9c1d a73d 3079 0b3e 6eb7 003e ede7 923d
000000d0: 4327 fbbd b966 4a3e 5cad a53e 4c2f 293f
000000e0: 75e0 df3d db1e ebbd f773 91be 3468 82be
000000f0: f3b5 713c 87d8 853e 1eda 47bc 020c 97be
00000100: 227d 893e 2efa 47bd 1411 bebd 7531 e33d
00000110: 1a4d d33e c947 713e 9762 2c3e 8044 28be
00000120: 154b c13e 690a 463b 47d5 fdbd 87bc 243e
00000130: a83d 0b3e b365 7c3e 0521 ae3d 8fc4 c03e
00000140: c594 1bbe 1e3f 88bc ad37 8e3d b9bf cdbe
00000150: ece8 d33c acac dcbe 739b 5b3d ef4f ed3d
00000160: c718 17be eb9b c73e 8092 a93e 0371 e83d
00000170: cda5 1dbd 9a1e 8e3d 662f f13e 583b 123f
00000180: 768f d63e 239f 1d3e 0527 3ebe cb5b 3bbe
00000190: 8689 893e 6c79 ed3d ac6c 92bd 1e49 70be
000001a0: eb3e ee3c d1cb 513d 1bf9 0fbd 9b39 b03e
000001b0: c28e eb3e 331a bf3e b90c 8f3d 3e7d 22be
000001c0: 2fc7 66bd 0f5c c33c 7510 b23d 95be 0e3e
000001d0: 42d5 fd3d 0629 a8be 86a4 c8be bfe9 4d3e
000001e0: fe14 a73e ead0 c13d d5a1 2f3e 5010 e5bd
000001f0: 4ff9 83bd c872 1f3e 068c b73e b1f1 673d
00000200: 0c72 bb3e 2804 f13e c395 bcbe 6ed4 1b3e
00000210: 1dcb 9c3d 5897 1f3e 3686 f9be 9f4a 64be
00000220: f2c7 9b3d 61a9 c33d c584 f83e a692 bd3d
00000230: c8b6 6fbe cb97 97be 3f35 6dbe 968e d23e
00000240: 44aa 8d3e 8c58 183e 8d8e 0cbe a7f6 983d
00000250: 79c4 223e 445e 0c3e 3a74 21be 12f3 9a3d
00000260: 1bc9 20be 7b35 023e b37a 8ebe abd3 8b3d
00000270: 4996 2cbe e449 ed3e 567b e0be e7fa a5bd
00000280: 2880 fe3e 0e4c 36be 59ad cd3c ada8 753e
00000290: b8ef ef3d 0e7e b1be 3b6a 3a3e 1474 bcbe
000002a0: 52e6 183e 1e1f a5be 62ef ac3b 1b13 b23e
000002b0: c26f 69be d309 513e cb86 9b3e de92 d2bd
000002c0: 6fa6 b63d 975f 7abe d18b c3be cc8c 0f3e
000002d0: ce6d 75be 7b57 dc3d df99 2d3e 55d2 e53d
000002e0: 72cd f7bc a611 0d3e d567 a13e 9750 edbd
000002f0: 910e a3bd 7a50 5c3e f3d0 cdbd 228c 783e
00000300: 7f84 953d ed30 75be a525 a4be 30f6 dd3e
00000310: 057d ed3d 78d1 c73e 2e2b b3be bb67 853e
00000320: f1f1 ad3e 3b11 6b3e af8d c53e 9458 d6bd
00000330: f1ae 983e dbda 543e 2cd5 30be badd c13e
00000340: 8879 d33e 9191 a13e cf46 b53c b340 46be
00000350: 1e26 e53e 23fa 1f3d 8b20 133e 89d1 82bd
00000360: 065d 0abe 128b 0a3e 3d51 1c3e d56d c93d
00000370: 5160 363e 5550 913e bdac d73e 62b9 4c3e
00000380: 69f5 0fbe f323 a93e 7130 da3c 97f4 cbbd
00000390: 6a22 c33e 474b 5fbe 8735 cd3e 8d4c 563e
000003a0: d0e0 3fbd 3768 83be 4e1b 4fbe 9f52 36be
000003b0: 3df4 6cbe 3aa3 8bbd 8267 a6bd d65e bd3e
000003c0: 9466 663e c9fa 8bbe b483 c9bd 1257 5a3d
000003d0: 6c9c 713c 8dbd afbe 94d1 82bd c726 53bd
000003e0: b985 6dbe 13aa f33e daf2 9d3e ec40 e53d
000003f0: 4238 e3bd 13d1 073e 0c16 11be be4f 92be
0.2417298 -0.43722546 0.28200424 -0.4238924 -0.3954671 -0.6189631 -0.20554885 0.47925568
0.31990397 -0.08459905 -0.39900747 0.10213609 -0.34187743 0.36384627 0.06938019 0.01869083
0.43234774 -0.07310313 0.20099457 0.12204167 0.39253926 -0.07402592 0.3566184 0.3441973
0.06317836 -0.20858867 -0.2223738 -0.18713966 -0.040262733 0.35458675 0.3608633 0.21857025
-0.018119276 0.014865577 -0.19017509 -0.034831166 -0.31841058 0.06974253 -0.05424583 -0.0755471
-0.390425 -0.18680231 -0.35921833 0.14126064 0.3905135 0.21184087 -0.12256658 0.29152414
0.081599444 0.13620448 0.12569973 0.071731426 -0.12263348 0.19765748 0.32358825 0.66087794
0.10931484 -0.114804946 -0.28408787 -0.25470126 0.014752853 0.2614176 -0.012197999 -0.2950135
0.2685328 -0.048822574 -0.09280601 0.110934176 0.4126976 0.2356254 0.16834484 -0.1643238
0.37752596 0.0030218607 -0.12394195 0.16087542 0.13597739 0.2464817 0.08502392 0.37649962
-0.1519347 -0.01663166 0.06944213 -0.40185335 0.025867902 -0.43100488 0.053615045 0.11587512
-0.14755546 0.38986143 0.33119583 0.1134968 -0.038488198 0.069394305 0.47106475 0.571218
0.41906327 0.15392737 -0.18569572 -0.18296735 0.26862735 0.11595425 -0.07149634 -0.23465392
0.029082736 0.051219765 -0.035149675 0.3441895 0.46007353 0.37324676 0.069848485 -0.15868089
-0.0563423 0.023847608 0.08694545 0.13939889 0.12394191 -0.32843798 -0.3918802 0.20108698
0.32633203 0.09463675 0.17151578 -0.11184752 -0.06444036 0.1557113 0.35849017 0.05662698
0.36610448 0.47073483 -0.3683301 0.15217754 0.07655928 0.15585077 -0.48735207 -0.2229409
0.07606496 0.09553791 0.48538795 0.092564866 -0.2340957 -0.29607996 -0.23164843 0.4112441
0.27668965 0.14877528 -0.13726254 0.0746892 0.15895261 0.13707834 -0.15766993 0.07565893
-0.15701716 0.12715714 -0.27827987 0.06827482 -0.16854204 0.46345437 -0.43844098 -0.081044964
0.4970715 -0.1780245 0.025107073 0.23990126 0.117156446 -0.34666485 0.18204586 -0.3680731
0.1493161 -0.32250303 0.00527756 0.347802 -0.22796538 0.20413904 0.30376276 -0.10281919
0.089184634 -0.24450527 -0.3819261 0.14018553 -0.23967668 0.10758873 0.16953228 0.11221758
-0.030249331 0.13776264 0.3152453 -0.11587637 -0.07961763 0.21515074 -0.100496195 0.24272206
0.07300662 -0.23944445 -0.3205997 0.4335189 0.11596111 0.39027 -0.3499388 0.26055703
0.3397365 0.22955792 0.38584659 -0.10466114 0.2982097 0.20786612 -0.17268819 0.37864476
0.41303658 0.3155637 0.02212849 -0.19360618 0.44755644 0.03905691 0.14367883 -0.06387622
-0.13512048 0.13529614 0.15265365 0.09835402 0.1781018 0.283816 0.42123976 0.19992593
-0.1405846 0.3303524 0.026634427 -0.09958761 0.38112193 -0.2180606 0.400799 0.2092764
-0.046845257 -0.25665447 -0.2022526 -0.17804955 -0.23140045 -0.06818242 -0.08125211 0.36986417
0.22500068 -0.2733977 -0.098395735 0.053305693 0.014746767 -0.34324303 -0.0638763 -0.051550653
-0.23195542 0.47590694 0.30849344 0.111940235 -0.11094715 0.13263349 -0.14168566 -0.28576463

linear1.bias f4 [256]
00000000: aa4d c83c dc29 8ebe 4d8e f53d 7d68 21be
00000010: 8843 a9be 8170 eabc ea91 7d3d cf53 3f3e
00000020: e53d 803e b624 82be 1c67 8d3e cdcf 533e
00000030: a2d7 abbe facd 403e bd29 813e 523d 86be
00000040: df19 e9bd 81b1 0b3e 12e0 153d b072 7b3d
00000050: 5826 c83d bbff f13d bb23 743e 0eda 583e
00000060: 96e0 1ebe 131d 6a3e febe 093d e4a9 e5bc
00000070: b7f7 80be ed19 873e 3e44 bcbe bcaa a73e
00000080: 0726 ae3c 3667 89be 1153 15be 9c90 373e
00000090: 61e4 8a3d e58a 573e cf73 823e 97c0 5abe
000000a0: 6e6d 89bd 77ba 783e 8d65 adbe 0f07 4cbe
000000b0: 9d3f 92be 570f 983d cfc7 9bbd 88a5 153e
000000c0: 964c 90bd 028a cc3e 03cd debd d43a f839
000000d0: 7bb1 3e3e 7084 66be 74f7 c9bd 9786 cd3e
000000e0: 6209 b33e f345 0a3d b657 8d3e b5e1 ca3e
000000f0: 0e2e 473d f95c 8cbd dd39 8a3d 9ae1 0bbe
00000100: fbfa 17be b88a e03d f8f6 e63e 9af3 9abd
00000110: 13ff 3cbe 7c81 0b3e edba 083d bca1 2abe
00000120: f390 a0be 3aaf 833d 5734 a43e 8f90 a5be
00000130: 86e5 08be ba52 92be 434d 723d 8f8b 263e
00000140: 7f1d 5a3e 0e20 9fbe a324 9fbe 7bb4 1e3e
00000150: f7da 293e d381 34be 4bf2 6bbc 44cb de3d
00000160: a721 ebbd 2419 153e d65c d9bc cdfb 67bd
00000170: 9519 923e 7f27 f83d 56ca ab3e 3c3b ffbd
00000180: 8c40 bb3d 5a5d 423e dc0f 71bd 5e27 083e
00000190: dda7 8fbd 88ec cf3d 408a da3d 966f 0a3d
000001a0: 2002 4ebd c183 9c3e ecd9 3d3e 3695 093d
000001b0: 3b7c c93e e290 5d3e 09d9 323e 9006 7b3e
000001c0: 8491 2fbd fb7e 52bd f78f 47bc bca0 a9bd
000001d0: 9fd7 ae3d 9874 943d 0ed1 383e dd68 4a3e
000001e0: a6c9 983d 5a03 3bbd 41d0 eabd 55d9 563e
000001f0: e655 3bbe 46e3 ba3d 4a22 4a3e 8579 bd3d
00000200: 08dd 9a3e d2e7 a73e 0ff1 403e 2e92 b33e
00000210: 25be e0bb 32c0 99be eb40 48bd 35d7 033f
00000220: e3c5 353e 29d3 2fbe 4d35 953d 6f69 bf3c
00000230: bd61 263e 8f99 10bd d573 d3bd 58cc cd3c
00000240: f58c 65bd 0da3 963e 30d6 e93c a001 303e
00000250: 5506 1bbe 1f12 20bd c95c bc3e 0484 ecbd
00000260: 7d71 953e 72f7 54be 43f7 be3e e78c 96be
00000270: 5f23 a23e dcf9 0abe 5500 c2bc b58d 35be
00000280: 5bba dc3c 07d9 293d 4276 99bd d9a8 91be
00000290: a222 b13e bc12 bdbc 53e5 693e d99e 063e
000002a0: 5609 883e 3e7e 9f3e 762b a9be ce6a 3e3e
000002b0: c597 d8be fc81 7cbe 4873 febd 7fba 843e
000002c0: cafb 143e 2841 863e 1da5 b03d 0e12 313e
000002d0: df8c 8bbe 2463 633e e3a1 033e 67f0 3d3d
000002e0: 7f1f 2abd d341 40be d0b6 83bc b0f9 463e
000002f0: 6f3c debd 8a00 55be 51c4 103c dbed b23d
00000300: bf41 903e 3dae df3e d9d7 e53d b824 19be
00000310: 5784 9abd 71f9 b4bc b6a8 5bbe 7f22 98bd
00000320: 4472 383e dd73 ce3d 7fd5 bdbe 4db7 363e
00000330: 736c 84bd af5e 063e 1d4b 4b3e 8293 013e
00000340: 1d05 a93d b686 b13d 3a9e 353d 2d33 45bc
00000350: 683c 7b3d 9a01 043e 9823 7d3e 8460 c5bc
00000360: c9c0 a0bd 5b15 653e 7cb4 82bd 46f2 703e
00000370: e7cb b0bd 5d43 98be 4ba1 4a3e 4e84 d13d
00000380: 4667 c33e 256d 0b3c 6ba8 5d3e 5d02 053e
00000390: 16f0 a43e ebd1 173e 9218 3d3e 6920 063e
000003a0: 1d44 5f3e c913 6a3d 9b13 96bd 5a37 b53d
000003b0: bff4 f7bb 0cff c4bd 725f 15be f420 823e
000003c0: 4c6b cdbd e24f d8bb 8660 8e3d de04 1abc
000003d0: c446 63be 457e f7bc 47d5 f63d e8a6 443d
000003e0: b9c2 74bd 916a 56be 9a33 77be d711 843e
000003f0: 2833 c2bd f148 b0be 45b9 5bbd 0d81 903e
0.024451096 -0.2776631 0.11990032 -0.15762515 -0.33059335 -0.0286181 0.061906733 0.18684314
0.25047222 -0.25418633 0.2761773 0.20684738 -0.33562952 0.18828574 0.25227156 -0.2621866
-0.11381888 0.13641931 0.036590643 0.06138867 0.097729385 0.11816355 0.23841755 0.21176931
-0.1551536 0.22862653 0.03362941 -0.028035112 -0.2518899 0.26386967 -0.36770815 0.32747447
0.021258367 -0.26836556 -0.14582469 0.17926258 0.06781841 0.21049078 0.2547898 -0.2136253
-0.06710325 0.2428988 -0.3386654 -0.19924568 -0.28564158 0.07424801 -0.0760647 0.14613926
-0.070458576 0.39949042 -0.10878947 0.00047346076 0.18622391 -0.22511458 -0.09861651 0.40141746
0.34968096 0.033758115 0.2760598 0.39625326 0.048627906 -0.068536706 0.06749318 -0.13660279
-0.14841835 0.109639585 0.45110297 -0.075659946 -0.18456678 0.13623613 0.03338139 -0.1666326
-0.31360587 0.06429906 0.32071182 -0.32336852 -0.13368806 -0.2857874 0.059155714 0.16264175
0.21300314 -0.31079143 -0.3108264 0.15498535 0.16587435 -0.17627649 -0.014401029 0.108786136
-0.11481028 0.14560372 -0.026533525 -0.05663662 0.28535143 0.12116908 0.33552808 -0.1246247
0.09143171 0.18980923 -0.058853015 0.13296267 -0.07014439 0.10152537 0.106709 0.033797823
-0.050294995 0.3056927 0.18540162 0.033589564 0.39352593 0.216373 0.17465605 0.24514222
-0.042863384 -0.05139063 -0.01218032 -0.08282611 0.0853722 0.07248801 0.18048498 0.19766565
0.074603364 -0.045657493 -0.114655025 0.20981343 -0.18294486 0.0912538 0.19739643 0.09251694
0.30246758 0.32794052 0.18841957 0.35072464 -0.0068586045 -0.30029446 -0.048890036 0.51500255
0.17751269 -0.17170395 0.07285557 0.023365704 0.16248222 -0.035302695 -0.103248276 0.025121853
-0.05604263 0.29421273 0.028544515 0.1718812 -0.15139134 -0.03907978 0.3678954 -0.115486175
0.29188147 -0.20797518 0.3729802 -0.29404375 0.3166761 -0.13571876 -0.023681799 -0.17729838
0.02694433 0.04146674 -0.07493259 -0.28449133 0.34596735 -0.023080222 0.22841386 0.13146533
0.26569623 0.31151003 -0.3304097 0.1859543 -0.4230329 -0.2465896 -0.12424332 0.25923535
0.14549175 0.26221585 0.08625243 0.17292044 -0.27255914 0.22205788 0.12854724 0.046371844
-0.041533943 -0.1877511 -0.016078383 0.19431186 -0.108513705 -0.20800987 0.008835868 0.087367736
0.2817516 0.4368762 0.1122281 -0.14955413 -0.07544773 -0.0220916 -0.21451077 -0.074284546
0.18012339 0.10080693 -0.37076947 0.17843361 -0.064659975 0.13122056 0.19852872 0.12653926
0.082529284 0.08668272 0.04434035 -0.012036127 0.061336905 0.12891236 0.24720609 -0.024093874
-0.07849271 0.22371428 -0.06382081 0.2352992 -0.08632641 -0.29738894 0.19788091 0.10230313
0.3816473 0.008509909 0.21646278 0.12989183 0.3221442 0.14826171 0.18466404 0.13098301
0.21803327 0.057147775 -0.07327958 0.08848448 -0.007567018 -0.09618959 -0.14587191 0.25415766
-0.10030231 -0.0066013196 0.06952004 -0.0094005745 -0.22194964 -0.030211577 0.12052398 0.048010737
-0.059756014 -0.2093909 -0.24140778 0.2579486 -0.094824135 -0.3443065 -0.053643484 0.28223458

linear2.weight f4 [4, 256]
00000000: 775e 9f3d 258a c0bd 6961 23bd c3fa 21be
00000010: a844 a9bc 125a 82be a580 a0bd 3d07 b8bd
00000020: 9a51 86bc aaaf cbbd 8b80 94bc 7201 38bd
00000030: 66f1 0d3b 44b4 c2bd e25a 3bbe 719b 89bd
00000040: 73dc a53e 9e71 1cbe e1d9 09bd 1077 16bd
00000050: f45e 613e 5dbe 6b3d 152d 9b3d 921c 37be
00000060: 8e94 26be bb9b 4cbe 73db bebd 0bdc 7ebd
00000070: 29e8 8bbd 01fa 10bd e88f 903b a5a2 b33c
00000080: c84c 163d b832 b3bc ccf6 a13c 2221 2bbe
00000090: 3934 d6bd dde0 813d 55a4 19be eef6 123d
000000a0: fbee 0fbe 7a5d e0bd e8d7 02bc 64e0 173e
000000b0: 98ae 21bd 7968 2cbe c398 9d3d 4aff a3be
000000c0: eb5c f6bd a788 713e 05f2 84be d613 a83c
000000d0: 25a2 63be d4e7 0dbe 13ee 7fbe 70d8 6f3e
000000e0: 5699 a5bc 6787 a3bd 531e a6bd 5b7f e63d
000000f0: 20ec b1bd cc98 863e d9fa 2dbe b965 14be
00000100: a26b 25be 8a88 a4bc 1f99 4b3e fb4c 2ebe
00000110: c22b 2cbe 3b9a 67be c638 d13e 6a00 003e
00000120: b5cb c3bd f592 55be efa1 883d 3ec2 0fbe
00000130: 400d ee3c ff15 14be b550 12be 1ff9 ccbc
00000140: f747 5fbd a44d abbc e580 06bd f013 05be
00000150: ce37 17bd 41cf 01be 1234 5cbd 88bd 4abe
00000160: b9a8 a2bd b39e 283d 6668 d6bc fb16 8dbd
00000170: 3274 80be c996 30be 3c38 093d 7566 2cbe
00000180: 8b6c 7bba 88e8 2abd 63e0 2ebd 4bcd 50be
00000190: d2c9 363d df6e 1a3d 08da ba3d 1357 81bd
000001a0: 1c52 55bd 464f 03be e9d0 1ebe 68ef 023e
000001b0: fc99 f33b 924e 05be 4a61 11be f1c7 9f3e
000001c0: 96f0 2cbe 2eda aabd 0260 d2bd c74f bb3e
000001d0: e899 cfbd 9de1 043e 09ee 01be cfb6 eebd
000001e0: 12c8 16be 354a 79be 5489 5abd e417 dfbc
000001f0: 38a7 6cbd e1ca 0fbd ae70 84bd ec93 303e
00000200: 9d18 733e f908 08bd df13 f2bd f1b7 0c3e
00000210: 19ab 273e f145 293d b62e 163e bf18 a53e
00000220: 8289 cdbd d283 9dbd 4352 40bd e10d 733d
00000230: 8ba0 243e e2fe 3ebe 6a22 ebbd 8ee5 c5bc
00000240: b43d e2bd b09b a93c 0caa 21be a949 fa3d
00000250: 35bf 0c3d 0c8f 93bd 5834 be3d b167 9bbc
00000260: a2f4 0a3e 6c40 693e 79dd 73bd e78a b13d
00000270: f1b5 f03d 11f0 283d 7a3f 9b3c ca1a 3ebd
00000280: e354 97bd 4e5e 793e 073d 11be 223d e1bd
00000290: a04b 45bd af3c 1fbd d179 623e 3b00 6cbd
000002a0: c58a 933e e487 66bd 9511 acbd 5324 dbbd
000002b0: d02e a4bd 09c7 83be 0e6d 41be fac3 efbd
000002c0: 27a0 00be 3791 46be fe46 d83d 4803 37bd
000002d0: 94b6 b3bd 5322 213e b56c 89bd dbb0 e4be
000002e0: dbac 843e 895a 90bc 60a2 2d3d 65d9 883e
000002f0: 320e b5bd a257 74bd 02b1 563e a605 86bd
00000300: 1981 953d eb90 50be adb7 0abe f0c2 5fbe
00000310: 314f 083d 4b5f 9d3b dc9e 39be 3cf6 adbe
00000320: f7a6 54bd 8c45 94bd 21fa 923b 8ca9 89be
00000330: 60a4 f8bc a3a3 8c3d fbd4 033e 363c 2bbe
00000340: 71f5 6bbd 2a82 2bbe cfb2 86bd 8255 eebd
00000350: 783e 2dbd 7141 ecbc e6af 1dbe d01a 30be
00000360: 9cee e43b dc5a ad3d f2d5 6a3e 20b4 253d
00000370: 5677 663c 3583 33be 5c5e d7bc afaa 0b3e
00000380: 85c5 a2bd 3366 973e 00a5 08be 66dd 85be
00000390: 4dd7 013e 375b f5bd ee1c b6bd dfbe 0ebe
000003a0: 9f23 3bbe 2a70 133e 8a2a fbbd 7a04 383d
000003b0: 5777 8fbc 6b7f 6e3e 6e6d 1fbe d7e1 36bd
000003c0: 6e40 88bd 5d60 10be 1534 ec3d b17e cebc
000003d0: cc08 f0bc 3908 8ebd 2953 9f3d fffa 92bd
000003e0: f4ce b7bd f973 b7bd cbea 5bbd 59df aebd
000003f0: 9adb 74be 0636 fbbd 86ca 1ebe 3340 593d
0.077816896 -0.09401349 -0.03988782 -0.15818314 -0.02066262 -0.25459343 -0.07837037 -0.089857556
-0.016396333 -0.09945615 -0.0181277 -0.044923253 0.0021658777 -0.09507039 -0.18296388 -0.06719101
0.32394752 -0.15277717 -0.03365505 -0.03673464 0.22008878 0.05755459 0.07576958 -0.17881992
-0.16267607 -0.19981281 -0.093192 -0.062221568 -0.068313904 -0.035394672 0.004411686 0.02192814
0.036694318 -0.02187477 0.019771002 -0.16711858 -0.104591794 0.063417174 -0.15004094 0.03588002
-0.14056008 -0.10955329 -0.007986046 0.14831692 -0.039473146 -0.16836728 0.076951526 -0.32030708
-0.120294414 0.23587285 -0.25965896 0.020517271 -0.22229822 -0.13857967 -0.24993162 0.23422408
-0.020214718 -0.0798481 -0.08111253 0.1125476 -0.086876154 0.2628845 -0.16990222 -0.14491929
-0.1615434 -0.020084638 0.1988263 -0.17021553 -0.16813567 -0.22617428 0.40863627 0.12500158
-0.095603384 -0.20856841 0.066715114 -0.14038941 0.029059052 -0.14461516 -0.142886 -0.025021134
-0.05451199 -0.020911045 -0.032837767 -0.12995887 -0.036918454 -0.12676717 -0.053760596 -0.19798863
-0.079423375 0.041166972 -0.026172828 -0.06889149 -0.2508865 -0.1724502 0.033500895 -0.1683596
-0.00095910643 -0.041725665 -0.04269446 -0.20390813 0.044626065 0.03770339 0.091236174 -0.06315436
-0.05208026 -0.12823209 -0.1550938 0.12786639 0.007434128 -0.13018253 -0.14197269 0.3120723
-0.16888651 -0.08342396 -0.10272218 0.36584303 -0.10136777 0.1297669 -0.1268846 -0.11655962
-0.14724758 -0.24344714 -0.053353623 -0.027233072 -0.05777666 -0.03510559 -0.064668044 0.17243928
0.23739858 -0.033211682 -0.11820196 0.13742043 0.16373862 0.041326467 0.14666256 0.32245442
-0.10035993 -0.07691158 -0.04695345 0.059339408 0.16076867 -0.18651918 -0.11481173 -0.024157312
-0.11046925 0.02070412 -0.15787524 0.12221081 0.034362037 -0.072050184 0.092873275 -0.018970342
0.13569883 0.22778481 -0.059537385 0.08669072 0.117534526 0.04124457 0.018951166 -0.046412267
-0.07389238 0.2435238 -0.14183436 -0.10997988 -0.048167825 -0.03887623 0.22116782 -0.057617407
0.2881681 -0.05628194 -0.08401791 -0.10700288 -0.08016741 -0.2573779 -0.18889257 -0.117073014
-0.12561093 -0.19391333 0.10560416 -0.044680864 -0.087750584 0.1573575 -0.06710187 -0.4466618
0.25913128 -0.017621296 0.04239118 0.2672836 -0.08840598 -0.059653886 0.2096596 -0.06544046
0.07300014 -0.20367782 -0.13546629 -0.21851707 0.033278648 0.0048026196 -0.18127006 -0.33976924
-0.051917043 -0.072398275 0.004485384 -0.26887167 -0.030351818 0.06867149 0.12874214 -0.16722187
-0.057607118 -0.16748872 -0.06577074 -0.11637403 -0.042295903 -0.028839799 -0.15399131 -0.17197728
0.0069864523 0.08464596 0.22933176 0.040454984 0.014066538 -0.1753052 -0.026290111 0.1363933
-0.0794783 0.2957016 -0.13344193 -0.26145476 0.12679787 -0.119802885 -0.08892237 -0.13939999
-0.18275307 0.14398256 -0.12263973 0.044926144 -0.01751296 0.23290794 -0.15569088 -0.04464897
-0.06652914 -0.1409926 0.11533371 -0.025206896 -0.02930107 -0.06935162 0.077795334 -0.0717678
-0.0897502 -0.08957667 -0.053690713 -0.08538694 -0.23911896 -0.122661635 -0.15506944 0.05303974

linear2.bias f4 [4]
00000000: be24 6d3d 7749 5f3c 952d 06bd 849c 8dbc
0.05789637 0.013628355 -0.032758314 -0.017286547
