neural-net/best_instance_dqn_2000gen.pth (torch, 14751 bytes, 4 tensors)

linear1.weight f4 [256, 8]
0.0019685894 0.18137197 0.05883301 0.010073182 0.4816085 0.47787276 0.4831578 0.41279814
-1.341288 -0.08847279 -0.08854527 -0.64070946 -0.32129332 0.3839832 -1.2125895 -1.1477906
-0.13285232 -0.16775398 0.08573309 0.049291838 0.2085346 0.2058204 0.18514693 0.136541
-0.14998583 -0.3846813 0.12762965 -0.048145246 0.08898094 0.27447522 0.24034324 0.21792912
0.44748813 -1.2379826 0.6238648 0.6397184 0.7709222 1.2549849 0.85444295 0.90326214
0.051912006 -0.749655 -0.33600104 -0.059310608 -0.10893856 0.32633796 -0.06693039 0.31634238
0.21277626 -0.15725239 0.018823447 0.03636976 -0.48719007 -0.008285098 -0.1307468 -0.15877073
0.0860574 0.2791288 -0.20988561 -0.122537196 -0.15133244 -0.5843505 -0.027976247 0.07237467
-0.16256937 -0.091863655 0.05140798 -0.20410427 -0.1255279 0.011094006 0.07979123 -0.38077664
0.84637547 2.7138824 1.2421011 2.201828 -0.3186975 -0.6846214 2.2628767 1.3222425
-0.15435751 -1.2759459 -1.2559092 -1.4393741 -0.5273247 1.0344625 0.5907997 -0.020754566
0.041888054 0.60656226 0.4963736 -0.69516903 0.3507066 -0.9614407 0.19864783 -1.1759938
-0.03421949 -0.7243456 -0.06871873 -0.7853762 0.07502838 -0.66376853 -0.60747975 -0.76611555
-1.0651642 -0.088964574 -0.007309838 -0.50363505 -0.24502206 0.16464305 -0.887524 -1.0138346
0.047384378 -0.426074 -0.14097029 -0.120716915 0.16270454 -0.4348258 -0.5960792 -0.72444844
-0.1993202 -0.5355529 -0.13290171 -0.15516286 0.4741297 0.56915885 0.1371739 0.10359119
-1.6760836 -0.38935366 0.547543 -0.23091091 0.88351357 0.92534006 -1.1916189 0.80981046
0.016451243 -0.014299796 0.13091367 0.22662126 0.11182862 0.23247024 0.07785184 -0.13025749
0.17397808 -0.5475284 0.11693189 -0.54974735 -0.39656836 -0.21318251 -0.5346764 -0.07441411
-0.2732654 -0.4661435 -0.44137344 -0.25013995 -0.8265542 -0.8469947 0.06394227 0.043282468
-0.0071201026 -0.8298511 -0.07906823 0.093276046 0.26665473 -0.36650434 -0.6514243 -0.63395804
1.1890376 0.2857793 0.0066943048 1.0861473 1.2365272 1.5271465 -0.45669082 0.6091644
-2.6478171 1.1175838 1.8426919 1.8788862 0.36455214 4.386907 -1.6380388 -1.6789943
-0.63408136 0.80141646 1.0354103 0.5003679 0.36699304 -1.0806156 -0.006395991 0.20971848
-1.8956326 1.0595249 0.71231323 1.4650652 -0.29072937 0.47014844 -0.50895715 -0.05442876
-0.47515127 -0.09657789 0.21126962 -0.12194693 0.04790354 0.044151865 0.065533586 -0.43950886
1.8567436 1.1024433 2.3310015 -3.9445465 -2.842822 -2.5061293 -0.4534974 4.1139174
-0.19431469 -0.1819704 -0.340971 -0.11402953 -0.25542527 -0.11115165 0.16702813 0.27639163
-0.040474385 -0.1889725 -0.53210706 -0.013513303 -0.33734396 -0.16643606 0.21675205 0.22574528
1.4077909 1.149135 0.09741789 0.5822877 -0.26254264 -0.046757422 -1.0504916 0.009479303
-0.0138956765 -0.066220365 -0.015453128 0.14671282 0.17309266 0.1931231 0.2239521 0.2134507
0.15627705 -0.57514745 0.059873056 -0.60471547 -0.2832765 -0.2797126 -0.5171508 -0.29251793
00000000: 7303 013b 93b9 393e e2fa 703d fd09 253c
00000010: 6495 f63e bdab f43e 7660 f73e 475a d33e
00000020: 53af abbf 3931 b5bd 3957 b5bd 8905 24bf
00000030: 8f80 a4be 7299 c43e 2236 9bbf cdea 92bf
00000040: 700a 08be b3c7 2bbe d594 af3d 3de6 493d
00000050: 188a 553e 95c2 523e 2897 3d3e 67d1 0b3e
00000060: e395 19be f3f4 c4be 59b1 023e f333 45bd
00000070: a43b b63d 0488 8c3e 8a1c 763e d028 5f3e
00000080: 2a1d e53e 3776 9ebf 9bb5 1f3f 96c4 233f
00000090: 285b 453f 58a3 a03f c6bc 5a3f 303c 673f
000000a0: afa1 543d 64e9 3fbf 5408 acbe aeef 72bd
000000b0: 2e1b dfbd c515 a73e cd12 89bd a1f7 a13e
000000c0: 05e2 593e c506 21be a133 9a3c 75f8 143d
000000d0: fa70 f9be 38be 07bc 7de2 05be cb94 22be
000000e0: dd3e b03d f8e9 8e3e 41ec 56be c8f4 fabd
000000f0: e4f6 1abe ff97 15bf 712e e5bc 2c39 943d
00000100: 9678 26be 0323 bcbd 2d91 523d b600 51be
00000110: 638a 00be a2c3 353c 9669 a33d 28f5 c2be
00000120: 10ac 583f 40b0 2d40 2bfd 9e3f c0ea 0c40
00000130: 522c a3be 5943 2fbf f9d2 1040 3e3f a93f
00000140: e50f 1ebe 3252 a3bf a2c1 a0bf 693d b8bf
00000150: c0fe 06bf 4469 843f a63e 173f 7b05 aabc
00000160: cf92 2b3d aa47 1b3f ae24 fe3e 99f6 31bf
00000170: d18f b33e fa20 76bf 566a 4b3e f786 96bf
00000180: bc29 0cbd b76e 39bf 68bc 8cbd 6a0e 49bf
00000190: 7ba8 993d bcec 29bf cb83 1bbf 2620 44bf
000001a0: 4d57 88bf 0f33 b6bd 5e87 efbb 3aee 00bf
000001b0: 10e7 7abe 3098 283e c634 63bf 55c5 81bf
000001c0: 1f16 423d 5f26 dabe 845a 10be 6e3a f7bd
000001d0: 059c 263e 7da1 debe a598 18bf 7475 39bf
000001e0: 981a 4cbe ff19 09bf 6317 08be 03e3 1ebe
000001f0: 21c1 f23e 65b4 113f 5177 0c3e 9e27 d43d
00000200: e889 d6bf 5d59 c7be c72b 0c3f e973 6cbe
00000210: f22d 623f 16e3 6c3f f886 98bf bd4f 4f3f
00000220: c2c4 863c b149 6abc 3c0e 063e 670f 683e
00000230: 6706 e53d ae0c 6e3e c970 9f3d 3862 05be
00000240: 4f27 323e d22a 0cbf fd79 ef3d 3ebc 0cbf
00000250: 020b cbbe 844c 5abe 8de0 08bf 6d66 98bd
00000260: 71e9 8bbe 5caa eebe b3fb e1be 5812 80be
00000270: 0e99 53bf a5d4 58bf 2af4 823d f548 313d
00000280: c04f e9bb 1f71 54bf 86ee a1bd 8307 bf3d
00000290: f886 883e 75a6 bbbe bec3 26bf 134b 22bf
000002a0: 6232 983f aa51 923e e65b db3b e006 8b3f
000002b0: 8646 9e3f 8979 c33f 61d3 e9be 33f2 1b3f
000002c0: d675 29c0 fc0c 8f3f 54dd eb3f 587f f03f
000002d0: 94a6 ba3e 8b61 8c40 41ab d1bf 49e9 d6bf
000002e0: 2853 22bf a129 4d3f 5388 843f 1c18 003f
000002f0: 83e6 bb3e 9d51 8abf 7695 d1bb 71c0 563e
00000300: 17a4 f2bf 839e 873f 295a 363f 4287 bb3f
00000310: 7bda 94be 4cb7 f03e 044b 02bf b1f0 5ebd
00000320: 0747 f3be a1ca c5bd 1057 583e 50bf f9bd
00000330: 8136 443d 96d8 343d 7936 863d 4e07 e1be
00000340: c6a9 ed3f dd1c 8d3f 212f 1540 7373 7cc0
00000350: ccf0 35c0 6c64 20c0 d030 e8be 36a5 8340
00000360: 6efa 46be 7356 3abe c093 aebe 5088 e9bd
00000370: 1ac7 82be 7aa3 e3bd 6c09 2b3e 3483 8d3e
00000380: 78c8 25bd 0282 41be 2b38 08bf e766 5dbc
00000390: 59b8 acbe 376e 2abe 40f4 5d3e c529 673e
000003a0: 7e32 b43f db16 933f 0883 c73d cf10 153f
000003b0: fd6b 86be b684 3fbd 8276 86bf 144f 1b3c
000003c0: b1aa 63bc 8b9e 87bd 1e2f 7dbc e33b 163e
000003d0: 343f 313e 10c2 453e b353 653e d292 5a3e
000003e0: 1707 203e dd3c 13bf 733d 753d a2ce 1abf
000003f0: 9e09 91be 7d36 8fbe ff63 04bf e9c4 95be

linear1.bias f4 [256]
-1.3738654 -0.2962637 -0.6222933 -0.6493073 -2.805321 -0.69553393 -0.29249772 -0.4679852
-0.14422695 -1.9169203 -0.541501 -1.7314526 -0.040864106 -0.16581723 -0.21783717 -0.58237296
-1.4917175 -0.7830578 -0.28409448 0.122807495 -0.35994768 -3.4955044 0.65388864 -1.6554129
-2.3181014 -0.34723195 0.45682007 -0.18649438 -0.22931297 -1.7057333 -0.6008173 0.06035216
-0.4170706 -0.31788582 -0.76381785 -0.21080431 -0.34397626 -0.16959725 0.08024938 -1.9468594
0.02514497 -0.13169321 -0.5386059 -0.3589458 -2.9434988 -0.018609414 -0.6257445 -0.09952826
-0.1145666 0.021236176 -0.09663989 -0.12229195 -0.37612504 -0.022028182 -0.545589 -0.38617525
-2.4116292 -0.6668587 -0.49789554 -0.3204959 -0.3733986 -0.23038481 -2.205336 -0.48470753
-0.14268284 -0.44794688 -1.9008924 -0.47671616 -0.60158455 0.37739503 -0.19565354 -2.4925895
-0.86393726 -0.23631328 -0.81323296 -0.9391857 -2.5491467 -0.20640498 -0.25338277 -0.1132563
-1.7975577 -0.3102682 -0.6739051 -0.34365064 -0.17454489 -0.5561888 -0.44377947 -1.1004333
-2.4069567 -1.1270242 -0.38982856 -0.25760326 -0.36867726 -0.13416597 0.018660031 -0.9488673
-0.9772439 -0.2175814 -1.154323 -0.36114675 -1.6038522 -0.30519515 -0.3864228 -0.5497902
-0.46567956 -1.0349841 -1.4269017 -0.22671822 -0.2817013 -0.8270366 -0.998115 -0.4036473
-0.6399221 -0.15179019 -0.5199992 -0.4452339 -0.14179625 -1.0804107 -0.43994695 -0.48724398
-0.19273962 -0.5958897 -0.34335512 1.5211232 -1.6253986 0.35236603 -1.2414255 -2.0158362
-0.022071404 -0.5409377 -0.24636821 -0.18269171 -0.66894805 -0.4215859 -0.3216705 0.20586517
-2.277285 -0.27789676 -0.059113827 0.19289252 -0.43382132 -1.1885966 -2.3289404 -0.4424455
-0.303496 -0.01998583 -0.19816414 -0.7461709 1.003928 -0.49948248 -0.30139977 -0.23552817
-0.11270779 -1.2763481 -1.6664759 -0.840342 -0.4790022 -0.87068224 -0.37187862 -0.460752
-0.4680032 -0.13961098 -0.31768775 -0.5540199 -1.3447526 -1.0779881 -0.65124893 -0.50501794
-0.10124654 -0.17560448 -0.2781996 -0.07512674 -0.2766348 -0.337165 -0.3937818 -0.5056479
-0.14127095 -1.5227216 -2.552613 -1.0602317 0.14944535 -0.33290562 -0.53380525 -0.28199643
1.2126298 -0.04212604 -0.7828089 -0.62891406 -0.49665323 -0.40535015 -0.23827593 -0.13824303
-0.403229 -0.43800712 -0.2574332 0.08144391 0.29384357 -0.17215535 -0.4522334 -0.029805535
-0.24703544 0.64286065 0.5373747 -0.6636666 -0.34634146 -0.20270187 -0.21305278 -0.2267838
-0.086439915 -0.3359677 -0.33185095 -0.62875813 -0.13282828 -0.42537206 -0.26445457 -0.8951782
-1.169465 -0.25621375 -0.40778413 -0.3520055 -0.5247268 -0.43295953 0.13474101 -2.001761
0.9777683 -0.30415323 -0.33394533 -0.13153239 -1.1723952 -0.48157755 -0.3499396 -0.4539178
-0.26918593 -0.70422053 -0.13934413 -0.3013387 -0.42391366 -0.38589045 -1.2092649 -0.5390431
-0.75561863 -0.44794834 -0.88543856 -0.40005058 -2.4906788 -0.816236 -0.2203407 -0.4438575
-0.19720012 -0.6234586 -0.88435 -0.3789308 -0.51919395 -0.5918692 -0.40052468 -0.3436077
00000000: d2da afbf e0af 97be 9d4e 1fbf 0139 26bf
00000010: 618a 33c0 830e 32bf 43c2 95be c29b efbe
00000020: 3bb0 13be a55d f5bf cf9f 0abf 3da0 ddbf
00000030: 1f61 27bd fecb 29be b510 5fbe 6516 15bf
00000040: 99f0 bebf 7a76 48bf d574 91be 7f82 fb3d
00000050: 104b b8be 58b6 5fc0 3f65 273f 92e4 d3bf
00000060: c65b 14c0 63c8 b1be 52e4 e93e 62f8 3ebe
00000070: 05d1 6abe 7855 dabf 2acf 19bf d433 773d
00000080: 478a d5be eec1 a2be 9189 43bf 16dd 57be
00000090: a81d b0be e7aa 2dbe c959 a43d b032 f9bf
000000a0: d3fc cd3c 96da 06be 14e2 09bf bec7 b7be
000000b0: 4962 3cc0 c572 98bc cb30 20bf 79d5 cbbd
000000c0: e5a1 eabd 7df7 ad3c 22eb c5bd 3474 fabd
000000d0: 7693 c0be 7274 b4bc b9ab 0bbf c3b8 c5be
000000e0: 2258 1ac0 40b7 2abf 2aec febe 0a18 a4be
000000f0: 1a2e bfbe ffe9 6bbe 3a24 0dc0 962b f8be
00000100: 731b 12be 4b59 e5be 7150 f3bf 2414 f4be
00000110: 7201 1abf ec39 c13e 6759 48be 9686 1fc0
00000120: fe2a 5dbf 1cfc 71be 0930 50bf 796e 70bf
00000130: 3825 23c0 d45b 53be 63bb 81be ebf2 e7bd
00000140: 5f16 e6bf 79db 9ebe 0b85 2cbf faf2 afbe
00000150: e5bb 32be 6462 0ebf 1037 e3be 00db 8cbf
00000160: 940b 1ac0 5442 90bf 9c97 c7be 93e4 83be
00000170: 44c3 bcbe ce62 09be ecdc 983c f8e8 72bf
00000180: a82c 7abf a9cd 5ebe dbc0 93bf 3ae8 b8be
00000190: 074b cdbf 8a42 9cbe 36d9 c5be 0dbf 0cbf
000001a0: 8d6d eebe 5c7a 84bf b7a4 b6bf d228 68be
000001b0: 273b 90be acb8 53bf 7784 7fbf dcaa cebe
000001c0: efd1 23bf e36e 1bbe ab1e 05bf b3f5 e3be
000001d0: 0933 11be e64a 8abf ba40 e1be 0b78 f9be
000001e0: 895d 45be 3a8c 18bf 3ecc afbe 2ab4 c23f
000001f0: 100d d0bf 5269 b43e 08e7 9ebf 7603 01c0
00000200: 17cf b4bc e57a 0abf f347 7cbe 8913 3bbe
00000210: 2e40 2bbf 1bda d7be ffb1 a4be 52ce 523e
00000220: 0abf 11c0 7c48 8ebe 5721 72bd 9e85 453e
00000230: d41d debe ef23 98bf 5c0d 15c0 3788 e2be
00000240: d463 9bbe 53b9 a3bc 8aeb 4abe 0e05 3fbf
00000250: b680 803f 2bbc ffbe 1251 9abe 4c2e 71be
00000260: 58d3 e6bd 605f a3bf 154f d5bf a720 57bf
00000270: c73f f5be 08e5 5ebf e066 bebe b0e7 ebbe
00000280: 1e9e efbe 2ef6 0ebe f8a7 a2be 40d4 0dbf
00000290: da20 acbf 84fb 89bf 40b8 26bf db48 01bf
000002a0: 595a cfbd a9d1 33be 2e70 8ebe 0cdc 99bd
000002b0: 14a3 8dbe e4a0 acbe c59d c9be 2472 01bf
000002c0: 55a9 10be 8be8 c2bf 035e 23c0 acb5 87bf
000002d0: 3408 193e 9b72 aabe 76a7 08bf d661 90be
000002e0: 7437 9b3f 5b8c 2cbd 2a66 48bf 8300 21bf
000002f0: 5549 febe 0e8a cfbe 9bfe 73be 958f 0dbe
00000300: 0874 cebe 7842 e0be 49ce 83be 11cc a63d
00000310: aa72 963e 7e49 30be 238b e7be bd2a f4bc
00000320: dcf6 7cbe 8492 243f 6391 093f 0ee6 29bf
00000330: ab53 b1be 1491 4fbe 822a 5abe 033a 68be
00000340: 6907 b1bd f503 acbe 5ee8 a9be 4bf6 20bf
00000350: 2304 08be 5eca d9be 9766 87be 662a 65bf
00000360: 07b1 95bf 732e 83be 15c9 d0be 113a b4be
00000370: 7f54 06bf dfac ddbe 8cf9 093e da1c 00c0
00000380: 064f 7a3f f9b9 9bbe e2fa aabe 6db0 06be
00000390: 0c11 96bf 5591 f6be 492b b3be ea67 e8be
000003a0: bdd2 89be cc47 34bf 3ab0 0ebe 1149 9abe
000003b0: 360b d9be 6f93 c5be 31c9 9abf bbfe 09bf
000003c0: 3970 41bf 7c59 e5be 1aac 62bf 6ed3 ccbe
000003d0: 4867 1fc0 d8f4 50bf fea0 61be 4a41 e3be
000003e0: d4ee 49be fc9a 1fbf c364 62bf 3803 c2be
000003f0: e5e9 04bf bd84 17bf 9211 cdbe 59ed afbe

linear2.weight f4 [4, 256]
-0.009880609 1.0540066 -0.06654207 0.0012551629 -0.003821204 -0.14598303 -0.06282936 -0.016741553
0.032270167 0.110601865 -1.1001548 0.06688908 0.60548735 0.6376684 0.42030278 -0.00746699
7.685383 0.045787152 0.21707746 -0.02604412 0.07193464 1.7507561 -0.5668324 0.8413987
2.2297702 0.05501249 -0.36168006 -0.0010776717 0.028982798 1.8304496 -0.07282623 0.064074114
0.03654022 -0.03957813 0.08681272 -0.037384443 0.0019782514 0.07491944 -1.2885276 -0.39948004
-0.042272635 -0.009438825 7.9029346 -0.04514152 -1.3323629 0.6850162 0.05850534 -0.0967215
0.051071282 1.7543204 0.08395099 0.35392398 0.09972113 0.012390152 -0.053668767 1.9110683
3.012905 0.17108375 -0.025605498 0.008226495 0.02890837 0.58551025 1.2967898 -0.037417818
0.038124334 -0.028616013 0.1541401 0.0064337854 0.0787939 5.4169057e-05 -0.009936148 -0.38351864
-0.0010190618 -0.01409218 0.18656625 5.3636117 -0.96712816 0.0016387925 0.228059 -0.03778116
-0.23094043 0.0441419 0.123225495 -0.022467654 -0.01536475 0.0033313471 0.00957329 1.0014099
-0.12053069 0.51818514 -0.054595757 -0.026578447 -0.029600158 0.06262777 -0.0045184516 4.2471895
0.015406359 0.053369172 -0.021163305 -0.05271119 1.0880657 -0.0026940529 0.18041064 -0.00020442701
-0.02066309 -0.59944075 5.503207 0.021838568 0.029901996 0.037875265 0.00020342946 0.01993649
0.013146103 0.11032532 0.18085037 3.0177515 0.059743047 0.018444227 0.16273469 -0.026407136
0.0016020638 0.44089094 -0.003135175 -1.7087597 1.1879377 0.4249021 0.33592066 0.06595096
-0.109916486 -0.034993608 -0.00920733 0.015570699 0.011996394 0.5517805 -0.0067466884 0.2298084
0.43125385 1.4055358 0.020874618 0.00041422824 0.0077269995 0.3988545 0.26764208 -0.30953428
0.6261046 0.5331821 0.6167611 -0.037822217 2.7812963 0.37740424 -0.079386584 -0.15162739
-1.0748032e-08 0.09062379 -0.77936673 -0.15836063 0.028658053 -0.4220711 -0.14273821 0.0049818372
-0.010927936 0.66945446 0.11419779 1.4276402 0.3099427 0.70782006 0.27379954 0.3498441
-0.024355762 0.47775838 0.010502958 0.052482724 0.11804468 5.3762136 0.64067113 0.89233565
-0.0018057695 -0.046865225 6.68156 -0.3942154 -6.2536715e-06 0.0042598327 0.040594716 0.019274978
0.14848669 0.11306447 -0.015700009 0.048180774 0.119470835 -0.023168473 -0.008155639 0.5971441
-0.26901883 -0.042568084 -0.017618854 0.38050726 0.16407396 0.02728639 0.008686777 0.055406265
0.75729626 0.049227215 1.0320135 0.061616477 -0.0019599795 -0.021158144 0.013703041 0.007284756
-0.019830637 0.19519888 1.6879982 -0.0036428731 -0.023901794 0.12988918 0.13669945 1.812749
-0.13720013 0.16057673 -0.020420305 0.034121763 0.0025285536 0.08794753 2.0697546 2.8578515
-0.40060386 0.14794749 -0.0051904838 0.024810717 0.0943812 -0.052836485 -0.048897732 -0.028609917
-0.45106292 0.04994991 0.47104073 -1.1297592e-06 0.1679364 -0.0066750543 -0.1302704 0.016562218
0.16414201 0.06001397 0.05313857 -0.0461929 1.2660824 -0.005934985 -0.0055979555 -0.0059276405
0.88728654 -0.0012818305 0.084400825 -0.027599609 0.8187664 -0.089066036 -0.01942764 -0.054999087
00000000: 47e2 21bc b0e9 863f 3547 88bd 4784 a43a
00000010: 2a6d 7abb 937c 15be aeac 80bd 9525 89bc
00000020: b92d 043d 3b83 e23d dfd1 8cbf 24fd 883d
00000030: 3801 1b3f 3c3e 233f ed31 d73e a7ad f4bb
00000040: a8ee f540 4f8b 3b3d 8e49 5e3e 7a5a d5bc
00000050: 7852 933d c718 e03f ee1b 11bf e865 573f
00000060: 8eb4 0e40 c754 613d 212e b9be a940 8dba
00000070: 556d ed3c 2c4c ea3f eb25 95bd 4a39 833d
00000080: 33ab 153d ad1c 22bd deca b13d 6e20 19bd
00000090: 8da5 013b 5d6f 993d 79ee a4bf a688 ccbe
000000a0: 1226 2dbd 4da5 1abc d7e4 fc40 51e6 38bd
000000b0: de8a aabf 395d 2f3f 4ca3 6f3d ec15 c6bd
000000c0: 1f30 513d 928d e03f 7fee ab3d 8635 b53e
000000d0: 983a cc3d 1000 4b3c c8d3 5bbd e39d f43f
000000e0: 6fd3 4040 9430 2f3e 9fc2 d1bc 6cc8 063c
000000f0: 3fd1 ec3c 00e4 153f 35fd a53f 6d43 19bd
00000100: 4328 1c3d 216c eabc e7d6 1d3e 81d2 d23b
00000110: b25e a13d 9533 6338 3acb 22bc 8e5c c4be
00000120: 0a92 85ba e3e2 66bc 390b 3f3e b5a2 ab40
00000130: b695 77bf c0cc d63a 4c88 693e 6bc0 1abd
00000140: a67b 6cbe 23ce 343d a65d fc3d 160e b8bc
00000150: 6fbc 7bbc bb52 5a3b 4ad9 1c3c 332e 803f
00000160: cbd8 f6bd c8a7 043f cd9f 5fbd 0bbb d9bc
00000170: 087c f2bc fd42 803d 850f 94bb fae8 8740
00000180: f46a 7c3c a299 5a3d ab5e adbc b0e7 57bd
00000190: bd45 8b3f b58e 30bb 91bd 383e 755b 56b9
000001a0: a445 a9bc f374 19bf 461a b040 cce6 b23c
000001b0: 08f5 f43c 1823 1b3d ae4f 5539 da51 a33c
000001c0: c162 573c 3ef2 e13d d730 393e d722 4140
000001d0: 20b5 743d 5918 973c eca3 263e c753 d8bc
000001e0: 57fc d13a 75bc e13e 8277 4dbb a3b8 dabf
000001f0: 580e 983f c58c d93e cbfd ab3e 4c11 873d
00000200: e51b e1bd 7555 0fbd 57da 16bc 3f1c 7f3c
00000210: 868c 443c 7d41 0d3f 5313 ddbb e552 6b3e
00000220: 4ecd dc3e 99e8 b33f 3f01 ab3c c62c d939
00000230: c532 fd3b a836 cc3e 6208 893e 477b 9ebe
00000240: 6448 203f 9f7e 083f 0ee4 1d3f 78eb 1abd
00000250: c200 3240 213b c13e 6f95 a2bd 3644 1bbe
00000260: 58a6 38b2 f798 b93d 9484 47bf 4a29 22be
00000270: 4bc4 ea3c b419 d8be f729 12be ae3e a33b
00000280: 160b 33bc 5e61 2b3f 88e0 e93d eabc b63f
00000290: cfb0 9e3e b233 353f 742f 8c3e c41e b33e
000002a0: bc85 c7bc bf9c f43e 9914 2c3c 20f8 563d
000002b0: 69c1 f13d f109 ac40 0603 243f 1c70 643f
000002c0: 92af ecba c0f5 3fbd 57cf d540 9ad6 c9be
000002d0: a1d6 d1b6 1196 8b3b a546 263d 8fe6 9d3c
000002e0: e50c 183e 588e e73d 4e9d 80bc 3459 453d
000002f0: 20ad f43d cfcb bdbc 3b9f 05bc 70de 183f
00000300: d6bc 89be df5b 2ebd 6a55 90bc d9d1 c23e
00000310: 0103 283e b587 df3c fc52 0e3c aef1 623d
00000320: 2bde 413f 7aa2 493d 0519 843f 8f61 7c3d
00000330: 0073 00bb d853 adbc b882 603c f6b4 ee3b
00000340: dc73 a2bc 37e2 473e 5310 d83f 45bd 6ebb
00000350: b2cd c3bc ab01 053e f1fa 0b3e 2908 e83f
00000360: 317e 0cbe 3a6e 243e 7c48 a7bc 43c3 0b3d
00000370: 17b6 253b d61d b43d dc76 0440 0ae7 3640
00000380: f31b cdbe 8c7f 173e ef14 aabb d83f cb3c
00000390: ee4a c13d 126b 58bd fd48 48bd 585f eabc
000003a0: b8f1 e6be 4798 4c3d 402c f13e 3ba2 97b5
000003b0: 85f7 2b3e 6aba dabb 9b65 05be 7dad 873c
000003c0: d814 283e 35d1 753d d4a7 593d c434 3dbd
000003d0: fd0e a23f 437a c2bb 0e6f b7bb a73c c2bb
000003e0: 3625 633f 1803 a8ba 57da ac3d 9318 e2bc
000003f0: ad9a 513f 4168 b6bd b726 9fbc b946 61bd

linear2.bias f4 [4]
-0.28833303 -1.0948032 -0.037501436 -0.5673561
00000000: 63a0 93be 8322 8cbf 1b9b 19bd 403e 11bf
