neural-net/best_instance_dqn.pth (torch, 14751 bytes, 4 tensors)

linear1.weight f4 [256, 8]
000000 5c d8 26 bd 66 c1 44 bf 3a 07 af be a6 5e 89 bc
       -0.04073368 -0.768576 -0.341852 -0.016768765
000010 1c 0a c3 3e 2e c5 e5 be 06 1c 60 bc 80 84 a6 be
       0.3809365 -0.44877 -0.013678556 -0.32522964
000020 01 8b 78 be 17 a5 bb 3e 71 86 c6 3e 90 0b ea bd
       -0.24271776 0.3664939 0.38774446 -0.114279866
000030 f6 a4 04 3f a1 74 e8 bd 6a 7b bb 3e 75 a8 51 be
       0.5181421 -0.1135037 0.36617595 -0.20474418
000040 05 82 96 3d 90 37 3b be 1a 93 33 3e 4d f9 d7 3e
       0.07349018 -0.18282914 0.17536584 0.4218239
000050 1e 15 85 3e 8d d2 e9 3e 0a 6d 53 be 31 20 ad be
       0.25992674 0.4566845 -0.20647064 -0.33813623
000060 dc fa 47 3d 98 b5 83 3c 13 a8 2f 3d 5b f1 c2 3d
       0.048823223 0.016077802 0.042884897 0.09518691
000070 91 f3 a6 3e 41 e5 b1 3e 21 39 9e 3e e9 e9 c2 3e
       0.326077 0.3474522 0.3090296 0.38069084
000080 c6 fa db 3d 90 63 8f 3e f5 11 5a 3e 96 e7 8e 3d
       0.107411906 0.28005648 0.21295913 0.06977765
000090 fa f6 a5 3e 4e 04 3d 3e c8 98 9a 3e 9e d4 35 3e
       0.3241499 0.18458673 0.30194688 0.17756888
0000a0 eb 75 c9 bd 2b de e5 be 08 c6 db 3e d0 f3 ea be
       -0.09836944 -0.44896063 0.42924523 -0.4588914
0000b0 67 d7 90 be 15 78 ae 3e d7 da bf 3e 74 f3 2f bf
       -0.2828934 0.3407599 0.3747165 -0.68730855
0000c0 7c 51 df 3e fc 4d 24 3e 39 83 29 3e de e6 8b bb
       0.43616855 0.16045374 0.16553964 -0.004269465
0000d0 2b db 48 bd dd 0e 23 bd 01 5a ca 3e 82 54 c8 3e
       -0.04903714 -0.039809097 0.39521793 0.39126974
0000e0 0f bc be 3e 1f 2d 43 3e d6 20 41 bd 99 e5 cf 3c
       0.37252852 0.19060181 -0.047150455 0.025378035
0000f0 3a 8f d2 3e a0 51 20 3e 3c 2d 83 3e 49 d6 c7 3e
       0.41124898 0.15656137 0.2562045 0.39030674
000100 64 72 80 3d 50 27 83 be 08 45 9c 3d fa 56 86 be
       0.06271818 -0.2561593 0.07630354 -0.26238233
000110 10 4c 5d bd c4 3c bf bd 38 d2 70 bd 6c c5 a8 be
       -0.054027617 -0.09337762 -0.05879423 -0.3296312
000120 5e 24 13 3e 8e 77 eb bd b9 d5 18 be af 0a ba 3e
       0.14369342 -0.114974126 -0.14925279 0.36336276
000130 ef af 19 bd 1f eb 0a 3f 53 39 aa be 38 7c 69 3e
       -0.0375213 0.54265016 -0.3324686 0.22801292
000140 ba c2 b6 3e 28 e2 dc bd a8 ce 25 bd 2b 16 d9 3a
       0.3569544 -0.107853234 -0.040480286 0.0016562393
000150 87 8b b9 be 6c 5d 1f be b8 73 0f 3f bf 54 cc 3e
       -0.36239263 -0.15562981 0.5603595 0.39908406
000160 50 34 4c 3e 84 50 c2 be 66 6b de bd ff 4f 2b 3f
       0.1994183 -0.37952054 -0.108603284 0.6691894
000170 e9 af 43 3d 52 05 9b be 88 d8 a1 3e 76 d3 3d be
       0.047775183 -0.30277497 0.31610513 -0.18537697
000180 10 c4 5f 3d a4 95 05 bf 77 22 bd be 61 15 97 3c
       0.05463034 -0.5218146 -0.36940357 0.018442811
000190 af 22 bc be cc 01 8d 3e 90 e0 93 be 4d 75 2f 3e
       -0.3674521 0.27540433 -0.28882265 0.1713459
0001a0 c0 f2 b7 bd 04 8d a0 be 93 26 b0 be 35 9b 7f be
       -0.08981848 -0.31357586 -0.3440443 -0.2496155
0001b0 b6 98 d7 bd 92 b6 29 3e d8 60 a5 bd 3c 3b a0 3d
       -0.10527174 0.16573551 -0.08075112 0.07823798
0001c0 c9 b0 34 be b3 8a e7 3e 3e 1e a1 bd 07 59 70 be
       -0.17645563 0.45223007 -0.07867096 -0.23471461
0001d0 4f 84 02 be f5 b0 ea bd 85 5a 95 3e 6f 97 14 3e
       -0.12745784 -0.11459533 0.29170623 0.14510892
0001e0 18 1c bb 3e da 1c 18 3e 2e fb 8e bd 4d 1f 0c 3e
       0.3654487 0.14854756 -0.069815025 0.13683815
0001f0 cc bd a3 be 4a 12 22 be c1 b2 11 3f 92 6f 86 be
       -0.3198074 -0.15827289 0.5691338 -0.26256996
000200 e1 8b 40 bf 71 7d 1f 3f d6 f9 46 be 65 72 27 be
       -0.7521344 0.62300783 -0.19431242 -0.16352232
000210 39 1c 10 bf 24 a7 0d 3f fa 1c 10 be d3 e1 bc be
       -0.56293064 0.5533316 -0.14073554 -0.3689104
000220 ab 55 f9 3d b4 14 73 be a6 05 1f 3f b0 a2 55 be
       0.12174543 -0.23738366 0.62117994 -0.20862842
000230 a5 0b 09 3f d9 ab 11 3d 89 94 2c 3d bc 74 e4 3e
       0.53533393 0.035564277 0.04213384 0.4462031
000240 bc fe 89 3e 3f cb af 3e 6c 49 96 be 68 a0 4a be
       0.2695216 0.34334752 -0.2935289 -0.19787753
000250 d8 71 03 3d 65 83 cc bd be 2b 09 be f8 1f 85 be
       0.03209099 -0.09985999 -0.13395593 -0.26000953
000260 d1 4a bd 3e 11 06 9f 3d cf 6a 07 be 89 13 7e bc
       0.36971143 0.07764829 -0.13224338 -0.015507587
000270 bb de 7c bd 6b 0b 71 3e 87 f5 ee 3d 39 f4 b5 3e
       -0.06173585 0.23539512 0.116679244 0.3553789
000280 39 40 36 be 72 75 85 3e 26 9c e7 3a ae 0a b6 be
       -0.17797936 0.26066166 0.0017670437 -0.35555023
000290 ce d3 44 3e 57 89 5d 3e 1c ad b9 3e 43 de ae 3e
       0.19221422 0.21634422 0.36264884 0.34153947
0002a0 32 4f 44 3e fb 55 49 bd 0f 79 15 3e 6e 1f ff bc
       0.19170836 -0.049154263 0.14596961 -0.031142917
0002b0 30 be 91 bc 19 52 2b 3f 5c 12 1c be bf b6 bc be
       -0.017790884 0.66922146 -0.15241379 -0.36858174
0002c0 04 06 08 bf e7 6d 8f 3e b3 bb db 3e ee 2e 88 bd
       -0.5313418 0.28013536 0.4291664 -0.06649576
0002d0 4d b3 40 3e 3a fc 87 3e 58 55 e8 bd 5e 90 21 3e
       0.18818398 0.2655962 -0.11344403 0.15777728
0002e0 ae d1 83 3e 34 04 c4 3c 85 35 c1 3e e8 97 b0 3e
       0.2574591 0.023927785 0.37736145 0.34490895
0002f0 b5 5a de 3e 50 7c f8 3e a0 ae 8b 3d a9 eb 1f 3d
       0.4342858 0.48532343 0.068204165 0.039043102
000300 fe 84 23 3e b7 78 e4 3e 70 34 eb be ac 4e 50 3e
       0.15968701 0.44623348 -0.45938444 0.20342511
000310 32 1f 1a be b8 da f3 be 98 05 57 3e 55 56 a7 bd
       -0.15050963 -0.47627807 0.20998228 -0.081707634
000320 d4 a6 95 be f6 0f 53 be 41 25 ac be 85 e0 19 be
       -0.29228842 -0.20611557 -0.33622172 -0.15027054
000330 00 d9 d2 3b 8e ae 7b be 40 2c 3f be 9a bf 54 3e
       0.00643456 -0.24578306 -0.18669224 0.20776215
000340 98 ce fd 3c 91 e0 7e 3e 84 17 13 3d 84 67 01 be
       0.0309823 0.24890353 0.035911098 -0.12637144
000350 36 1b ae be 7e 2d cc 3e c0 cd ec be 8a 77 f3 be
       -0.34005135 0.39878458 -0.46250725 -0.4755214
000360 4f b1 db 3e f0 58 87 bd c2 3b 67 bd 66 29 12 bd
       0.42908713 -0.0660876 -0.056453474 -0.035684012
000370 8b 56 df 3d 4d af 65 bd 74 bb a9 bd ba d9 ee 3d
       0.10905179 -0.056075383 -0.08287707 0.11662622
000380 22 f4 93 3d 2a 87 ab 3e 54 44 4c be 50 af 0c 3d
       0.07224299 0.3350156 -0.1994794 0.03434688
000390 a9 7a 3d 3e 1c 07 b9 3e 45 bf 4b bb 1e 96 ac 3e
       0.18503822 0.36138237 -0.0031089347 0.3370828
0003a0 5c ab f0 bd 5b 3a 96 be 26 b8 96 be dc ed a8 bd
       -0.11751434 -0.29341397 -0.2943737 -0.08248493
0003b0 90 37 f9 bc 13 bb 22 be 82 6f 84 be 1b 7e b3 3e
       -0.030422002 -0.15891676 -0.25866324 0.35057148
0003c0 17 99 21 3e 13 84 6a 3d e5 ef ff bc c0 6a d6 bc
       0.15781055 0.057254862 -0.03124232 -0.02617395
0003d0 26 27 bd 3e 2f 9e 27 3e 07 2e d7 3e 8e f0 5e 3e
       0.3694393 0.16368936 0.42027304 0.21771452
0003e0 05 6f 0f be ac ac 12 3f 43 65 a3 be 54 23 86 3d
       -0.14007194 0.57294726 -0.31913194 0.06549707
0003f0 d4 74 13 3e 6b 6d 1e bf d4 b0 1b bf 2d 87 af 3d
       0.14400035 -0.6188571 -0.60816693 0.085707046

linear1.bias f4 [256]
000000 c2 d8 f2 3e 6b f8 8d be 41 7c 6f 3e 5b b2 d2 be
       0.47430998 -0.2772859 0.23387243 -0.411517
000010 82 fa e1 be d2 a8 a2 3c fe d3 1f be a1 7e c4 be
       -0.44136435 0.01985589 -0.15608212 -0.3837786
000020 2b 12 23 be 5b 85 2e be 5f 8a 62 3e e3 05 77 3e
       -0.159249 -0.17043059 0.22123097 0.2412334
000030 7b a6 04 3e bd aa 1f be 52 2b 90 3e 45 4e c5 bb
       0.12954132 -0.15592475 0.2815805 -0.0060212933
000040 cd 51 4f 3d 60 21 38 3e 6d 3f 9a be 1f 6c a7 be
       0.05061512 0.17981482 -0.30126515 -0.32699677
000050 82 7c 72 bd ee 8d ec 3d 87 c3 36 3e 0f 27 d1 be
       -0.05920077 0.115505084 0.17848025 -0.40850112
000060 17 38 72 bd 37 cf 74 be 09 7c 8c 3e b9 2a ab 3d
       -0.059135523 -0.23907171 0.2743838 0.08357758
000070 2c 66 28 be ad 63 a7 be fd 91 69 be 17 c7 85 bb
       -0.16445225 -0.32693234 -0.22809596 -0.0040825712
000080 a6 9e 93 3d 40 b0 3a 3b c4 0f 56 be 4a 39 51 3e
       0.07207994 0.00284864 -0.20904452 0.2043201
000090 1e b8 6f bd 71 17 15 be 74 40 bb 3c 0f 05 c8 3d
       -0.058525197 -0.14559723 0.022857882 0.0976659
0000a0 55 f9 84 be 10 a0 26 be 8d e7 96 be e9 94 7c be
       -0.25971475 -0.16271996 -0.29473534 -0.2466618
0000b0 84 7d 6a b8 06 eb 92 3c 64 67 8e 3d 3f 47 06 be
       -5.5906843e-05 0.017934334 0.06953314 -0.13113116
0000c0 c0 2d 4b 3e fb 12 4e be 1e 78 b1 be 16 28 61 3e
       0.19841671 -0.20124428 -0.34661955 0.21987948
0000d0 da e4 8d 3c 72 32 b7 bd f0 40 d6 bd c1 d2 44 3e
       0.017321039 -0.089451686 -0.104616046 0.19221021
0000e0 12 3b 67 be ac b6 bb bd c2 bc c7 3e b6 03 f1 be
       -0.22581127 -0.09165701 0.39011198 -0.47073144
0000f0 85 eb 6c 3d 1d d0 5a be 34 99 31 bd 07 ba 9a be
       0.057841796 -0.21368451 -0.043358997 -0.30220053
000100 fd 48 ef bd 3a 0d 38 be 57 33 3a be 9b fb a8 be
       -0.11683843 -0.17973796 -0.18183647 -0.3300446
000110 6c 25 15 3e 13 ab 9d be aa 94 1d be ac 05 ab be
       0.14565057 -0.30794582 -0.15388742 -0.33402765
000120 9b b4 f7 3d 0f 22 80 be 08 70 a7 be 93 a8 ae bc
       0.12094995 -0.25025985 -0.3270266 -0.021320617
000130 39 4e d5 be c3 bc 76 3e 4a cc 2b be dd d2 b0 3d
       -0.41661242 0.24095444 -0.16777149 0.08633969
000140 23 e4 06 be bc d1 b8 3d c3 11 b0 3d c1 bd ca be
       -0.13172965 0.09024379 0.08597138 -0.39597896
000150 f9 e3 8d be 72 41 1a be 4e ab 9e 3e 97 40 40 bc
       -0.27712992 -0.15064028 0.3099007 -0.011734149
000160 97 39 d0 be a1 2f 12 3d d7 88 1e 3e 33 0e 44 3e
       -0.40668938 0.035689954 0.15481888 0.19146042
000170 a0 2b a3 bc 6c 86 43 3d a5 08 3d be 30 45 6c 3e
       -0.019918263 0.047735617 -0.18460329 0.23073268
000180 df 9f 77 bd d6 2d 0a 3f 58 e6 a6 be 53 4e 63 be
       -0.0604552 0.5397619 -0.32597613 -0.22197847
000190 9a 07 27 3f e6 fe 0d 3e bc 32 f6 3e 28 d5 81 be
       0.65245974 0.13866767 0.48085582 -0.25357938
0001a0 f9 2f 93 be ef 27 22 3d cc c3 f3 3d f4 6e ef bd
       -0.28747538 0.039588865 0.1190258 -0.116910845
0001b0 62 f1 5a 3d 9a 23 84 be 96 54 b1 be ca e0 cf bc
       0.053452857 -0.25808412 -0.34634846 -0.025375742
0001c0 e2 5b 37 be 40 d6 7f be ad b7 c1 3e d8 2f 00 bf
       -0.17906144 -0.24984074 0.37835446 -0.50073004
0001d0 ff ce 76 be 18 51 81 be 3d f9 ab be 9c 63 49 be
       -0.241024 -0.25257182 -0.3358859 -0.19666904
0001e0 11 49 b0 bc a6 5b 83 3e b6 96 41 3d 04 c3 8c 3d
       -0.021519216 0.2565586 0.04726287 0.06873134
0001f0 37 eb b8 bd c3 82 a0 3e ea b3 c7 3d ea 63 8d 3e
       -0.09029239 0.31349763 0.09751113 0.2761529
000200 9b 6a 4c be 20 49 ba be ca d9 f8 bd 9b b2 ea 3e
       -0.19962542 -0.36383915 -0.12150915 0.4583939
000210 d1 05 94 be 2e de 19 bb fb 8c 73 bd 5f 5a cd be
       -0.28910688 -0.0023478377 -0.05946062 -0.4010801
000220 c4 eb 60 be ec c5 77 3e 55 bf 45 3e 0e 18 ac be
       -0.21964937 0.24196595 0.19311269 -0.33612102
000230 78 2f 7e 3e 4b 26 c7 bc 6a ba ae be de dd db bc
       0.24822795 -0.024310252 -0.34126598 -0.026839193
000240 11 f5 1c be 07 84 49 be 3f dc 2b 3d a3 cf a7 be
       -0.1532786 -0.1967927 0.04195809 -0.32775602
000250 a4 0e 36 be 57 21 10 be 47 f5 cd be 82 2c d6 be
       -0.17779022 -0.14075218 -0.40226194 -0.41830832
000260 71 06 32 be 48 ab 74 be 64 34 99 be 3e 99 5d be
       -0.1738527 -0.23893464 -0.29922783 -0.21640489
000270 d6 75 f6 bc 36 b6 6e be f6 1a 65 3e a4 4e bb 3d
       -0.030085485 -0.23311695 0.22373566 0.09145859
000280 ac e8 e6 3d d6 8b 50 be 8a 31 93 be 8d 96 cf 3d
       0.112748474 -0.20365843 -0.28748733 0.10136137
000290 7f fc 85 be 2c 14 a1 3d 34 16 ca 3d 20 36 a6 3e
       -0.26169202 0.078651756 0.09867516 0.3246317
0002a0 24 2a da bd f9 bc a2 3d 14 ea b1 be 78 5d c5 be
       -0.10652569 0.079462 -0.347489 -0.38547873
0002b0 6c 18 4f be 13 78 b0 be 59 57 76 be d0 68 4c 3d
       -0.2022416 -0.3446661 -0.24056758 0.049904644
0002c0 a9 36 59 3e 00 af 72 be 6f 28 0d bd 34 17 05 be
       0.21212257 -0.2369957 -0.03446239 -0.12997133
0002d0 bf fc 58 be d6 db c1 3e 55 71 8b bd 5d ff c0 bc
       -0.21190165 0.37863034 -0.06808726 -0.023559267
0002e0 81 a6 b4 3e b3 2a a9 be 42 58 a9 bd c7 cd b4 3e
       0.35283282 -0.3304039 -0.08268787 0.35313246
0002f0 c3 ec 6d be 8a ff bc be 59 fc 1e 3e e1 ab cb 3c
       -0.23234849 -0.3691371 0.1552595 0.024862232
000300 80 48 1c 3e 14 70 2e be 0d 62 94 be 80 ee c8 be
       0.15262032 -0.17034942 -0.28981057 -0.3924446
000310 3b b3 8e 3e ef 01 13 3e 32 60 d9 be c8 68 10 3d
       0.27871117 0.14356206 -0.42456204 0.035256177
000320 22 64 cd be 25 41 cd be 85 5c 9b 3d 7f a7 53 3c
       -0.40115458 -0.40088764 0.07586006 0.012918352
000330 ef 8b ad 3d bf 4e c8 bc 88 03 91 3c 71 bd fd 3d
       0.08473956 -0.024451612 0.01770188 0.12389649
000340 66 1c 45 bd c4 1e a9 3c cd b1 ad 3e eb 52 7c 3e
       -0.048122786 0.020644553 0.33924714 0.24641006
000350 8d 5f 0a 3e f4 5a 34 be b1 40 8d be 52 5e 56 bd
       0.13513012 -0.17612821 -0.27588418 -0.052336045
000360 b8 a9 b2 be 00 77 41 bd 97 5e 24 3d 4b d6 c9 be
       -0.3489511 -0.047232628 0.04012927 -0.39421305
000370 8e 7d 86 be f4 6e 8e bb 67 ec a5 be ff 91 1f 3e
       -0.26267666 -0.0043467227 -0.32406923 0.15583037
000380 57 13 9b 3e 3d f0 4a be a8 1a a0 be 21 24 f3 be
       0.30288193 -0.19818206 -0.31270337 -0.47488502
000390 a5 47 a8 3d ce 91 03 be 66 d8 59 be 28 e8 37 bd
       0.0821679 -0.12848589 -0.21273956 -0.044899136
0003a0 e9 92 68 3d a6 94 a6 be 9a 80 89 bd d3 10 3a be
       0.05678073 -0.32535285 -0.06713982 -0.1817048
0003b0 c2 7a 28 3e 49 f9 66 bd fd 56 ff 3d 5e de 95 be
       0.16453078 -0.05639008 0.124677636 -0.29271215
0003c0 01 7e ba 3d 03 4d d2 3e 90 cc 3f 3e 5f 94 40 be
       0.091060646 0.4107438 0.18730378 -0.18806599
0003d0 02 55 c8 3e f0 f0 9b 3c 5c 0f c9 bc 73 a9 f6 3e
       0.39127356 0.019035786 -0.024543457 0.48176154
0003e0 27 8d 86 be d5 1c c8 3d 1a c8 af be 21 36 bf bd
       -0.26279566 0.09771124 -0.34332353 -0.09336496
0003f0 13 cf 6b be f5 51 d4 3c bd cd 3e 3d c3 08 d3 bc
       -0.23028211 0.025917986 0.046582926 -0.025761014

linear2.weight f4 [4, 256]
000000 2f 2a 8d 3e 59 b9 70 be ac 8a 4d bc d5 9d 3b be
       0.27571246 -0.23508205 -0.012545269 -0.18321927
000010 8d 1f 1c be 24 19 54 be 1d 08 81 bc 82 cd 06 be
       -0.1524641 -0.20712715 -0.015750939 -0.13164333
000020 48 5b 4a 3d c7 54 75 be 6d fa 3b 3e 2a dc 89 3e
       0.04940346 -0.23958121 0.18357249 0.26925784
000030 10 09 57 be 20 73 40 bc a2 11 d6 3d 75 5e b5 3e
       -0.20999551 -0.011746198 0.10452582 0.35423627
000040 8c 6d db 3d 2d 60 97 be 5b c8 d1 bd 96 85 5a bd
       0.10714254 -0.29565564 -0.10243293 -0.053350054
000050 14 35 18 be 8d 2b 20 be 96 1c 76 be db 26 c9 be
       -0.14863998 -0.15641613 -0.24034342 -0.39287457
000060 15 48 9c 3e 20 c8 6e bd 69 38 6b bb 0d 4a 59 bc
       0.30523744 -0.058296323 -0.0035891777 -0.013262284
000070 25 eb 1a be 84 f1 ea 3c af b8 e0 bb cb 67 b7 bc
       -0.15128763 0.028679617 -0.0068579535 -0.02238836
000080 78 5f 9d 3d 60 fb 7f 3d 4a c8 8d be 3e 0b c8 3e
       0.07684225 0.06249559 -0.2769187 0.39071077
000090 11 71 9f be e4 22 69 be 31 47 24 3e 79 75 c5 be
       -0.3114095 -0.22767216 0.16042782 -0.38566187
0000a0 40 b9 6e be 90 a2 07 bd fe 61 9a bc d1 84 91 bd
       -0.23312855 -0.033114016 -0.018845554 -0.07105411
0000b0 df 22 06 3e c5 03 32 3e 94 93 ec 3e ee de 45 3d
       0.1309924 0.1738425 0.46206343 0.048308305
0000c0 49 0e 2e 3e 7f ba a2 be 08 fd 39 3c e7 5f 18 3e
       0.16997637 -0.3178291 0.011351831 0.14880334
0000d0 97 92 93 3d 21 47 3d be 4a b3 ed be c4 23 50 3e
       0.07205694 -0.18484165 -0.4642585 0.20326144
0000e0 f8 4d bc be f7 60 91 bd 9d f1 91 be a9 e0 fe bd
       -0.36778235 -0.07098573 -0.2850465 -0.12445194
0000f0 e7 b4 db bd 36 aa df bd bb a9 85 3e ac 4b 06 3d
       -0.10727864 -0.10921137 0.26106057 0.03278701
000100 21 69 e4 bd 9f 4e 86 3c 90 fa c6 bc 03 b9 15 be
       -0.11152864 0.016394911 -0.0242894 -0.14621358
000110 12 48 b3 3e 24 63 36 3d 78 33 51 3d a4 4e ad bc
       0.35015923 0.04452814 0.051074475 -0.021155663
000120 1b 77 e4 be 57 b3 17 be 69 32 66 be d0 2c 7c bd
       -0.4462212 -0.14814506 -0.22480167 -0.061566174
000130 6b 69 b6 bd 5e 40 d9 3c d5 ac 8d be 25 bf 13 be
       -0.08906826 0.02651995 -0.27670923 -0.14428385
000140 51 96 b3 be d5 aa c2 bd 9f e8 11 3e f7 43 58 be
       -0.3507562 -0.0950524 0.14248894 -0.21119677
000150 6b c3 06 be 3b ad 9f 3e ed 8e 6c be a7 0f b9 bd
       -0.13160484 0.31186852 -0.23101397 -0.090361886
000160 43 6d 82 be 5c a2 54 3e 62 f7 37 3e 1f b4 ef bd
       -0.25473985 0.2076506 0.17965463 -0.11704277
000170 1b fe 05 bd cf 83 e2 3e 02 e0 9e bd 9f 5a 2b 3d
       -0.032713037 0.44241187 -0.0775757 0.04183447
000180 b3 ad 11 be 89 2d 1f 3f 7c 14 12 be 46 4d 8b bd
       -0.14226417 0.62178856 -0.14265627 -0.06801848
000190 d2 40 b9 3e 09 d4 ec 3d 3c 09 48 3e e2 db bf bd
       0.36182266 0.1156388 0.19534773 -0.09368111
0001a0 e3 dd b8 bd 04 9c 8d bd 93 3a af 3d c0 15 a9 be
       -0.090266965 -0.06914523 0.08556094 -0.33024406
0001b0 0b 84 7e bd 8c 10 bd 3d cf a2 8d 3c 9f 69 13 3e
       -0.062137645 0.09231672 0.017289547 0.1439576
0001c0 69 7f 13 be 55 1e 99 3c 3d da 5d be 66 cf 32 3c
       -0.14404072 0.018691221 -0.21665283 0.010913705
0001d0 35 99 62 be 14 91 03 bd 9e d2 fc 3b 58 03 31 3c
       -0.22128756 -0.03212078 0.007715537 0.01080402
0001e0 4c 7f 91 be a5 c6 cf 3e cd 38 a1 bb a0 e6 cf be
       -0.28417432 0.4058124 -0.0049201013 -0.4060564
0001f0 46 71 55 be 15 2c 83 3e 3c ca d2 3e 68 0c 73 3e
       -0.20843992 0.2561957 0.41169918 0.23735201
000200 9a ca e0 bd 5c dd ab bd 05 7a 33 be c2 d0 cb bd
       -0.10976143 -0.0839183 -0.17527016 -0.09951927
000210 e9 d0 bf bd 83 0d 0f be 07 87 83 bd 2d ce 79 be
       -0.09366018 -0.13969998 -0.06422239 -0.24395056
000220 09 71 ca bd d0 77 32 bc 96 03 07 be 44 66 02 be
       -0.09884841 -0.010892823 -0.13184962 -0.12734324
000230 b8 c2 b2 bd 83 94 13 be e0 23 02 bb 61 01 a4 be
       -0.08728546 -0.14412121 -0.001985781 -0.32032302
000240 4c 28 ea 3c 86 54 b6 3d 77 6d 46 be b4 5d 57 bd
       0.028583668 0.0890284 -0.19377695 -0.052579597
000250 be 28 72 be 1d d4 4a be 1f 10 49 be be 20 1d be
       -0.23648354 -0.19807477 -0.19635056 -0.15344521
000260 61 5d b3 bc b5 45 1b be 08 42 d9 bd 88 4c 09 3c
       -0.021895112 -0.1516331 -0.106082976 0.008380063
000270 cb d6 5a be 43 eb b5 bd 10 d2 87 3d 2b 6b e7 bd
       -0.21371 -0.08882763 0.06631863 -0.112997375
000280 1b 93 bb be 4f 5b 51 bd ad 38 b6 3a 50 5e 2c be
       -0.3663567 -0.05111247 0.0013902389 -0.16832852
000290 94 a7 52 3d a8 26 95 3d 5f 79 30 3e f4 fb 2f bd
       0.051429346 0.07282764 0.172338 -0.04296489
0002a0 e0 d8 15 3e 93 6e 8b 3d c0 76 b4 3c ba 5a 72 bd
       0.14633512 0.068082 0.02202928 -0.059168555
0002b0 cf 32 c3 bd c2 92 47 be 62 69 48 bc 23 4e 86 bc
       -0.09531175 -0.19489577 -0.0122321565 -0.01639468
0002c0 a7 dc 48 be 30 f6 99 bb b7 c8 9e be 1e a2 20 be
       -0.19615422 -0.0046985373 -0.31012508 -0.15686843
0002d0 9a e9 22 be 1e da 41 3d c8 90 13 3c e1 a8 18 be
       -0.15909424 0.047327153 0.0090066865 -0.14908172
0002e0 b9 ae 72 be f2 e2 60 bd e6 d2 bd be 7c 17 5e 3e
       -0.23699464 -0.054903932 -0.37074965 0.21688646
0002f0 9d 7a a8 be a6 47 49 3b a0 f2 58 bc 46 32 9a bd
       -0.32906047 0.0030712872 -0.01324144 -0.0752912
000300 6a 42 81 bd 32 e5 02 bc f5 21 82 be fa 2a 53 be
       -0.063114956 -0.007989215 -0.25416532 -0.20621863
000310 e1 5b 2b 3e 90 2c 43 be 10 9a 19 3c 36 8d 3f 3d
       0.16734268 -0.19059968 0.00937511 0.04676553
000320 cc 2f a0 be e6 d5 67 be 82 a0 f5 3d 6b a7 b5 3e
       -0.31286466 -0.2264019 0.11993505 0.35479292
000330 5f 48 65 be a8 3d 91 be 88 e8 79 3d a1 97 8c 3e
       -0.22390889 -0.28367352 0.061012775 0.27459434
000340 4f 59 67 be db 3c e1 3d cc 4a 89 3d 3a 14 87 3e
       -0.22592662 0.109979354 0.067037195 0.2638262
000350 66 43 db bd 4b 4a b6 be b8 95 ab be dd 78 11 3d
       -0.107062146 -0.35603556 -0.33512664 0.035515655
000360 b4 4c f8 bd 9e 13 41 3e 40 3a 81 be 06 d8 95 bd
       -0.12124005 0.1885514 -0.25239754 -0.07316594
000370 17 01 00 bd 59 03 c7 bd 65 ab 4a be 75 e8 b1 3e
       -0.03125104 -0.097174354 -0.19791944 0.34747663
000380 6c 45 fd bd c8 ae 6b bc d4 fb 53 bd 2d 97 3b be
       -0.12366757 -0.014384933 -0.051753834 -0.18319388
000390 b7 ef 42 be 98 79 43 be 39 ab dc bc 1d 2d 05 bc
       -0.19036756 -0.19089353 -0.026937114 -0.008128432
0003a0 b5 f5 85 bc af d3 7b be c8 2d 3a bc 04 3e c0 3e
       -0.016352514 -0.2459247 -0.011363454 0.37547314
0003b0 a3 ab 00 3f 79 49 a2 bd 6b 53 a4 3d f4 61 be 3d
       0.50261897 -0.0792417 0.08023723 0.09296027
0003c0 e4 3b 67 3e 6b 47 eb 3e 53 da b2 bc 5d e0 a3 be
       0.2258144 0.45952925 -0.02183262 -0.32007113
0003d0 e7 05 83 3e 4c 8b 71 3b 5a 83 09 be e6 23 db 3d
       0.2559044 0.003685671 -0.13429013 0.107002065
0003e0 27 78 54 be 82 d8 15 3e 00 5e 2a 3b d8 1f 05 3e
       -0.2074896 0.14633372 0.002599597 0.13000429
0003f0 b3 7f d1 3d a8 82 d0 bc ec be 42 3c 39 73 c6 3d
       0.10229435 -0.025452927 0.01188634 0.09689946

linear2.bias f4 [4]
000000 45 86 74 3e b0 4c 52 3e 03 3c 04 3e 63 e7 36 3e
       0.23879345 0.20537066 0.12913518 0.17861705
